microsoft_lstm_0.pth (torch, 990385 bytes, 9 tensors)

weight f4 [3195, 64]
00000000: b8e3 b4bf 8f36 acbe c501 e9be a2ea 3fbd
00000010: fcba 573f aa93 ee3e da3b 9ebf 4860 b0bf
00000020: 172c babf db06 f0be 91a2 273e 2201 5f3f
00000030: 97d9 06bf 09bf 7bbe d9e6 57bf a455 22be
00000040: 31a9 2d3e e0b1 283f 828a f93e 93e8 c63e
00000050: 6277 7f3f c60d 8c3d 0fe2 6f3f a5e4 9fbf
00000060: 3b9d 11be 5d9a ad3f 09fc eebf e99e 86be
00000070: 791f 6bbd f5c2 db3f ba87 8440 b76a db3e
00000080: b672 363f 7127 ba3f d0cc b5bd 4ac3 bb3f
00000090: 7d51 08bf f76e fbbe 8577 ee3f 8c7f a23f
000000a0: 16b6 e53e 2ddf 1d3f e92b 25bf 1220 fb3f
000000b0: cd37 733e a18b b3bf 90e0 8abf a325 87bf
000000c0: 5105 f13f b284 993d a259 c73f 7a00 c63f
000000d0: d8c0 8e3e b661 483f 241b 113f 7cda bb3f
000000e0: cdb5 7e3e 473b 293d 433d 993f f16e eebe
000000f0: 1146 2a3f b1f3 87bf d33c d73e dd77 d5be
00000100: 3efd 353f d551 1abf 3bc5 9dbf c579 913f
00000110: 7111 eb3e 1961 a33d ca09 a73e 8795 1f40
00000120: 5688 143b 49fe 02bf 9d3b 0d3f 5c77 323f
00000130: 7a8c c3bf 7154 30bf 0c11 aebd 805b 553d
00000140: 1dc7 60bf 2b47 183f 8db4 be3d 418f 48bf
00000150: 6797 823e a1fb 9cbf 4f1f b43e 0362 113f
00000160: e6ba d1bc f33b 3440 8e55 b83f 3b3b 28be
00000170: 4430 883f a487 f73d e8f1 93bf 813b b6be
00000180: 81e2 adbf 764b 58bf f296 173f d18b 6d3f
00000190: f318 afbf c67b 673f 91eb c0bf da43 493f
000001a0: 455c 88bf 8a47 95bf 84b6 ce3f ae6b ee3f
000001b0: bf51 c33f 8839 603f 1df8 4cbf 547c 24bf
000001c0: 7820 6cbf 4c99 48bf 3a3f 7c3d 4a2a 27bf
000001d0: 7414 313f e6d9 03bf 395b 933e 7d67 4440
000001e0: 0f5b b53e 58dc 523e a9c5 953f f59c 58be
000001f0: f628 8abf 2a9f 093f 2f7a 0ebf 5042 e63d
00000200: ce33 363f d9ed f3bf e7cb a1bf 54d0 e43f
00000210: b191 52bf abec 95bf 5f47 d2bf abab 06be
00000220: 9285 04bf be41 593f a890 02c0 4fb2 15bf
00000230: 9658 273e 0141 c23d bef2 4d3e d479 49bc
00000240: 4828 f13c f9fe 40bf 293c 3c3e 6499 e9be
00000250: 03b7 82bf bba4 c5be dc22 a2be 9ea3 803d
00000260: 1749 db3e 660e 91bf cccc bebe 35b5 633e
00000270: 9a55 bebe 49a8 763f 9f11 55bf 3ffb 0fbf
00000280: dfde 4bbf 6b07 ce3f f69a b23f b7fb 403f
00000290: b4d6 0b40 e52c 0ebf 148d a8bf c3fb b03e
000002a0: 54da 48bf 5dc1 da3f be74 b8be 358b 363f
000002b0: 1981 e83f cef0 3e3d 0d62 d53f 54b4 113f
000002c0: 81ac 2b3f 6f73 923f a55c 213e 8899 4f3f
000002d0: 5495 643f 9125 583c e203 443f b5eb 8a3f
000002e0: f690 5d3f 94cc 0f3f cc1a c7be 594d 733c
000002f0: f2bc 45bf 77ec f43f f409 823f 59d5 2fbe
00000300: 8df9 5dbf 53c6 33bf 3dc9 f0bd ec51 88bd
00000310: 625e c8be dcca 6abd e799 adbe b7c9 ebbe
00000320: 667b 0fbf 674c 5fbe 37be e9bf 70ce 8fbf
00000330: cda7 b1bf f03c 2ebf 1cde ac3a 00b2 5ebf
00000340: 9473 1cbe 78c0 5a3f 3bea aa3e 73d3 983f
00000350: 9114 133f b967 73bf 1a6f 1ebf 6c84 533f
00000360: e7c4 1f3e 9051 573f 0b2d 93bf b02c 76be
00000370: 935b 903e ed45 873e a318 1cbf e11e d73f
00000380: e509 023f 4912 e3be bbd2 93bf 68cf 2740
00000390: 1398 863e 66e8 643f 4fa7 423f bbcc eb3f
000003a0: 772b 1abf 40ad 9e3f 8e3f 9d3e 7931 1c3f
000003b0: c09a 96bd b9bc b3bf 40b1 e5be 3a22 4cbf
000003c0: 4af4 043f 00f5 27bf 09ee 9fbf a436 153f
000003d0: 4130 8cbf 7b76 85bf 1e20 0abf 527b dfbf
000003e0: d3a3 ecbd e73c b9bf a1b6 5abf 084d 5a3f
000003f0: 19d4 d03e d4d5 74be c2ea 793f 71ae 06c0
-1.4131994 -0.33635375 -0.45509163 -0.046854623 0.8426969 0.46597034 -1.2362015 -1.3779383
-1.4544705 -0.4688023 0.16370608 0.87111104 -0.52675766 -0.24584593 -0.8433662 -0.15852982
0.16959073 0.65896416 0.48738486 0.38849315 0.9979154 0.068385646 0.93704313 -1.2491652
-0.14220135 1.3562733 -1.8670665 -0.26293114 -0.05740306 1.7168871 4.141568 0.42854854
0.71268785 1.4543287 -0.088769555 1.4668972 -0.5324934 -0.49108097 1.8630224 1.2695174
0.44865483 0.61668664 -0.64520127 1.9619162 0.23751755 -1.4026986 -1.0849781 -1.0558361
1.8829747 0.07496013 1.5574229 1.5468895 0.27881503 0.78274095 0.5668204 1.4676051
0.24874039 0.041316297 1.197182 -0.46569017 0.6651316 -1.0621244 0.42038593 -0.4169301
0.7108954 -0.60281116 -1.2325815 1.1365286 0.45911744 0.07977504 0.32624656 2.4935014
0.002266427 -0.5116926 0.5516909 0.6971338 -1.5277245 -0.6887885 -0.08499345 0.052089214
-0.8780382 0.59483594 0.09311781 -0.7834359 0.25506136 -1.2264291 0.35180137 0.5679018
-0.025601815 2.816159 1.4401109 -0.16428845 1.063973 0.12086418 -1.1558199 -0.35592273
-1.3584749 -0.84490144 0.592147 0.9279147 -1.3679489 0.9042324 -1.5071889 0.7861916
-1.0653158 -1.1662457 1.6149449 1.8626611 1.5259322 0.87587786 -0.8006609 -0.6425221
-0.92237043 -0.7835891 0.061583735 -0.65298903 0.69171834 -0.5150436 0.28780535 3.0688164
0.35421035 0.20591867 1.1700946 -0.21153624 -1.079375 0.5375849 -0.5565519 0.11243117
0.711728 -1.905696 -1.2640351 1.7876077 -0.8225356 -1.171285 -1.6428031 -0.13151424
-0.5176631 0.8486594 -2.040079 -0.584752 0.16342387 0.09485055 0.2011213 -0.0122971125
0.029438153 -0.7538906 0.18382324 -0.4562484 -1.0212101 -0.38602242 -0.3166722 0.062812075
0.428292 -1.1332519 -0.37265623 0.22237094 -0.37174684 0.9635053 -0.8323001 -0.56242746
-0.7963695 1.6096014 1.395354 0.75384086 2.1849794 -0.55537254 -1.3168054 0.3456708
-0.7845814 1.709026 -0.36026567 0.71306163 1.8164397 0.046616368 1.6670548 0.56915784
0.67060095 1.1441478 0.15757997 0.81093645 0.89290357 0.01319255 0.76568425 1.0853182
0.8654932 0.56171536 -0.38887632 0.014849984 -0.7724143 1.9134663 1.0159287 -0.1717123
-0.8670891 -0.70224494 -0.11757133 -0.0665625 -0.39134508 -0.057322368 -0.3390648 -0.46052334
-0.56047666 -0.21806489 -1.8261174 -1.1234875 -1.3879334 -0.68061733 0.0013188752 -0.86990356
-0.15278465 0.85449934 0.3338183 1.1939529 0.57453257 -0.95080143 -0.6188828 0.82623935
0.15602456 0.8410883 -1.1498121 -0.24040484 0.28194866 0.26420537 -0.6097509 1.6806298
0.5079635 -0.44349888 -1.1548685 2.622034 0.26287898 0.8941711 0.7603654 1.8421854
-0.6022257 1.2396622 0.3071255 0.6101299 -0.07353735 -1.4041969 -0.44861794 -0.79739726
0.51935256 -0.65608215 -1.2494518 0.582865 -1.0952226 -1.0426782 -0.53955257 -1.7459509
-0.115546845 -1.4471711 -0.8543492 0.8527379 0.40786818 -0.23909694 0.97623837 -2.104397

weight_ih f4 [256, 64]
00000000: c33c dc3d 174c dbbc fb6d dbbd b72f c73b
00000010: 370f fe3d 1da8 103d 5d5e 243d 6485 0b3c
00000020: 8fff 123e efe6 5abd c98a ab3d c59f c4bd
00000030: 8574 ae3d cb0d f1bd 16cc 65bd f4b9 2bbe
00000040: 40d6 e73d b9f4 773d 8dcb bfbb 7104 043e
00000050: 7825 e6b9 8f12 87bd f78a 123e a838 71bd
00000060: 1682 ff3c aa6d 813c 8459 b53c 6cdd 10bd
00000070: 0dfb cc3d 7a23 aabd c820 353d 5551 f23d
00000080: f76b d13c b59c cfbd ddda af3d 1634 44bd
00000090: 10f6 523d 15aa 443d ecab 633c 58db dabd
000000a0: 7a00 5dbd c9e3 8e3d 51a6 cd3c 590d d0bb
000000b0: b5dd 993d bfee be3b c8f9 01be d3bd 4a3d
000000c0: ec5a 273d 130c a8bd 9f0d ee3d f714 4abd
000000d0: e691 82bc fbb4 87bc b362 4f3c 6300 0c3d
000000e0: 62b3 3a3d 502e 11be 453f f0bb 4434 e53d
000000f0: 6f5a 833d 55ae c83d 26d6 c03d 54ba b4bc
00000100: 6ced ff3d 621f 003c ed57 5eba f30a 133d
00000110: e2e5 8a3d b869 a23d a946 4ebd 610b c63a
00000120: 2142 88bd 36d3 f8bd 6275 a03d 3ca3 483d
00000130: 6495 b5bb b778 d93b aed3 a7bc fdd9 b73d
00000140: e579 ac3d ffc5 7f3d 616e 993c f63c cebc
00000150: f9b9 4f3d ad13 e53d 00e8 333d 4a04 aabc
00000160: a402 42bd adfe fe3c 76ab a2bc 074e 8c3d
00000170: 4d5a 91bd 1502 b93d e6c4 2abd c005 dc3c
00000180: 7686 033e c56a c2bd 4801 fb3c 6183 d1bd
00000190: 2463 4e3c f047 e8bb 87ab f73d 4d6e e4bc
000001a0: cf93 b43d 1a4e 203c f6ca be3d f761 51bd
000001b0: 13ad f4bd 9a9b 8f3d b085 f93c ca59 1c3e
000001c0: 7cce 1abd cd21 ef3d 7e0a c83d 749f 093c
000001d0: 12ad 023e 6951 dbbb 7cb8 27bc 770f 0b3d
000001e0: 3e76 e43d 31d9 eb3d 645f c7bd a501 8abd
000001f0: 63bf b43d f844 ec3d 3609 cbbd 977f 863d
00000200: 0a80 cf3d 9d3d 82bd bbd8 cb3b 93d1 b3bd
00000210: 1645 6ebd 7b7d 813c 510c 3dbd fde2 233d
00000220: d93d c0bd 1f25 1a3d d70b 08bc 8bac 1e3d
00000230: e1e4 edbd 17db 94bc 0b61 f1bd 53bf f33d
00000240: b6f5 f13d dd60 b8bb 71ac b43d 9a3d 9ebc
00000250: c7a4 a4bc 7532 92bd e73f a2bd 5546 163d
00000260: eca9 0bbe 3f2a 1d3e 7c95 74bd 6f63 cd3d
00000270: ae22 9d3d 3ff7 dbbd ac21 55bd 9bff 86ba
00000280: ff33 f13d 8069 773c 2d21 edbc 3186 03be
00000290: 65cd 553d 558c 6d3b 79a2 2a39 e65f e4bc
000002a0: f8da 2ebe 30e3 833d 98ac e7bd 0973 a0bc
000002b0: 9334 813d 102c 9c3c 9527 8cbd 3958 7cbd
000002c0: a933 b7bd 5b75 adbd b44b 9f3d 15ff d23d
000002d0: 68dc 43bd 797b 5abd 8881 193d 81c4 04be
000002e0: b4f3 5ebd ee23 0dbd a724 753d b67d fc3c
000002f0: 9f15 633d eb81 35bc 8b42 ed3d 4353 643d
00000300: d77c c43d 39e7 f7bd ad1a bb3d ecb4 4e3d
00000310: dc15 99bd e552 c53d 5a41 fdbc aadd a93c
00000320: dfb2 463d 80f9 9cbd 92f7 36bd d68d 093e
00000330: cf06 d6bd 9bb7 98bb 86f7 bdbd ef79 9dbd
00000340: 3cba df3d 028a 0e3e e474 6abd f861 9cbc
00000350: 6b7b dd3c 59fc ee3b 23c0 d53c e2b0 ad3a
00000360: 16be 5abd 00fb dc3d ae9e 8abc a2b3 f23d
00000370: 3cf5 e5bc 6f00 cabd 7603 c4bd 7b92 ac3d
00000380: 68d1 833d fbca bf3d 261e 0dbe d43a 9a3d
00000390: d75f 9abd e681 06bd ef01 67bd 8420 823c
000003a0: 36d2 6c3d 7fb2 2e3c 891e 9abb 9305 bdbd
000003b0: 650e ec3d 4dfa 573d a4bc 77bd 99fe 33bd
000003c0: 093d e33d 08dc 493d 9927 29be b282 11bd
000003d0: eb95 0dbe 4963 aebd 5cd8 9a3d 50f2 973c
000003e0: b4cb afbd b950 693d 915e ecbd 394e aabd
000003f0: 90f0 283c efdf a7bc 8450 a4bd 1695 81bd
0.10753777 -0.02676968 -0.107143365 0.006078686 0.12405246 0.035316575 0.040129054 0.0085156895
0.143553 -0.05344289 0.083760805 -0.09600786 0.08518318 -0.11770209 -0.056102835 -0.16770154
0.11320162 0.06053612 -0.0058531226 0.1289232 -0.00043896935 -0.06595337 0.14310823 -0.058891922
0.03118996 0.015799362 0.022137411 -0.035367414 0.10008822 -0.08307548 0.044220716 0.11831919
0.025564177 -0.10137311 0.08586667 -0.047901236 0.051504195 0.048013765 0.01389597 -0.10686368
-0.053955533 0.0697704 0.02510372 -0.0063492474 0.075129904 0.0058268006 -0.1269294 0.049497437
0.040858194 -0.08205428 0.11623692 -0.0493364 -0.01593871 -0.01656579 0.012657809 0.034180056
0.04558123 -0.14177823 -0.007331761 0.111916095 0.06413733 0.09798876 0.094158456 -0.022061504
0.124964565 0.007819982 -0.000848173 0.035899114 0.06782128 0.079303205 -0.050360356 0.0015109592
-0.06653238 -0.1214966 0.07834889 0.048983797 -0.0055414904 0.006636705 -0.020486679 0.08977125
0.08421687 0.062444683 0.01872939 -0.025175553 0.050714467 0.111853935 0.043922424 -0.020753998
-0.0473658 0.031127298 -0.01985715 0.0685082 -0.07097302 0.090336 -0.041691683 0.02685821
0.12844262 -0.09493021 0.03064026 -0.10230137 0.012596879 -0.0070886537 0.12093263 -0.027884627
0.08817255 0.009784246 0.093160555 -0.051118817 -0.11947074 0.070121005 0.030459255 0.15268627
-0.037794575 0.11676369 0.09767626 0.008399833 0.12761334 -0.0066930545 -0.010236856 0.033950295
0.111553654 0.11516035 -0.09734991 -0.06738595 0.088255666 0.11536592 -0.09913866 0.065673046
0.101318434 -0.06359408 0.0062209046 -0.087802075 -0.058171354 0.015806904 -0.046154324 0.040011395
-0.093867965 0.037633058 -0.008303604 0.03873877 -0.11615921 -0.018170876 -0.117860876 0.119017266
0.11814444 -0.0056267814 0.08821953 -0.019316483 -0.020098103 -0.0713853 -0.07922345 0.036688168
-0.13639039 0.15348147 -0.059712872 0.10028731 0.0767263 -0.10740518 -0.052034065 -0.0010299565
0.117774956 0.015100837 -0.028946484 -0.12844159 0.052197833 0.0036246974 0.00016272989 -0.02787776
-0.17075717 0.06439817 -0.113122165 -0.019586103 0.06308856 0.01906398 -0.06843487 -0.061607573
-0.089454 -0.084696494 0.07778111 0.10302559 -0.047817618 -0.05334041 0.037477046 -0.12965585
-0.054431632 -0.034458093 0.059849408 0.030821662 0.05544054 -0.011078338 0.11584958 0.055743467
0.09594124 -0.12104649 0.091359474 0.05046551 -0.074748725 0.096349515 -0.030914951 0.02073558
0.04851043 -0.07664776 -0.044669695 0.13433012 -0.104505174 -0.0046605594 -0.09275727 -0.076892726
0.10924193 0.13919833 -0.05724038 -0.019089684 0.02703639 0.007293266 0.026092594 0.0013251568
-0.053403936 0.10790062 -0.016921367 0.118506685 -0.028071038 -0.09863364 -0.095709726 0.084263764
0.064364254 0.09364887 -0.13781032 0.07530752 -0.07537811 -0.032838725 -0.05639833 0.015884645
0.05781766 0.010662674 -0.004703347 -0.09229579 0.11526183 0.05272894 -0.060482636 -0.043943975
0.11095626 0.049282104 -0.16519012 -0.03552503 -0.1382672 -0.08515031 0.075607985 0.01854816
-0.08583775 0.05696175 -0.115414746 -0.08315701 0.010311261 -0.020492522 -0.0802317 -0.06327264

weight_hh f4 [256, 64]
00000000: f5cc 08bd 694d 183e 7cf1 aabb 4846 853d
00000010: 3e8c 123e 942a af3b 2953 353d d8b7 b4bd
00000020: 02f5 4cbc 03d9 213e 1cae 01be 6647 c03d
00000030: 77fd 16be a7a1 75bd e84e 42bd 13c0 ceba
00000040: b6df 7dbd efe7 913d 87e4 863d cfb3 533d
00000050: a393 103d 265a c5bd adc5 6d3d c2ab 5cbc
00000060: d168 143e b341 b2bd 49e9 e93c cbd9 c8bc
00000070: 4f86 293d 671a 11bd 2933 0b3e e562 da3d
00000080: 8485 4abd 4308 fe3b 4152 0ebe f202 08bc
00000090: 0f3d f9bb b11b b0bc 3492 f3bc e26c 023d
000000a0: ec18 5e3d b7c8 20bc 522b c3bc b1c5 253e
000000b0: e39a 063c 3b3a a23d a238 38be cef4 843c
000000c0: c1b2 febd 6616 533c 1504 afbc cd0a 273d
000000d0: c772 c3bc 4b99 4cbc 0838 203e e677 ad3d
000000e0: 104f f4bc 9a2d 7f3d 2bfa 413d c0c5 e33d
000000f0: b833 80bd 337b bfbd 990e c53c 75be 08be
00000100: b150 933d d2e0 debc 20e7 e53d f16f 983b
00000110: a13f 493d 4967 533c 214d 203e 2387 24bd
00000120: 30cc d5bc 51bd 8dbd b3d6 9abc 75b4 113e
00000130: 734d 623d 8eac 8a3b 764b d9bd f673 743d
00000140: 627f 34bd 1233 1b3d 8068 0fbd 6eff 8e3c
00000150: e604 34bd 664b af3d 0a0a c03d d9b4 80bd
00000160: 7aa9 0c3e f657 e4bd 50a9 72bd b607 503d
00000170: 55b2 0f3d c55c 31bc 2762 8cbd 68f7 cfbd
00000180: cb29 be3d 2dca ebbd 808a 12be b72f eb3c
00000190: e7ed 7d3d 4dd9 08bd 9b49 4bbd 2d2d 7bba
000001a0: 6d77 2e3d a95f 1abe 1a0c f13c e289 963c
000001b0: 0fa4 b83b 0221 1b3e f5f2 b4bd 12e2 e3bd
000001c0: a409 0dbd 50db 85bd ebcd b1bd fa60 1ebd
000001d0: 7865 1bbe 5a5c 3dbc 4b27 573d d47c 29bb
000001e0: a508 a63d 53c6 723b 0cd9 09be 0ea1 c6bd
000001f0: 8bde a83b 81c3 a03d d42e c1bd dd2d 15bb
00000200: 55c1 1c3c 3cd9 2f3d adb9 13bd 544b 3cbd
00000210: 28e0 e2bd 02f2 46bd 2ca2 22bd f11a 9dbc
00000220: 9973 b6bc a8d2 f33d 1e9a 84bd 7ac5 8f3d
00000230: de24 32bd d1b4 bfbd d072 2d3e 0732 c6bd
00000240: 4729 14ba 09b6 56bd f666 af3d ed22 de3d
00000250: 435c e03d cbfe efbc b140 04be 5aae 85bd
00000260: 150d c3bd 21dd 5b3c b903 fa3c 8c64 273c
00000270: 50c2 afbd caba 9b3d b109 e73d 78c9 cd3d
00000280: a721 7cbd d0e7 cd3b e189 c73c fdfd cdbd
00000290: f073 c3bd 4286 04be 0fcf ea3d 4191 d1bb
000002a0: 565c d6bc a0f0 fe3c ba8b fd3d e3a9 893d
000002b0: 63f4 b4bd 96c9 ac3c c5a5 553c d6c2 9abc
000002c0: bcdc 42bd 1b36 c1bd d3ac aabb 9020 053e
000002d0: e615 733d f12a 9ebd 11a2 763d a9ef 0abe
000002e0: c37a 97bd 59d9 be3d 6538 8cbd 4797 d3bc
000002f0: 5dce 943d e86a 85bc f440 42bd 9d80 3abd
00000300: 8776 dabd 00af a63d 2fab b6bd 90f6 b33d
00000310: a1b4 03bd f64b cabd 37f8 813d 58a6 f6bd
00000320: 73bb a43d 9294 ab3c 098e fcbc 699c ae3d
00000330: 58d4 de3d ea00 c6bd 43ec 243d 4f08 193d
00000340: 083b b13d 70d9 d1bd 87a8 b2bd 48f4 2d3c
00000350: 7e8e d1bd d1aa e2bd 939c bfbd 55ab 14be
00000360: e885 57bd 9e6a 363d 6be4 0b3e 1579 c23d
00000370: 933b 6f3c 8304 fc3c b45a aabd fb47 4fbc
00000380: 6074 823d fd20 20bc 721d 843d 0ae9 adbd
00000390: 31a4 84bd 3533 54bc f46e f0bd 238e 2fbd
000003a0: 95b2 243e 8fc7 8bbc a9de f6bd 3ef2 bf3d
000003b0: 2798 b7bd d0c6 283d 40dc 66bc 635d 6aba
000003c0: 0443 e33d fa17 9abd 15a8 d43d 647d cebc
000003d0: 553c cabc 6fb7 dfbc 3bc8 bfbd 6057 38bc
000003e0: ab61 e93d f1b7 063e d75e ee3c f40e 003d
000003f0: aca3 a8bd 5f99 8cbd f147 433d bbae cb3d
-0.033398587 0.1487328 -0.0052167755 0.06507546 0.1431131 0.005345652 0.04426876 -0.08824128
-0.012509586 0.1580544 -0.12664074 0.09388618 -0.14745127 -0.059968617 -0.047438532 -0.0015773795
-0.061980926 0.07124316 0.06586557 0.05168515 0.035297047 -0.09636335 0.058049846 -0.013468685
0.1449311 -0.087039374 0.028553622 -0.024517914 0.041387852 -0.03542557 0.13593735 0.10663394
-0.049443737 0.0077524497 -0.13898565 -0.0083014835 -0.0076061557 -0.02149758 -0.029732801 0.03184212
0.054222986 -0.009813479 -0.023824368 0.16188695 0.008215639 0.07921263 -0.17990354 0.016230013
-0.12436438 0.012883758 -0.021364251 0.040781785 -0.023858441 -0.01248772 0.15646374 0.084701344
-0.029822856 0.06229935 0.04735772 0.11121702 -0.062598646 -0.0934967 0.024054812 -0.13353904
0.07193125 -0.027206812 0.11225724 0.0046520163 0.049132947 0.012903043 0.15654422 -0.04016794
-0.02609834 -0.06920875 -0.018901205 0.14228995 0.055249643 0.004231996 -0.10610096 0.0596809
-0.044066794 0.0378905 -0.03501177 0.017455783 -0.043949984 0.08559303 0.09376915 -0.06284494
0.13736525 -0.1114959 -0.0592435 0.050788604 0.03508218 -0.010825341 -0.068546586 -0.10154611
0.09285315 -0.11513171 -0.14310646 0.028709276 0.06199446 -0.03341036 -0.049630743 -0.0009581622
0.042594362 -0.15075554 0.029424716 0.018376295 0.0056347917 0.1514931 -0.08835403 -0.11127104
-0.034433022 -0.06535971 -0.08681854 -0.038666703 -0.15175426 -0.011557663 0.052527707 -0.0025861757
0.081071176 0.003704448 -0.13461703 -0.096986875 0.0051534823 0.078497894 -0.0943276 -0.0022762932
0.009567578 0.04293178 -0.036065746 -0.045970276 -0.11077911 -0.04857064 -0.03970544 -0.019177886
-0.022271918 0.11905414 -0.06474708 0.070200875 -0.04349219 -0.0936066 0.16938329 -0.09677511
-0.0005651903 -0.052419696 0.0856456 0.10846505 0.109550975 -0.0292963 -0.12915303 -0.065273955
-0.095239796 0.01341942 0.030519353 0.010216843 -0.08581984 0.076039866 0.11281145 0.10048193
-0.06155553 0.0062837377 0.024357738 -0.1005821 -0.09543598 -0.1294184 0.114652745 -0.0063954894
-0.026167076 0.031120598 0.12380166 0.067218564 -0.088356756 0.021092217 0.013040011 -0.018891733
-0.04757379 -0.09434148 -0.0052085905 0.13000703 0.059347056 -0.07723034 0.060213152 -0.13567986
-0.07396462 0.093187995 -0.06846694 -0.02582897 0.07265923 -0.016286328 -0.047425225 -0.04553281
-0.106671385 0.08138847 -0.089193694 0.087872624 -0.032154683 -0.0987777 0.06346171 -0.12043446
0.080435656 0.020944867 -0.030829446 0.085259266 0.10880345 -0.09668143 0.04026438 0.03736144
0.086538374 -0.10246551 -0.0872355 0.010617323 -0.10232256 -0.11067737 -0.09356036 -0.14518483
-0.052617937 0.04453527 0.13661353 0.09495751 0.014601606 0.03076387 -0.083180815 -0.012651439
0.06369853 -0.00977349 0.06450929 -0.08491714 -0.064766295 -0.012951662 -0.11739913 -0.04286016
0.16083749 -0.01706293 -0.12054188 0.09372376 -0.08964568 0.041205227 -0.014090598 -0.00089403073
0.110967666 -0.075241044 0.103836216 -0.025206275 -0.024686972 -0.027309148 -0.09364363 -0.011251301
0.11395582 0.13156106 0.029097958 0.03126426 -0.08234343 -0.06865191 0.04767603 0.099454366

bias_ih f4 [256]
00000000: a7de e13d 7b7e 9fbd 7a0e 1d3e 4eb0 a3bd
00000010: 4020 09bd 44b7 1d3e 7ed3 243d cd84 df3d
00000020: ce49 c3bc 3637 c43d 25d1 013e 770a 59bd
00000030: fa7c 87bd f87d 98bb 05d9 6ebd 0810 cabc
00000040: 7015 073e f80c 87bd 8ed6 d03d 2a1e 253e
00000050: fe7a 08bd c958 ffbc faa3 ed3d bd8a 9c3c
00000060: 461b 04bd fd64 2a3d 7f0d 27bd 7b5f b73c
00000070: 091f 56ba 6264 393e b05e 083e 962f 9d3b
00000080: a412 94bb 8fc2 74bc 9ffc cc3d ed65 e33d
00000090: 65e4 f2bc 3047 da3b 0919 df3d d455 96bd
000000a0: 1421 123b 0c0d d23d d061 9a3d d093 f03d
000000b0: 9923 94bd 15c0 e23d 8d4b 06bd 3024 bd3d
000000c0: 8d56 d43d 6e31 ee3d 283e 853d 01cc aa3d
000000d0: 867b ec3d d4e7 fc3c ec2a 513d 2beb 213d
000000e0: d831 e43d a7e0 0f3e 55fd 28bd 79e6 b6bd
000000f0: 5a17 1ebd 4ef8 bb3c 39fd 553d 3f09 d83c
00000100: 42e4 9c3d 28af 083e ce63 8b3d df7b b73d
00000110: 6415 b4bc 2015 aebd bbfc 0dbd 83c3 aabd
00000120: dbbf 93bd 7779 893d 3629 dabd aef6 cf3d
00000130: d000 a1bd f392 57bd 1fdd e13d de01 273d
00000140: 4ff1 adbd 85af 373b 3983 073e fa74 8c3c
00000150: eda3 973d fd9d 01bc 893e a03c ad08 013e
00000160: 763a 243e da7e 2ebd fcc9 9d3d 741f 74bd
00000170: 5c9d ff3d dfca 9d3d 7775 93bd d507 293e
00000180: 2441 113d de19 d4bd a91d e13d 1c0f 5a3c
00000190: 352e 9b3d 2a9d 5bbd 320f d53d adf0 10bd
000001a0: 17c1 263e 81c2 2ebd 9c88 5dbc b7d5 a5bd
000001b0: 78f9 9ebd 6cf5 a8bd 351d 163e a94b 103e
000001c0: c850 c73d 2ee7 113d 753a 0c3e 999d 6dbd
000001d0: 9b5a 0ebd 9908 ac3d 06ec 373d 721b c1bd
000001e0: e47a bfbd de0c 92bd 50fb fbbc 35c8 183c
000001f0: ed40 5cbd 5560 bbbc d982 d0ba 058e 9a3d
00000200: 78b4 a8bd eb85 b83d d20d 09bd 48c1 fcbc
00000210: 7903 f6bb d204 ea3d dfea d23d d5c9 893d
00000220: 85fe b5bd c8bf 7e3d c8b9 01be 232a 023e
00000230: 7c8c c1bb f0b3 07be 0ccd 7a3d 22ee b03d
00000240: a358 a4bd 6e52 043e 8c3c db3d 757d 9c3d
00000250: 5238 b53a 925f c03c f8bb b2bd a436 69bc
00000260: dcdc b13d f4ae 04be 8265 ebbc 44ca 4a3b
00000270: 82fc 593c 4cae 08be a7ca 87bd 9999 bfbc
00000280: 129b a53d 8d5a 8c3b 2032 c2bb ed00 d3bd
00000290: eec9 8fbd 90ab 383d d108 a83c a491 6abd
000002a0: 8dc9 313c 6faf 2b3d 2678 883d cf19 cd3d
000002b0: ef61 383d 8047 b13c 6b9d 5c3d 6568 09be
000002c0: eb26 463d 019d 8d3d e683 803d bbe7 cb3d
000002d0: 51f6 383d 424f d73d f2c4 ad3d 4515 98bd
000002e0: 5b78 54bd 14cb 04be 0f02 bcbd 6e32 9abc
000002f0: e4fe e6bd e3bb 72bd 7746 7cbd 2049 edbd
00000300: 38fd 2a3d 7099 4d3b 1169 d33d b65a fbbc
00000310: 7346 85bd c145 103e 2a37 a2bc 4392 8abd
00000320: c5b2 ec3d 162b 99bd 272e 99bd ad83 0b3e
00000330: 2d34 9bbd edb1 d63d 75a3 cdbc 27d5 933d
00000340: 8080 d4bd 8063 b4bc 9858 2e3e ccde 383d
00000350: cd6f 0a3d 1139 753d 0894 f83d da88 a03d
00000360: 6aa8 fc3d 22d2 9abd e9be b9bd 4b2a df3d
00000370: 265b 0d3e 0123 96bc 316b 84bd fa0b 98bd
00000380: 5f66 453c 175b afbd f70e 87bc 7495 503d
00000390: d96a f43d 61c6 a8bc 2699 f03d d328 9ebd
000003a0: e118 bd3c 681a 183e 2942 1d3c b076 79bd
000003b0: 423f 053e 6c37 b73c 9476 f13d ce7a 07bd
000003c0: aa29 71bd 0657 99bd a6e6 cbbc 2ecb 0a3c
000003d0: a091 7f3d a41f f63b 6367 9dbd 76e0 6abb
000003e0: 959e ffbb 8973 833d 646e 1bbd 7d8b 013e
000003f0: 266f 1bbd 0640 923c b8ae 01bd 5c01 ae3d
0.11028796 -0.07787796 0.15337554 -0.07992612 -0.03347802 0.15401942 0.040240757 0.109140016
-0.023838904 0.09580843 0.12677439 -0.052988496 -0.06615634 -0.0046536885 -0.058312435 -0.024665847
0.13191772 -0.065942705 0.10197173 0.16124788 -0.03332042 -0.031170266 0.11603542 0.019109124
-0.032252572 0.041600216 -0.040784355 0.022384396 -0.0008168077 0.18104699 0.1331737 0.0047969325
-0.0045188237 -0.0149389645 0.10009121 0.11103425 -0.029649923 0.0066613182 0.10893447 -0.07340589
0.0022297548 0.10256395 0.075381875 0.11746943 -0.07233352 0.11071793 -0.032786895 0.09235418
0.10368071 0.11630522 0.06505996 0.08339692 0.11546998 0.030872263 0.051066324 0.039530914
0.111423194 0.14050542 -0.04125722 -0.08930678 -0.03859649 0.02294555 0.052243445 0.026371596
0.07660724 0.13348067 0.068061456 0.089591734 -0.021982856 -0.08500123 -0.03466485 -0.08338072
-0.07214328 0.06712621 -0.106523916 0.10154472 -0.07861483 -0.052630376 0.110285036 0.040773265
-0.084932916 0.0028028202 0.13233651 0.017145623 0.07404313 -0.0079112025 0.01956107 0.12600966
0.16037926 -0.042601444 0.07704541 -0.05960031 0.12481186 0.0770471 -0.07200139 0.16506894
0.035462514 -0.10356496 0.10991985 0.013309266 0.07577173 -0.05361668 0.10403289 -0.035385776
0.16284595 -0.042665962 -0.01352134 -0.080974035 -0.07762426 -0.082499355 0.14659579 0.14091362
0.09732205 0.03562086 0.13694175 -0.058011625 -0.034754377 0.084000774 0.044902824 -0.09429063
-0.093496114 -0.071313605 -0.030759484 0.009325077 -0.053772856 -0.022873083 -0.0015908136 0.07546619
-0.08237547 0.09009918 -0.033460446 -0.030853882 -0.007507738 0.11426701 0.10298704 0.067279495
-0.088864364 0.062194616 -0.12668526 0.12711386 -0.0059066396 -0.13252234 0.061230704 0.0863917
-0.080247186 0.1292207 0.10704908 0.076411165 0.0013825989 0.023483071 -0.087272584 -0.014234219
0.08684704 -0.12957364 -0.028734926 0.0030943314 0.013304831 -0.13347739 -0.0663045 -0.02338867
0.08086218 0.0042832554 -0.0059263855 -0.10302911 -0.07020937 0.04508549 0.020512016 -0.0572678
0.010851276 0.041915353 0.066635415 0.10014688 0.04501527 0.02164054 0.053861063 -0.1341873
0.04837696 0.06914712 0.06275158 0.099563085 0.04515678 0.10513164 0.0848483 -0.07425932
-0.051872592 -0.12968093 -0.0918008 -0.018822875 -0.11279085 -0.059261214 -0.061590638 -0.11586213
0.041745394 0.0031371973 0.10322774 -0.030682903 -0.06507578 0.14089109 -0.019801695 -0.067661785
0.11557535 -0.07478921 -0.07479506 0.13624449 -0.07578311 0.104831554 -0.025102356 0.0721839
-0.10376072 -0.022020102 0.17025983 0.04513435 0.033798028 0.059868876 0.1213761 0.07838602
0.1233681 -0.07559611 -0.09069616 0.108967386 0.13804302 -0.018327238 -0.06465758 -0.07424159
0.012048333 -0.08562296 -0.016486628 0.05092378 0.11934442 -0.020602407 0.11747961 -0.0772263
0.023083152 0.14853823 0.009598293 -0.060904205 0.13012412 0.022365294 0.11790195 -0.0330761
-0.058877625 -0.074873015 -0.024890255 0.008471293 0.06239474 0.007511096 -0.07685735 -0.0035839356
-0.007800887 0.06418521 -0.037947074 0.12650867 -0.037947796 0.017852794 -0.031660765 0.08496353

bias_hh f4 [256]
00000000: e31f e53d 1325 cf3d 945d 7f3d 6c6b 8cbd
00000010: c69b 24bd aa9b 3e3d 414a a33c 914c 87bd
00000020: f1c6 58bd 3d21 fabc a029 e63c ea8e 8f3c
00000030: 7aa1 0c3e 0656 64bc 3b28 6c3d 5ed9 8b3c
00000040: cdf3 1dbd 7a47 d4bd 5749 a4bd adf2 083e
00000050: 6512 a33d a530 873d 0d43 88bc 92a1 403c
00000060: 65af 36bc fc3c a6bd ad43 fa3d 29ca b3bd
00000070: 0442 bbbd aacc 7d3d 6f65 14bb b25a 2e3e
00000080: 7181 c53d c3f5 823d 0fb4 9abd 3fe7 81bb
00000090: 2166 80bd e128 a4bd 8d45 a83d a686 b7bd
000000a0: f460 80bd 7436 b1bd 5602 82bd 904f f03d
000000b0: 04f9 023e e1fd 84bb 82fe b7bd 7e07 b6ba
000000c0: a20d 33bc 31e1 f3bc d8ff cd3d 96c0 2b3d
000000d0: 7a5b a7bd dbad c23c 1aff 873d 8aaf 103e
000000e0: 8075 81bd 8198 8abd 9659 043e 60f2 06bd
000000f0: cb51 febc 2ecd f439 311e debc cdd1 cc3c
00000100: 6e64 c63d 68de 90bd 50c6 b03d d29d c13c
00000110: 98dd 66bc 3494 703c b4c6 4b3c d49f 943d
00000120: e0a8 963d fd5a aebd 519a c6bb 5957 d23c
00000130: 38de fd3d d7cb 8bbd f375 e2bc c3db bd3c
00000140: 6ce6 18bc b683 d33d 8ee1 adbc 8f67 883d
00000150: a874 1dbd 1edb 79bd 2dcd 673d 66c0 723d
00000160: 1430 5cbd 6648 4e3d 0eed 3b3d 5bc8 cc3d
00000170: 5623 073e 597d 023e d47d f33c 8c3e 7e3d
00000180: bccb b43d 5bc3 f03d de9f 2c3e f9ee 0f3e
00000190: 083e c43c 04b4 e93d 0581 913d d788 183e
000001a0: 2f72 b63d b76a c83d e4da 873d 9d3b e23d
000001b0: d033 e9bd c8bf 9c3c dd79 e43c bd4b 883d
000001c0: a85d eabd 944c 5f3c 94ff 0f3e 7e22 1a3e
000001d0: 633d 8c3d 87f1 aebd 0147 69bd 9eaf 9fbd
000001e0: 6af0 b63d 71b1 073e 61d2 ebbd ff36 20bd
000001f0: bbb5 133c 7ebd 173d 4cc2 833d 11ce b1bd
00000200: d053 a03d bb62 6fbd e0d8 de3d e28d 67bc
00000210: bda3 35bd 41e8 c63c 41c4 4f3c 6f63 abbd
00000220: 7be9 29bd 4dd3 a0bd d2f4 95bd 76c3 67bd
00000230: c841 15bd 8543 5d3d 6c6a 7ebd 7603 e0bd
00000240: b1c2 023d 151d f83c 8215 d1bd 7767 b4bd
00000250: 6f54 6f3d 5be4 b2bd 9e91 8d3d 94c7 5dbd
00000260: ee08 8f3d 1a64 cdbd 0a31 843d 5060 7e3d
00000270: 8bcf c73d 23af 0b3d 342f 8e3d 1500 6fbd
00000280: 761f e53d f13d 7d3d d4fe cbbc 91a1 96bc
00000290: c379 07be 5f2f fbbc d728 5d3c 6d3c 44bd
000002a0: d404 b8bd 8949 5cbd 5ddc c33d afc2 963a
000002b0: ec39 13bd 0b56 f63c 6d89 9fbd 44b7 9bbd
000002c0: 59a8 a63b 1664 01bd 663c ce3d 19fa 8bbd
000002d0: 8a64 bcbb 8678 59bd d686 033d b89b 573d
000002e0: 51d9 1e3d 4f7c 26bd c767 46bd 9573 cebd
000002f0: f271 6cbc b260 c5bd 4367 0fbb 8d6d a8bd
00000300: 6f5c d13d 069d 2a3d 31c6 cb3c 9f06 89bd
00000310: 16f5 943b c8e5 a9bd e966 d13d 5e0c 563d
00000320: 3341 313e ba1e f93d 91a5 4abb 51e5 923c
00000330: 8232 25bc 46b2 013e 0e94 933d f53b a43d
00000340: 50d2 9cbd 7200 d7bd c58f 253e f0d3 dcbc
00000350: dce2 bc3d c861 85bd b0db e93d 5e88 033e
00000360: 161e 983d 022f 893d ff80 cc3d cdd0 ec3d
00000370: 0f81 dc3c 3a59 3f3e 871a 54bd 6efb eebc
00000380: 880b 2bbc 4261 bc3c 346a b13d bdc4 103e
00000390: 4576 b03d 4dd9 e0bc ebec 013e a289 3abd
000003a0: c568 103e 761c 6e3d 3cd0 ee3d 3f6a fd3d
000003b0: 155d dcbd d001 e33c 7ede cd3d e6dd a63d
000003c0: c51c 51bd 7238 57bd 736c 903d 53fc 103d
000003d0: f650 0c3e af95 383d ddab 6fbd 661e 76bd
000003e0: 2f7f 16bd 7b4d 8a3d eb33 7a3d 2042 86bd
000003f0: 9c31 b4bd 94ae 02be 598c c93b 892c 783d
0.111877225 0.10114493 0.062345102 -0.068564266 -0.04018762 0.04653517 0.019932868 -0.06606401
-0.0529241 -0.030533427 0.02809602 0.017524201 0.13733473 -0.013936525 0.057655554 0.017071422
-0.038562585 -0.103651956 -0.08021801 0.13373823 0.07962493 0.06601075 -0.016633535 0.011757271
-0.011150216 -0.081171006 0.122199394 -0.08778793 -0.09143451 0.06196276 -0.0022643467 0.17026785
0.096438296 0.063945316 -0.07553875 -0.0039643343 -0.062694795 -0.080156095 0.08216391 -0.08961229
-0.06268492 -0.08652964 -0.06348102 0.11733925 0.12790304 -0.004058585 -0.089840904 -0.0013887731
-0.010928543 -0.029770466 0.10058564 0.04193171 -0.08171745 0.023764541 0.06640454 0.14129463
-0.063212395 -0.06767369 0.129248 -0.03294599 -0.031044861 0.00046692177 -0.027114006 0.025002385
0.09687124 -0.070736706 0.08631575 0.023634825 -0.014090918 0.014683772 0.012437511 0.07257047
0.07356429 -0.085134484 -0.0060608764 0.025676416 0.123959005 -0.06825989 -0.027644133 0.02317608
-0.009332281 0.10327856 -0.021225717 0.06660377 -0.03844133 -0.060999982 0.056592155 0.059265517
-0.05375679 0.050362013 0.04588037 0.09999152 0.13197073 0.12743129 0.029723085 0.062071368
0.08827922 0.11756011 0.1685786 0.14056005 0.02395536 0.114112884 0.07104687 0.1489595
0.089084975 0.09785979 0.06633547 0.110465266 -0.113868356 0.019134417 0.02789014 0.06655071
-0.11443645 0.0136290975 0.14062339 0.1505222 0.06847646 -0.085421614 -0.05695248 -0.07797168
0.08932574 0.13251282 -0.11514736 -0.03911495 0.009015496 0.03704595 0.064335436 -0.08681882
0.07828486 -0.058443766 0.108812094 -0.014132949 -0.044345606 0.02428067 0.012681068 -0.08368575
-0.04148243 -0.078528024 -0.073220864 -0.05658289 -0.036439687 0.05401947 -0.06211321 -0.1093816
0.031923953 0.030287305 -0.102091804 -0.08808797 0.05843013 -0.087349616 0.0691254 -0.05414541
0.06984125 -0.100288585 0.06454666 0.06210357 0.097563826 0.03410257 0.06942597 -0.058349688
0.11187641 0.06182665 -0.024901785 -0.018387588 -0.13230042 -0.030662237 0.0134985065 -0.04790919
-0.08985296 -0.053781066 0.09563515 0.0011502112 -0.03594391 0.030070325 -0.07789884 -0.076033145
0.0050859866 -0.03158959 0.10070114 -0.06834812 -0.00574929 -0.053093456 0.03211101 0.05263874
0.038781468 -0.040645894 -0.048438814 -0.10080639 -0.014431464 -0.09637584 -0.0021881617 -0.0822402
0.102227084 0.041653655 0.024874778 -0.06690716 0.004545818 -0.082957804 0.10224707 0.052257888
0.17310028 0.12164064 -0.003092144 0.017931612 -0.010082843 0.12665662 0.072059736 0.080192484
-0.076573014 -0.10498132 0.16168125 -0.026956528 0.092229575 -0.06512791 0.11418855 0.12844989
0.074276134 0.06698419 0.099855416 0.11563263 0.026917009 0.18686381 -0.05178311 -0.029172625
-0.010439761 0.022995595 0.08662835 0.1413755 0.08616308 -0.027447367 0.12688033 -0.045541413
0.14102466 0.05813261 0.11660811 0.123737805 -0.107599415 0.027710825 0.10052203 0.081477925
-0.051052827 -0.052544065 0.07051935 0.035396885 0.13702759 0.045064624 -0.05851351 -0.060087584
-0.036742385 0.067530595 0.06108467 -0.06555581 -0.08798525 -0.12761909 0.006150764 0.060589347

weight f4 [64, 128]
00000000: 9c7b 9abd d159 46bd c5e3 e9bc 51f0 823d
00000010: ba27 3dbd 7d4d 283d 33d3 3b3d 38a0 b9bc
00000020: 5d90 153d da53 55bc bfa3 ca3d b207 a23c
00000030: 2dce be3d 972e 833d 3f11 91bd 0767 88bd
00000040: 1fb5 85bd 8673 25bd 8b79 bf3a 23bd db3d
00000050: 7de8 6fbd 6a2d b9bc 13ae ea3d 4162 273d
00000060: 8bf9 873b a630 06bd 7953 7cbc b2f0 043d
00000070: 590a d7bd ed46 c7bc 4c05 42bd 5ece 6bbd
00000080: bfae 743d 3ded 22bd 7a96 cd3d 1668 303d
00000090: 1dc6 65bd a13f 22bc e0e9 d738 9d09 4dbc
000000a0: 7252 a0bc 968e c03d 1b8f 37bd 7039 80bc
000000b0: 1ae3 85bd 9b46 f13b c9fe 49bd b937 013b
000000c0: 19fd 303d 9143 0f3d 830a e7bd 20bb 9b3d
000000d0: d80e 103e 2377 ad3d d1a4 3ebb 9c8e 423d
000000e0: 1295 7bbd ca3f 0cbd b88f 783c 11c8 003d
000000f0: 8b9c 9ebd f5fd f23a dee4 8abd a8bc be3d
00000100: f53a 80bd b9d3 75bd 5c1f e4bd c85b 05bd
00000110: aadc 1c3c b233 b13c 9af3 5c3d d0dd 0c3d
00000120: 85c9 b0bb 9a3c 1d3d e799 1f3d ca1b bcbd
00000130: 2709 87bc 0c27 0bbd e1de 06bd a3ca 903d
00000140: 9d86 fe3c 058b 13bc 1a5e edbd df1e 403c
00000150: 7647 cdbd 8030 c6bc 52fa f0bb 65a8 b63b
00000160: 9588 f83c 7495 b63d 0d35 a8bd 43fd aabb
00000170: d1b1 c53c 9171 033e 1c8c 51bd 14c6 b8bd
00000180: 4736 42bd 8845 9437 a664 f9bc d78f 5abd
00000190: 236e 503d 37f4 88bc d31a 50bd 1200 cc3a
000001a0: eaf2 87bd 62d7 dc3c c08a c6bd 1754 3bbd
000001b0: 9c39 743d f4ce 0abd bc94 7e3c 42cf 833d
000001c0: 6d90 913d 8b50 07bd ee6e cfbd 113e fc3c
000001d0: 540c 0a3e f6af 76bd 7af4 7dbc 9fba 64bb
000001e0: 8f64 22bd 093e 3cbd d619 2c3d a4fa dbbc
000001f0: fbbb 013d 85e0 9a3c 5868 9bbd 6c38 6dbd
00000200: ce36 823c e456 003c caf0 1cbd b54d 38bd
00000210: fb0d 243d 6d6f 133d 1589 31bd c912 3d3c
00000220: 598a bdbc dfd3 d5bd f33d d23d 96c1 9bbd
00000230: ed6a 433d d19e 8cbd d2ab 743d 13de 843d
00000240: 3977 86bd e310 28bd f615 07be f8b9 cc3d
00000250: 0754 033d 785f 07bd 9e50 57bc 0fa9 813d
00000260: 2c5b a9bc 9f4d 773d 41c4 99bd a6f0 d0bd
00000270: 79c3 003d 9dfe a43d aebd 753d 2cf7 d23d
00000280: 87ac 99bc 04d1 863d 5afd 94bc 0f81 023d
00000290: e46e ca3d b440 90bd 4bed 3cbd 39b2 8e3d
000002a0: e48f eebc 90ba e13d dd43 46bd 8d47 d93c
000002b0: 7161 2fbd f787 9e3b c23f 493d bfaa 273d
000002c0: 752f 8bbc d544 5b3d 2e10 cfbd 1a70 91bd
000002d0: 49ef 3b3d 1bef d3bc a322 08bc 4db6 fc3d
000002e0: f629 883d 314e 2bbd 10ca 13bd 23d8 993c
000002f0: 1a48 90bd b6b8 dfbb 0ddb 3bbd 363e 1bbd
00000300: e8cc 4bbd d54b 08bb 5f4c d8bd e87c a6bd
00000310: 72a1 b73c 9844 1a3d 4e35 93bc 3c32 c2bb
00000320: dc98 1fbd 0a56 e9bd bd0f 3bbd bc89 b53c
00000330: 6c10 de3d 6663 b7bd dd86 89bb 3351 6a3d
00000340: 6060 01bd 1182 b5bd fc4a 3bbc f5bd c73d
00000350: a208 9f3c 8a9b d33b 9eb2 3f3d 413e 92bd
00000360: 8a43 97bc b530 763d 6a44 0cbd 5b34 b2bd
00000370: f5c6 24bd d083 ed3d 95fb 9bbd f700 173d
00000380: 2e50 b83c 565f 8f3d 2c9a d13d 4924 61bd
00000390: 9de8 8a3b f63a 0b3d 7ea3 d5bc 970e a13d
000003a0: b322 9fbd a1be 6bbc fcac e2bd 7670 983d
000003b0: 523c ab3c ee99 893d 52f5 bf3d f58b c23d
000003c0: acd2 a6bd 6e02 f53c d386 61bd 06ce cfbd
000003d0: f7d6 423c 4491 263d d55d 17bd 2f57 483c
000003e0: 7ccb 793d 8624 a33d 1b2d 5d3d 98dc 39bd
000003f0: a1ec 803d 82f2 e93c 091f 64ba ac87 93bc
-0.07543108 -0.0484255 -0.028550992 0.06393493 -0.046180464 0.041089524 0.045855712 -0.022659406
0.03651463 -0.01302048 0.09894513 0.01977906 0.09316669 0.06405371 -0.070833676 -0.06660276
-0.06528687 -0.040393375 0.0014608366 0.10729434 -0.058571327 -0.022604663 0.11458983 0.040865187
0.004149621 -0.03276124 -0.015400761 0.032456107 -0.105000205 -0.024325812 -0.047368333 -0.057569854
0.059736963 -0.03977703 0.10038467 0.043068014 -0.05609714 -0.009902866 0.000102955615 -0.012514499
-0.019570563 0.09402196 -0.04481421 -0.015652388 -0.06537457 0.007363153 -0.049315248 0.0019717051
0.043210123 0.034976546 -0.11281302 0.07604051 0.14068162 0.08469989 -0.0029089937 0.047499284
-0.06142146 -0.03424052 0.015170984 0.0314408 -0.07744702 0.001853882 -0.06781934 0.09313327
-0.06261245 -0.060016368 -0.11138794 -0.032558233 0.009574095 0.021631096 0.053943254 0.034391224
-0.0053951168 0.038387872 0.038965132 -0.09184988 -0.016483856 -0.033972785 -0.032927398 0.070699
0.031070048 -0.009005313 -0.11590214 0.01172611 -0.10023396 -0.024193048 -0.0073540593 0.0055742734
0.030338565 0.08915225 -0.08213244 -0.0052181794 0.024132641 0.12836291 -0.05115901 -0.090221554
-0.047415044 1.7675353e-05 -0.0304435 -0.053359833 0.050886285 -0.016718013 -0.05080683 0.0015563986
-0.06638129 0.026958171 -0.09694433 -0.04573449 0.059625253 -0.033888772 0.015538391 0.06436016
0.07107625 -0.033035796 -0.1012858 0.030791314 0.13481265 -0.060226403 -0.015500182 -0.0034901274
-0.03964668 -0.0459576 0.042016827 -0.026852913 0.031673413 0.018905887 -0.07588261 -0.057915136
0.015895274 0.007833216 -0.03831557 -0.044995982 0.040052395 0.035994936 -0.043343622 0.011540123
-0.023137258 -0.10440802 0.10265722 -0.07605283 0.047709394 -0.06866229 0.059734173 0.0648767
-0.06565709 -0.04103173 -0.13191971 0.09996408 0.032062557 -0.03305003 -0.013141779 0.063310735
-0.020673357 0.06037676 -0.075081356 -0.1020215 0.031436417 0.08056376 0.059995346 0.103010505
-0.018759025 0.06582835 -0.018187214 0.03186136 0.09884432 -0.07043591 -0.046124738 0.06967587
-0.029121347 0.11021912 -0.048404563 0.026523376 -0.042817537 0.0048379856 0.04913307 0.04093432
-0.016990403 0.05353244 -0.10110508 -0.0710146 0.045882497 -0.02587085 -0.008309039 0.123394586
0.066486284 -0.041822616 -0.036081374 0.01877982 -0.07045002 -0.006827439 -0.0458632 -0.037901126
-0.04975596 -0.0020797153 -0.10561442 -0.08129293 0.02241585 0.037663072 -0.017969754 -0.0059263986
-0.038964137 -0.11393364 -0.045669306 0.022160403 0.10842976 -0.089545056 -0.004196985 0.057206344
-0.03158605 -0.08862699 -0.011431452 0.09753028 0.019413296 0.0064577507 0.046801202 -0.0714078
-0.018464822 0.060105044 -0.034244932 -0.08701392 -0.040228803 0.11597407 -0.07616345 0.036866155
0.02249917 0.07000606 0.10234484 -0.054966245 0.0042391554 0.033991776 -0.026078936 0.07864111
-0.0777029 -0.014388711 -0.110681504 0.07443325 0.020902786 0.06718813 0.09372963 0.09499351
-0.08145651 0.029908385 -0.05506022 -0.10146718 0.011892072 0.04066588 -0.03695472 0.012227817
0.060985073 0.07965951 0.053998094 -0.04537639 0.062951334 0.02855802 -0.00087021344 -0.01800903

bias f4 [64]
00000000: 8553 873d de22 b6bd 6b32 e0bc 59eb e1bc
00000010: aab3 aabc 8317 633d 2e2a 44bd 74ff 3b3b
00000020: 4666 5f3d d795 84bb f012 d03b efc2 78bc
00000030: 56df b5bd 8e68 3abc 4113 b3bd 7af2 a93c
00000040: b577 a6bd 4a32 c7bd 497d 27bc 1e60 533d
00000050: 7ab2 163d d17a 4a3d bf8b 8b3d 83ed 9dbb
00000060: 4f67 b3bd 6f31 993b be10 cb3d 0631 a43d
00000070: 82b8 eb3c c424 463d 8e89 5abc 0655 a93d
00000080: aa7f 49bd f271 3fbd dd1f 753d 8505 65bd
00000090: c4bf 9f3d 6cea 353d 12fd b63d 3b65 f3bb
000000a0: 07cf 19bd adbb aa3d 2250 8ebd 50c5 5fbb
000000b0: 93a6 783d 0e0f 783d 25f2 1b3d d7a6 a13c
000000c0: c002 98bd b691 993c 8263 813d e100 8e3c
000000d0: 6dbc 8ebd 79ee ea3b bf6d afba 6d5b a63c
000000e0: 194c 713d cd2a 173d 879d c2bd 4f65 c6bd
000000f0: 59da 5bbd 7821 93bd 2f46 b6bd 900b d43c
0.06607727 -0.08893369 -0.027367791 -0.027578043 -0.020837624 0.055442344 -0.04789179 0.0028686197
0.054540895 -0.0040461826 0.006349914 -0.015183195 -0.088804886 -0.011377467 -0.08743907 0.020745505
-0.08128301 -0.09726389 -0.010222741 0.051605336 0.036791302 0.049433533 0.06813764 -0.0048195734
-0.08759939 0.0046750824 0.09915303 0.08017163 0.028774504 0.048374906 -0.01333846 0.0826817
-0.049194016 -0.046739526 0.05984484 -0.055913467 0.07800248 0.044413015 0.08934988 -0.007427839
-0.037550952 0.083365776 -0.06948878 -0.0034144707 0.060705733 0.060561232 0.038072724 0.019732876
-0.074223995 0.018746238 0.06317808 0.017334403 -0.06969533 0.0071695414 -0.0013384147 0.020307267
0.058910463 0.036906052 -0.09502702 -0.09687292 -0.05367503 -0.07184118 -0.08900105 0.02588442

weight f4 [3, 64]
00000000: 5df3 c93d 9e26 073e 5d80 f5bd 9948 6c3d
00000010: e3a9 2f3d baf4 a23d a910 63bc 736a 0f3e
00000020: e9cd fa3d 3d23 f9bc a31d 473d 4626 eb3c
00000030: 359c 59bc 5c15 113e 0740 de3d 667a ee3b
00000040: 901e 933b 746d 1c3e ce61 f53d 9c16 d93d
00000050: e7a0 57bd fe52 15bd 5196 6f3d 5ff2 9f3d
00000060: f008 00be b673 d93d 0976 d83d 1538 a7bd
00000070: e9a6 acbd 65b5 1d3d ca1d ddba 5f97 d4bd
00000080: c89f e53d 5fe6 223d d3d0 91bd b3a5 9b3d
00000090: 1f0e c93d e902 d1bc 749f 96bd 1820 3a3d
000000a0: fb78 053d b885 d4bb d24c 0b3d 279a dd3a
000000b0: 622d e8bd 137e 073e be86 25bc ec20 8f3d
000000c0: a7f4 353d 1108 3bbd b49e c1bd 2ca5 d3bd
000000d0: 2628 f83d 56f3 3e3d 0b17 c0bd d75d cabd
000000e0: 4954 333d 25aa c13d 1e5b 43b9 ae5b 433e
000000f0: 5fc0 b9bd 2b4d 3b3d 58e3 99bd 0cf3 05bd
00000100: 8039 d2bd ef3d 9ebd 59fa 1abb 9239 4f3c
00000110: 4715 a1bd 14d7 0b3e 54ec 743d 7991 623d
00000120: e721 11be d975 a33d 2021 ee3d d0de 17be
00000130: 73a6 edbd cd72 b8bd 0f87 9abc d228 013d
00000140: 3d07 0fbc 4cd7 11be 50d9 ae3c 9365 0ebd
00000150: 2614 b13d 12ac 31bd 32c8 ad3d e184 ab3d
00000160: 446c b33c 4821 933d 7313 d33d 7f41 c23d
00000170: 3bdb 823d 1f16 9abd 3304 01be 811f 7a3d
00000180: 4aac af3d 5c0a 813b f65e 963d fc75 eebd
00000190: 5d9a ea3d 0244 bf3d 5587 f33c f9a4 013e
000001a0: bd48 01be cade 0e3e 3689 e1bd fead 9abd
000001b0: 326d eebd c317 dcbd 036f 95bd 9b38 09be
000001c0: ca23 19be d129 80bd b5a5 1e3c 6ff2 e13d
000001d0: 3cd0 07be 05ad 033e 1df5 c7bd 0d74 b3bc
000001e0: f04c 19bd b952 26bc 495d 863d e2b8 0dbe
000001f0: 5c7c fe3d 34a5 03be 187b 5038 18cf 113d
00000200: fe4f 60bd e5ed 443d ab7d f9bd e8d0 9ebd
00000210: 102b bd3d d4d4 c0bd 368d 80bd 8c55 1a3e
00000220: 4a97 b53c b43b 90bb f6f7 14be ec5f dfbd
00000230: 9194 883d 1aa2 6cbc e938 063e 17f7 00bd
00000240: d1c5 923d fc78 113d 56da 43bd 4776 d73d
00000250: a64e 21bd b576 d7bd e095 bfbd 3aa3 6dbc
00000260: d18a 023e f922 1abe e7a7 fbbd 541b 8a3d
00000270: abab 07be dced 29bd cf9e 85bd 2632 0bbe
00000280: dbf7 0f3d 9c49 eabd 64ed 273d 3473 a7bd
00000290: 3da9 ac3c d1a2 593d 40ca d6bd 7d32 ef3d
000002a0: 7a4a a63d 8463 243c 152c e4bc 7f22 b4bc
000002b0: f950 6c3d f120 b13d fff4 0b3e 2fac aabc
000002c0: 07d1 bb3d daca 9fbd 216e 083e 641f 17bc
000002d0: 2b6f 40bd e51a 093b 3b5b 793c 160e b8bd
000002e0: ac33 1bbe 5882 8cbd bbfd f93d b911 bdbd
000002f0: 3c73 053e ff5f da3d c580 083e 1024 ab3d
0.09860871 0.13198325 -0.11987374 0.057686422 0.042886626 0.07956834 -0.013858953 0.14005451
0.122463055 -0.03041231 0.04861225 0.028704774 -0.013281872 0.14168304 0.10852056 0.0072777746
0.0044897273 0.15276128 0.119815454 0.106000155 -0.052643683 -0.0364561 0.058492962 0.078099005
-0.1250341 0.10617773 0.105693884 -0.08164994 -0.08430273 0.03850307 -0.001686984 -0.10380434
0.112121165 0.03977048 -0.07119908 0.07599964 0.098171465 -0.025514083 -0.07354632 0.045440763
0.03258608 -0.006485667 0.03400881 0.0016906903 -0.11336781 0.13231687 -0.010102926 0.06988701
0.04442277 -0.04566199 -0.09454098 -0.103342384 0.12117033 0.046618782 -0.09379395 -0.0988118
0.043781552 0.094562806 -0.00018630593 0.19077942 -0.09069895 0.04572789 -0.075140655 -0.03270249
-0.102648735 -0.07726657 -0.0023647754 0.012648003 -0.078653865 0.13656265 0.059795693 0.055314515
-0.14173089 0.07981462 0.11627412 -0.1483109 -0.11604013 -0.090062715 -0.01886323 0.03153307
-0.008729753 -0.14242285 0.021343857 -0.034764837 0.08646421 -0.04337699 0.0848545 0.08374954
0.021902211 0.07184082 0.10306444 0.09485149 0.06389471 -0.075237505 -0.12599258 0.0610652
0.085777834 0.0039380025 0.07342331 -0.116435975 0.11455224 0.09339143 0.029727617 0.12660588
-0.12625404 0.13952175 -0.11012499 -0.075527176 -0.11641921 -0.1074672 -0.072965644 -0.134005
-0.14955059 -0.06257976 0.009683062 0.11032569 -0.13263029 0.1285897 -0.097635485 -0.021905923
-0.03742689 -0.010151559 0.065607615 -0.13840058 0.124260634 -0.12855989 4.9705704e-05 0.03559789
-0.054763786 0.048078436 -0.121821724 -0.077546895 0.09236729 -0.09415594 -0.06276934 0.15071696
0.022166867 -0.0044016484 -0.14547715 -0.109069675 0.06668962 -0.014442945 0.13107647 -0.031485643
0.07166637 0.03551577 -0.047815643 0.105206065 -0.039381646 -0.105206884 -0.09354758 -0.014504248
0.12748267 -0.15052404 -0.12287884 0.06743494 -0.1324908 -0.041486606 -0.06524431 -0.13593349
0.035148483 -0.11439821 0.040997878 -0.0817627 0.021076793 0.05313379 -0.10487795 0.11679552
0.08119674 0.010033492 -0.027853051 -0.021989105 0.05769441 0.08648861 0.13667677 -0.020834057
0.09170728 -0.07802363 0.13323261 -0.009223793 -0.046981018 0.0020920571 0.015219505 -0.08987062
-0.1515643 -0.068607986 0.12206598 -0.09231896 0.1303224 0.10662841 0.13330372 0.08356488

bias f4 [3]
00000000: 3400 05be 348f 553d bc50 ba3c
-0.12988359 0.052138522 0.022743575
