microsoft_lstm_0.pth (torch, 990449 bytes, 9 tensors)

weight f4 [3195, 64]
0.521179 -1.9378616 0.6921033 1.157087 -0.010672842 -0.15181324 -0.20383528 0.51772404
-0.9909966 0.29373172 -0.4344724 1.1799515 0.88393295 -1.4682655 1.0712302 -0.095632635
-0.76374656 0.25369024 -1.035806 0.5310388 0.68643326 1.0129151 -0.6080313 -0.81037277
-1.2802347 -0.71847045 -1.4380672 -1.5101237 0.0799357 -1.009777 -1.1715171 2.840046
1.7945266 0.26624516 1.941403 1.9635848 1.012473 -0.39543018 -0.3558368 -0.60832965
1.1406045 0.09250738 1.1519394 -0.92306787 1.4320961 -0.69017667 2.6941493 -0.67994285
-0.31640798 0.08944968 -0.016507545 -0.533263 0.17028376 0.81375885 -1.5299422 -0.36364022
1.5200723 1.9800926 -0.5513191 -0.5506429 1.5320437 1.6046851 0.581529 0.021851279
1.1689897 -0.4999973 -1.274295 -0.12724976 -0.17764197 0.8518075 -1.4596736 -0.5302879
1.377344 0.82924104 1.9895157 -0.5916573 0.8516918 -1.1103129 1.0867586 0.53347975
-0.9071696 -2.1774893 0.28892013 -0.5526148 0.702444 -0.005625284 -0.2818559 0.991959
-0.039509363 0.49311674 0.32521036 1.343626 -1.7775626 0.27193815 -1.6422154 0.6221214
-0.15716206 0.8991972 -0.28029332 1.3499886 -0.5108586 0.21392919 -0.4461904 0.34095737
0.905024 -1.3513952 -0.73777574 -0.7577585 0.21982783 0.8543446 -0.20938466 1.237862
0.7688654 1.1300159 -0.6775234 -1.5671645 -0.11051529 0.12612541 -0.60491514 -0.49078605
1.6380346 -0.06905297 -0.42898208 -0.782829 -0.124433875 0.62864274 1.058235 -0.84382206
0.12766382 1.2974746 -1.1283952 0.538468 -0.60505736 -1.7033964 -1.7999526 -0.69939053
-0.0016527444 0.0011604822 0.7577936 -0.5915883 -0.28524113 -0.59569 -0.4523335 -0.69719225
0.69089484 -0.18423659 -0.8776219 2.2626545 -0.15521146 -0.538508 -2.07426 0.5911841
-1.4520947 -0.73199415 0.3487468 0.038291316 -0.16458102 1.2501874 -0.6615616 -0.9219464
0.88834316 -1.1363652 -0.22079518 1.4569291 0.40790513 -1.222188 -0.687861 0.6729861
-0.016043443 -0.7943305 1.7276428 -1.2676266 -0.8435186 -0.87275785 0.82115036 1.2306924
-0.82201684 0.38716203 -0.12124019 0.008406257 -0.64682937 0.12498225 -0.47987512 0.56918246
0.70662177 0.6464033 -0.76735955 -1.0177343 1.8637389 -0.9174473 -0.12124351 -1.0386676
1.7769179 0.7408378 -0.9561994 -1.1112032 -1.5138965 1.1360043 -0.03343942 0.0018172031
-0.18210088 -1.3540275 -0.09274041 -1.7336404 1.1076088 -0.37447405 -1.0632252 -1.8921576
-0.3185405 -0.2061664 -0.32747564 0.3166601 2.367205 -0.18470018 1.0744096 -0.29444835
-1.2157339 0.15244657 -0.55210084 0.7604281 0.48540404 1.2951001 -0.017289054 0.18277861
0.24397457 -0.37713665 1.3065113 1.0897828 -1.4451174 -0.14578344 -0.4198438 1.4516451
-0.7179801 -0.23516004 -0.38614172 -0.4628539 0.7313773 0.972775 -0.26431987 0.4412187
0.3606208 0.69912416 -0.83437514 -1.1074755 1.7410924 1.544619 -1.4444958 -0.66174114
-0.9381177 -1.1564164 -0.77446306 1.2075281 0.31866783 -1.0728364 0.39782882 -1.1336788
00000000: fd6b 053f d90b f8bf af2d 313f 6d1b 943f
00000010: 25dd 2ebc ee74 1bbe 32ba 50be 9089 043f
00000020: f4b1 7dbf 0164 963e 2b73 debe a708 973f
00000030: 6e49 623f 20f0 bbbf 121e 893f 0bdb c3bd
00000040: e584 43bf b0e3 813e 4a95 84bf 29f2 073f
00000050: 17ba 2f3f 34a7 813f f0a7 1bbf 9774 4fbf
00000060: bbde a3bf aeed 37bf 9612 b8bf bc4b c1bf
00000070: 54b5 a33d 5f40 81bf 46f4 95bf 50c3 3540
00000080: 0cb3 e53f 4951 883e e57f f83f bf56 fb3f
00000090: b798 813f d375 cabe 3e30 b6be 7ebb 1bbf
000000a0: 54ff 913f 8274 bd3d c072 933f 2d4e 6cbf
000000b0: ed4e b73f 6baf 30bf f16c 2c40 bc10 2ebf
000000c0: 3a00 a2be 6531 b73d d53a 87bc ed83 08bf
000000d0: de5e 2e3e 8052 503f 25d5 c3bf 0d2f babe
000000e0: bb91 c23f ad73 fd3f 4023 0dbf eff6 0cbf
000000f0: 021a c43f 5266 cd3f 16df 143f 7401 b33c
00000100: 74a1 953f a5ff ffbe 191c a3bf c34d 02be
00000110: c7e7 35be 0e10 5a3f 96d6 babf f3c0 07bf
00000120: cf4c b03f 2449 543f 73a8 fe3f da76 17bf
00000130: 7908 5a3f bc1e 8ebf e81a 8b3f 2192 083f
00000140: 443c 68bf fc5b 0bc0 57ed 933e 2a78 0dbf
00000150: 5fd3 333f 4d54 b8bb 6b4f 90be 06f1 7d3f
00000160: 92d4 21bd cc79 fc3e f981 a63e f0fb ab3f
00000170: 2c87 e3bf 7a3b 8b3e 1d34 d2bf 5943 1f3f
00000180: 17ef 20be ca31 663f 9b82 8fbe 6dcc ac3f
00000190: a1c7 02bf 4110 5b3e 1173 e4be f791 ae3e
000001a0: a7af 673f 85fa acbf dfde 3cbf 76fc 41bf
000001b0: 8c1a 613e 54b6 5a3f ef68 56be 4372 9e3f
000001c0: 5dd4 443f 5ca4 903f 2c72 2dbf d998 c8bf
000001d0: d755 e2bd 0527 013e b8db 1abf 4f48 fbbe
000001e0: 1eab d13f a56b 8dbd 8aa3 dbbe 7b67 48bf
000001f0: 30d7 febd bbee 203f 3f74 873f b904 58bf
00000200: 4eba 023e a613 a63f 416f 90bf 0ad9 093f
00000210: 0ae5 1abf e508 dabf d964 e6bf 420b 33bf
00000220: e6a0 d8ba 521b 983a c3fe 413f 5572 17bf
00000230: 200b 92be 247f 18bf 4298 e7be 317b 32bf
00000240: 7cde 303f 84a8 3cbe d4ab 60bf 55cf 1040
00000250: c1ef 1ebe a9db 09bf adc0 04c0 d757 173f
00000260: 3dde b9bf f863 3bbf f18e b23e 5bd7 1c3d
00000270: ed87 28be 2406 a03f 1a5c 29bf ae04 6cbf
00000280: 756a 633f 6a74 91bf 2218 62be a77c ba3f
00000290: f1d8 d03e a870 9cbf a917 30bf d148 2c3f
000002a0: 8a6d 83bc 3e59 4bbf 6623 dd3f 9741 a2bf
000002b0: d6f0 57bf 0f6d 5fbf e936 523f 5487 9d3f
000002c0: b26f 52bf 1a3a c63e c74c f8bd 66ba 093c
000002d0: 9c96 25bf b2f6 ff3d 31b2 f5be f1b5 113f
000002e0: 2ae5 343f b07a 253f ad71 44bf 1e45 82bf
000002f0: ff8e ee3f d4dd 6abf 844e f8bd 0ff3 84bf
00000300: 0c72 e33f 8ca7 3d3f 7cc9 74bf e83b 8ebf
00000310: 5cc7 c1bf 9768 913f c6f7 08bd 382f ee3a
00000320: a778 3abe c650 adbf afee bdbd eee7 ddbf
00000330: 20c6 8d3f 10bb bfbe c317 88bf 3832 f2bf
00000340: be17 a3be 491d 53be e3aa a7be 4621 a23e
00000350: 4980 1740 0b22 3dbe 4186 893f efc1 96be
00000360: 2b9d 9bbf f41a 1c3e 7b56 0dbf 6aab 423f
00000370: e186 f83e d7c5 a53f c6a1 8dbc 512a 3b3e
00000380: 78d4 793e 0e18 c1be c33b a73f 017e 8b3f
00000390: 9bf9 b8bf 4148 15be c4f5 d6be 82cf b93f
000003a0: 8bcd 37bf cbcd 70be 5eb4 c5be 30fb ecbe
000003b0: 8b3b 3b3f c807 793f ef54 87be 6be7 e13e
000003c0: 4aa3 b83e cdf9 323f 9c99 55bf c2c1 8dbf
000003d0: 1edc de3f 13b6 c53f 3de5 b8bf de67 29bf
000003e0: 7b28 70bf 7405 94bf 3643 46bf 4890 9a3f
000003f0: 6e28 a33e b452 89bf 38b0 cb3e 631c 91bf

weight_ih f4 [256, 64]
0.081922725 0.009988494 -0.029036934 0.0845356 -0.087103784 0.054315656 -0.07450968 0.051337875
0.08285215 -0.13537736 -0.04750917 -0.078800194 5.6465535e-05 0.13723858 -0.06866404 0.038226854
0.005436452 -0.117271274 -0.1481882 -0.031582367 -0.12680508 0.03040163 0.06894019 0.019655347
0.07540069 0.11445194 0.15890846 -0.050731212 0.10595944 0.110396944 0.030401671 0.10138844
0.03758929 0.06092471 0.015346072 0.07758476 -0.006078282 -0.03263928 0.04074733 -0.10321108
0.038478676 0.13044947 -0.08647629 -0.116633594 0.047526196 0.115560025 0.09125777 0.10946012
0.0291395 -0.028553752 0.009551085 0.11494506 -0.08791119 -0.15685904 0.031498544 -0.023664657
-0.048272032 -0.023254627 -0.083046444 0.10977958 0.16510424 0.060323313 0.0841938 -0.15774898
-0.025120547 -0.1351451 0.10224093 -0.008654724 -0.07619906 0.10798318 0.029183399 0.020009857
0.03612867 -0.108894475 -0.02012826 0.041887052 0.025558664 0.048257783 0.00032230752 0.017881423
-0.118059136 -0.11094881 -0.08734236 0.07117828 -0.051801477 0.021062458 -0.036567777 -0.0921367
-0.062100954 -0.071230285 0.07903496 0.095622845 -0.116212666 -0.07738451 0.04559126 0.1422791
-0.061604783 0.037055247 0.099145696 0.019493697 0.05544725 -0.07822214 -0.009220221 -0.08562863
-0.047358654 -0.018999156 0.012612979 0.025702128 -0.064255655 -0.0059501748 0.072942466 -0.11070234
-0.04606128 0.06937422 -0.12904651 0.036718566 -0.07036459 0.049573675 -0.08831347 -0.10874653
-0.10749732 -0.06216599 -0.05195954 -0.04541506 0.0010846038 -0.078005254 -0.09063258 -0.08935332
-0.01579171 -0.10000376 0.063550144 0.07184103 0.09901811 -0.04501869 -0.12489014 -0.04017548
0.05811041 -0.025385173 0.009671057 0.105787605 -0.037362874 -0.04479005 -0.029371848 0.039636787
-0.14429526 0.006516671 -0.030572921 0.051247165 -0.02717293 -0.062423725 0.049770422 0.12667657
0.13063383 0.03152413 -0.11360508 0.004079425 -0.010462877 -0.07064051 0.08680574 -0.0041509094
0.06882195 -0.060135406 0.11048161 -0.019899435 0.015648922 0.01094599 0.038293783 -0.024084307
0.099961005 0.066524975 -0.07235103 0.09960811 -0.08728226 0.09636412 -0.030811872 -0.07935758
-0.1281551 -0.12863694 0.043982785 -0.0033517035 0.06309484 0.02453182 0.11522133 0.040339813
0.0074903457 -0.113274105 0.008287392 -0.1029669 -0.019463148 0.028853154 -0.07544565 -0.0630337
0.074061915 0.0030861069 -0.027648278 0.118799165 0.020654546 0.040420804 0.09101911 -0.028747609
0.019279506 -0.086407244 -0.11262586 -0.09574503 -0.085730955 -0.058523636 -0.062225394 -0.042406924
0.14175077 -0.0740397 0.117945336 0.043413438 -0.06259789 -0.044521347 -0.08747704 0.038082488
-0.055381767 -0.10466106 -0.043109633 0.0067490987 0.0452813 0.10997436 0.09446929 0.0150014935
0.07884481 0.05998909 0.008046658 -0.027883649 0.02870881 0.053644855 -0.052999396 -0.01280223
0.024620079 0.015618216 -0.073105514 0.04089863 0.03782706 0.043482088 -0.02936586 0.05079658
-0.06179231 0.06275979 0.09950319 0.05696324 -0.08144716 -0.021965552 0.050768524 0.053141486
-0.0074766628 -0.008488552 0.03816091 -0.10600117 -0.050012313 0.10994371 -0.12016796 0.09683382
00000000: 1ac7 a73d c8a6 233c ddde edbc 0021 ad3d
00000010: 7863 b2bd 187a 5e3d 8898 98bd aa47 523d
00000020: 63ae a93d 5da0 0abe fa98 42bd ff61 a1bd
00000030: 68d5 6c38 4588 0c3e bb9f 8cbd c393 1c3d
00000040: 4424 b23b ec2b f0bd a6be 17be 835c 01bd
00000050: 31d9 01be d70c f93c 8430 8d3d 4004 a13c
00000060: ad6b 9a3d c765 ea3d e6b8 223e 88cb 4fbd
00000070: 4301 d93d cb17 e23d ed0c f93c bea4 cf3d
00000080: 3af7 193d 308c 793d 176e 7b3c c2e4 9e3d
00000090: 532c c7bb c4b0 05bd ace6 263d 5560 d3bd
000000a0: d19b 1d3d 8c94 053e 7b1a b1bd 98dd eebd
000000b0: d4aa 423d bcaa ec3d 5be5 ba3d a12c e03d
000000c0: f6b5 ee3c 8fe9 e9bc 277c 1c3c 5168 eb3d
000000d0: c80a b4bd a89f 20be 9e04 013d 62dc c1bc
000000e0: e5b8 45bd 7d80 bebc 4114 aabd 1ed4 e03d
000000f0: 1611 293e 9415 773d cd6d ac3d f388 21be
00000100: 9bc9 cdbc 7a63 0abe b163 d13d 8bcc 0dbc
00000110: 410e 9cbd 4926 dd3d 0612 ef3c b6eb a33c
00000120: a8fb 133d 1104 dfbd 05e4 a4bc c291 2b3d
00000130: 6760 d13c f4a9 453d 62fb a839 107c 923c
00000140: fdc8 f1bd 2139 e3bd 8de0 b2bd ebc5 913d
00000150: c92d 54bd 2d8b ac3c 18c8 15bd 2bb2 bcbd
00000160: 925d 7ebd 2fe1 91bd 15dd a13d e9d5 c33d
00000170: e800 eebd c57b 9ebd e7bd 3a3d 9db1 113e
00000180: 4c55 7cbd 3ec7 173d e60c cb3d 3fb1 9f3c
00000190: a81c 633d ee32 a0bd 6910 17bc 105e afbd
000001a0: 26fb 41bd 1ea4 9bbc aba6 4e3c 458d d23c
000001b0: 7898 83bd aff9 c2bb dc62 953d e9b7 e2bd
000001c0: c1aa 3cbd 1214 8e3d c524 04be 3566 163d
000001d0: 4f1b 90bd c40d 4b3d b1dd b4bd 80b6 debd
000001e0: 8e27 dcbd c4a1 7ebd 87d3 54bd 2405 3abd
000001f0: 4429 8e3a 38c1 9fbd 939d b9bd e0fe b6bd
00000200: 9e5d 81bc c5ce ccbd 9426 823d 6421 933d
00000210: 02ca ca3d 8565 38bd 67c6 ffbd 0b8f 24bd
00000220: 2e05 6e3d 91f4 cfbc 5a73 1e3c 2ca7 d83d
00000230: d009 19bd c575 37bd 3b9d f0bc 2f5a 223d
00000240: 23c2 13be cc89 d53b 1074 fabc 8ce8 513d
00000250: c499 debc 05b0 7fbd 12dc 4b3d 81b7 013e
00000260: e0c4 053e 721f 013d c8a9 e8bd b2ac 853b
00000270: 7d6c 2bbc f9ab 90bd 35c7 b13d 5a04 88bb
00000280: 86f2 8c3d 8b50 76bd 2f44 e23d 2404 a3bc
00000290: 2b32 803c cf56 333c f1d9 1c3d 744c c5bc
000002a0: 5bb8 cc3d 3f3e 883d c72c 94bd 56ff cb3d
000002b0: 0bc1 b2bd 8d5a c53d 2e69 fcbc 3a86 a2bd
000002c0: 173b 03be 67b9 03be 4b27 343d 41a8 5bbb
000002d0: de37 813d f5f6 c83c 29f9 eb3d 5c3b 253d
000002e0: 9371 f53b 41fc e7bd d7c7 073c 4fe0 d2bd
000002f0: 2e71 9fbc 735d ec3c 4083 9abd d017 81bd
00000300: c6ad 973d 4840 4a3b a47e e2bc fa4c f33d
00000310: b933 a93c 4990 253d 3a68 ba3d 1b80 ebbc
00000320: 0ef0 9d3c 48f6 b0bd 63a8 e6bd f815 c4bd
00000330: b693 afbd 7bb6 6fbd 0ee0 7ebd e2b2 2dbd
00000340: 1d27 113e 20a2 97bd 538d f13d 4ad2 313d
00000350: 5333 80bd 045c 36bd 2a27 b3bd 62fc 1b3d
00000360: fed7 62bd 8a58 d6bd ba93 30bd 8b27 dd3b
00000370: e278 393d 3d3a e13d 1d79 c13d d3c8 753c
00000380: 6379 a13d 1fb7 753d 21d6 033c 406c e4bc
00000390: bd2e eb3c b5ba 5b3d e515 59bd 72c0 51bc
000003a0: 0cb0 c93c 8ce3 7f3c 58b8 95bd 5285 273d
000003b0: 8cf0 1a3d 461a 323d ac90 f0bc 1310 503d
000003c0: ef19 7dbd 3488 803d 54c8 cb3d 4952 693d
000003d0: c5cd a6bd 1af1 b3bc a8f2 4f3d e3aa 593d
000003e0: cbfe f4bb 9113 0bbc 9d4e 1c3d 2417 d9bd
000003f0: b6d9 4cbd 2b2a e13d 9f1a f6bd cf50 c63d

weight_hh f4 [256, 64]
0.023514114 -0.01092121 -0.009914296 0.022808304 -0.06949906 -0.13587196 0.011758929 -0.04038137
0.025283867 -0.043800183 -0.085921764 -0.14699024 0.020912908 0.0332596 -0.03977583 0.13150816
-0.07320703 0.0074079386 -0.0993524 -0.0379205 0.04596594 0.00073964684 0.015253186 0.11055851
0.08764635 -0.022735659 0.057299163 -0.018184775 0.06381407 -0.05321689 -0.027478134 0.05825392
0.0016323726 -0.04934358 -0.014781309 -0.011606691 0.07000749 0.14060275 0.027985783 0.07501143
0.014023961 0.05261646 -0.14903969 0.044039343 0.09124235 -0.017718144 0.05279444 -0.080798484
0.120723136 -0.075230435 0.03556855 -0.11681635 -0.037972134 -0.022531528 0.13365217 -0.09424914
-0.082679726 -0.09855515 0.05919959 0.080931656 -0.047781657 0.07023531 -0.0103276335 -0.09072444
0.0371286 -0.059406064 -0.07391553 -0.043218344 -0.077309534 0.062761225 -0.06193398 0.06863552
0.111762956 0.077116475 0.010993799 -0.030957157 0.11845915 0.101946495 0.09381719 0.04837867
-0.06514711 0.02039789 -0.024636246 -0.030185763 0.1439425 -0.0622109 -0.013553954 -0.06298195
0.05666162 0.090269014 0.1492986 -0.017053945 0.01565919 0.037237894 0.025784455 -0.022475302
0.04024723 -0.09713729 0.07481455 0.03924667 0.038781624 -0.047755264 0.1427786 0.112665154
-0.09491288 0.054314747 -0.09181654 0.010584598 -0.07457416 -0.06855939 -0.021914914 -0.091107346
-0.07187482 0.043406807 0.015774908 -0.16217911 -0.048837114 0.15186591 -0.048248857 -0.04285651
-0.006623324 -0.08750333 0.0011192203 -0.13072138 -0.01588397 -0.014166751 -0.102179356 -0.042164046
-0.0010764683 -0.11974332 -0.05851811 -0.11428032 0.07973887 0.054614346 0.13663831 0.086991556
0.020907588 -0.008202169 0.09706114 -0.16277966 -0.005525955 -0.010638943 0.0016783561 0.13629773
0.08957011 0.09900002 0.0028887298 -0.06068894 -0.06030008 -0.06235073 0.088064805 0.05930217
-0.0605378 0.096841544 0.10401193 0.07637521 -0.09551671 -0.013874857 -0.116396196 -0.104822405
-0.012742604 -0.11828676 0.035040725 -0.085439 -0.08771748 -0.02393043 0.04851104 0.09273376
-0.07432979 0.026298378 0.075372934 -0.03700039 -0.025892874 -0.093061954 -0.09408514 -0.041415453
-0.061110586 -0.0055575315 -0.11034741 -0.046628833 -0.019873818 0.13084555 0.09175953 -0.040652443
0.0040308973 -0.101734206 0.009992964 -0.043120332 -0.12855917 -0.09540542 0.079014234 0.06660045
0.07760374 -0.07797023 0.11340229 -0.076786645 0.11248162 -0.08963024 0.015881265 0.1386738
0.010592968 -0.047074355 -0.04747911 -0.0017654148 0.02558192 -0.03906624 -0.021265827 -0.10598233
0.063429974 0.106076196 -0.09725993 0.104744375 -0.01730621 -0.12007117 -0.0843468 0.031702254
0.024200292 -0.08994442 0.079635285 -0.05126184 -0.002627168 -0.0060955356 -0.048576917 0.0769178
0.043117777 -0.10921555 0.052854467 0.0043673855 0.02648008 -0.17157619 0.015872307 -0.10276635
-0.008468652 -0.028573144 -0.04269769 -0.081968606 0.052989684 0.020507747 0.05099754 -0.010860051
0.079042934 -0.06651667 -0.06258978 0.08946634 0.03570069 -0.0064007584 -0.14147612 -0.061019972
-0.058488283 0.0004761814 0.081955194 0.06335032 0.031333625 -0.070004426 -0.039240185 0.0646092
00000000: aca0 c03c e0ee 32bc 926f 22bc 7bd8 ba3c
00000010: 8655 8ebd 0522 0bbe 86a8 403c ef66 25bd
00000020: 1d20 cf3c d267 33bd c0f7 afbd 9c84 16be
00000030: 8c51 ab3c 383b 083d fbeb 22bd 13aa 063e
00000040: 91ed 95bd 4bbe f23b 4579 cbbd 8752 1bbd
00000050: c846 3c3d dce4 413a 80e8 793c 806c e23d
00000060: ee7f b33d 2240 babc 87b2 6a3d 3df8 94bc
00000070: f3b0 823d f4f9 59bd d319 e1bc aa9b 6e3d
00000080: 56f5 d53a 7e1c 4abd 4e2d 72bc fe29 3ebc
00000090: 1660 8f3d 2bfa 0f3e 7142 e53c 989f 993d
000000a0: c1c4 653c 5b84 573d dc9d 18be 9962 343d
000000b0: 45dd ba3d a425 91bc fc3e 583d ad79 a5bd
000000c0: b13d f73d 6a12 9abd 54b0 113d 693d efbd
000000d0: ab88 1bbd 0a94 b8bc 1ddc 083e b105 c1bd
000000e0: fd53 a9bd 48d7 c9bd 457b 723d 7fbf a53d
000000f0: b3b6 43bd 88d7 8f3d 3c35 29bc bccd b9bd
00000100: 2914 183d c653 73bd 0761 97bd b805 31bd
00000110: 7654 9ebd f588 803d 7cae 7dbd c890 8c3d
00000120: fae3 e43d 3eef 9d3d 561f 343c dd99 fdbc
00000130: b69a f23d 53c9 d03d 3a23 c03d b628 463d
00000140: d96b 85bd 7a19 a73c f4d1 c9bc 2248 f7bc
00000150: aa65 133e dbd0 7ebd 6711 5ebc aefc 80bd
00000160: 0416 683d f6de b83d bbe1 183e b7b4 8bbc
00000170: b447 803c c386 183d ec39 d33c 201e b8bc
00000180: 48da 243d eaef c6bd 5f38 993d 1ec1 203d
00000190: 7bd9 1e3d 069b 43bd 8e34 123e fdbc e63d
000001a0: af61 c2bd 2479 5e3d 4f0a bcbd 066b 2d3c
000001b0: 56ba 98bd de68 8cbd e886 b3bc 7d96 babd
000001c0: 1b33 93bd 56cb 313d 613a 813c 4812 26be
000001d0: 6d09 48bd bd82 1b3e 98a0 45bd 4f8a 2fbd
000001e0: 7808 d9bb f234 b3bd cdb2 923a d3db 05be
000001f0: 191f 82bc a91b 68bc 6943 d1bd 35b4 2cbd
00000200: 4818 8dba fc3b f5bd b0b0 6fbd cd0b eabd
00000210: 224e a33d 4bb3 5f3d eaea 0b3e a128 b23d
00000220: 6446 ab3c 6462 06bc fec7 c63d b6af 26be
00000230: 1213 b5bb f64e 2ebc 49fc db3a a291 0b3e
00000240: 8970 b73d 86c0 ca3d d850 3d3b f794 78bd
00000250: 37fd 76bd 7b63 7fbd 525b b43d d5e6 723d
00000260: 7cf6 77bd dc54 c63d 3504 d53d 9b6a 9c3d
00000270: 449e c3bd 5e53 63bc 2161 eebd 21ad d6bd
00000280: 5bc6 50bc 5440 f2bd dd86 0f3d a4fa aebd
00000290: 39a5 b3bd c009 c4bc 83b3 463d 33eb bd3d
000002a0: 383a 98bd b26f d73c 205d 9a3d b98d 17bd
000002b0: 4b1d d4bc 4497 bebd b6af c0bd 40a3 29bd
000002c0: 184f 7abd f41b b6bb d3fd e1bd e0fd 3ebd
000002d0: 6bce a2bc 60fc 053e 6cec bb3d 2d83 26bd
000002e0: 9e15 843b 065a d0bd 87b9 233c f29e 30bd
000002f0: 04a5 03be eb63 c3bd 37d2 a13d d165 883d
00000300: b6ee 9e3d dbae 9fbd 763f e83d 5142 9dbd
00000310: c35c e63d 0f90 b7bd 6d19 823c 8100 0e3e
00000320: 218e 2d3c 0ad1 40bd 7579 42bd 7e65 e7ba
00000330: 2d91 d13c ec03 20bd ac35 aebc 440d d9bd
00000340: 93e7 813d 7a3e d93d 3730 c7bd 3884 d63d
00000350: c1c5 8dbc e0e7 f5bd 04be acbd 39da 013d
00000360: b13f c63c c834 b8bd d317 a33d eff7 51bd
00000370: 912c 2cbb 0fbd c7bb 97f8 46bd 1487 9d3d
00000380: 449c 303d 67ac dfbd ed7d 583d 491c 8f3b
00000390: c1ec d83c abb1 2fbe a406 823c 2a77 d2bd
000003a0: 1ac0 0abc 3a12 eabc c6e3 2ebd 28df a7bd
000003b0: b60b 593d ddff a73c cce2 503d 5bee 31bc
000003c0: 43e1 a13d e439 88bd 122f 80bd 213a b73d
000003d0: e33a 123d 74bd d1bb 1edf 10be 14f0 79bd
000003e0: 6991 6fbd fca7 f939 20d8 a73d d0bd 813d
000003f0: b057 003d 7b5e 8fbd 51ba 20bd d451 843d

bias_ih f4 [256]
-0.08455763 0.041765694 -0.03333623 -0.08366057 0.12105437 0.048539355 -0.063071094 0.13476388
-0.12686197 -0.040451583 0.12015268 0.06427922 0.05910918 0.0059390194 0.03219072 0.0813683
-0.10155006 0.021156216 -0.004854851 0.14599825 -0.008914091 0.1206024 0.076167114 0.077540636
-0.03201862 0.084488764 0.034952052 0.0129507305 0.013205737 0.0059179985 0.009286922 0.1195201
-0.0740768 -0.05889194 -0.024621623 -0.05151405 0.052295182 0.011251081 -0.016642325 -0.08318241
-0.041339405 -0.07385449 -0.05722653 -0.015427 0.04425357 -0.003978343 0.041646197 0.044180512
0.064712934 0.03831416 0.08696321 -0.08396085 0.013498276 0.10802193 0.09060104 -0.0709245
0.12444691 0.12899394 0.08084217 0.06054209 -0.092939064 0.06029085 0.036247045 -0.11330202
0.10300611 0.00043880462 0.09405022 0.09542672 -0.07911888 -0.096689075 0.053553108 0.04544274
-0.033612363 0.05288422 -0.013479855 -0.12330076 -0.0981644 0.0876868 -0.07846356 -0.028991291
0.03637891 0.07888072 -0.041977037 0.12793812 0.06952912 0.06290438 0.03947834 0.008142208
-0.042560432 0.10152102 -0.055492733 0.115533985 -0.08042408 0.13192677 -0.04209526 0.025291253
0.07635241 -0.031743232 0.044897757 0.1021687 -0.013673951 -0.083747245 0.068318024 0.12361929
0.121290356 -0.0018466688 -0.05908972 -0.013953666 0.015361206 -0.04177644 -0.07667271 0.09174799
0.008932685 -0.059487008 -0.096357234 -0.012134036 -0.0066173957 -0.05659708 0.05892978 -0.12379379
-0.06734684 -0.09375741 0.103425674 0.04103016 -0.040348873 -0.014662186 0.09044686 -0.044869747
-0.12813553 -0.07613504 0.089973964 0.113644645 -0.03640889 0.019009912 -0.05378315 -0.10822325
0.014029281 -0.09629995 -0.12026956 -0.07593591 -0.11278322 -0.0953637 -0.100538954 0.028156871
0.0044681258 0.124539435 -0.10011714 0.12678432 0.07428926 0.05955035 0.08879747 0.0050942893
0.08703037 -0.09311053 -0.01184661 -0.10038322 -0.13944215 0.075146504 0.06391246 -0.036524538
0.085950606 -0.0909924 -0.08977349 -0.031036258 -0.0994753 0.0147104645 -0.01579098 0.14409421
-0.038723692 0.08146996 -0.12613544 0.05666001 -0.10263934 -0.14208724 -0.08718331 -0.052119132
-0.004105049 -0.05143204 -0.026869547 -0.09697172 0.07533067 0.07334413 0.03556086 0.07901123
-0.07563498 0.051094297 -0.08706335 -0.1004086 -0.07947056 -0.03344633 -0.07897692 0.035363246
-0.046568517 -0.030614551 0.030978853 0.103444986 -0.06639359 0.019276535 0.046130292 -0.042705737
-0.0489342 0.0064089196 0.14442511 -0.07451267 -0.0752966 -0.062667504 -0.11155105 0.12300992
-0.043773703 0.05378921 0.0014692062 -0.058324985 0.09934458 0.1453656 0.108801745 -0.081872694
0.03648441 0.003384352 -0.08286722 0.09908536 -0.07583239 0.07270712 0.115917146 0.06500663
0.03659732 -0.07102319 0.014552085 -0.06209451 -0.060855314 -0.046883963 -0.08460722 0.011756955
-0.0074627 -0.005695594 -0.104613885 0.129017 0.009709625 0.067139596 0.070878245 0.02719372
-0.06649261 -0.07031216 0.11272413 0.10663806 0.09996779 0.0960018 -0.04490653 0.021948813
-0.052751143 0.08457584 -0.072386 0.0789504 0.042016085 0.09447728 0.07822284 -0.017802885
00000000: 8d2c adbd 8112 2b3d 928b 08bd 3c56 abbd
00000010: 5beb f73d 34d1 463d 6b2b 81bd 8bff 093e
00000020: 1be8 01be 8fb0 25bd 9c12 f63d d3a4 833d
00000030: 781c 723d 1b9c c23b 6bda 033d 6ca4 a63d
00000040: 7af9 cfbd cd4f ad3c 7115 9fbb 9180 153e
00000050: 680c 12bc 64fe f63d 81fd 9b3d a0cd 9e3d
00000060: f525 03bd 7208 ad3d e229 0f3d 4d2f 543c
00000070: e05c 583c c5eb c13b 2d28 183c f4c6 f43d
00000080: 94b5 97bd ad38 71bd 49b3 c9bc 6600 53bd
00000090: 7933 563d 7456 383c 7c55 88bc 8a5b aabd
000000a0: 8253 29bd 0641 97bd 5e66 6abd 87c1 7cbc
000000b0: 3b43 353d c35c 82bb 3495 2a3d a0f6 343d
000000c0: 3788 843d 4fef 1c3d c419 b23d abf3 abbd
000000d0: df27 5d3c 9a3a dd3d 0a8d b93d dd40 91bd
000000e0: 06de fe3d fd16 043e 9490 a53d fcfa 773d
000000f0: d656 bebd 8af3 763d c877 143d e40a e8bd
00000100: def4 d23d 5c0f e639 679d c03d 166f c33d
00000110: 1409 a2bd ec04 c6bd 815a 5b3d 2b22 3a3d
00000120: 1ead 09bd 209d 583d 9cda 5cbc 1c85 fcbd
00000130: 6b0a c9bd 2395 b33d 81b1 a0bd 257f edbc
00000140: 0d02 153d 378c a13d 1df0 2bbd 3602 033e
00000150: 4965 8e3d 03d4 803d 0ab4 213d e566 053c
00000160: d953 2ebd 41ea cf3d 594c 63bd 159d ec3d
00000170: 61b5 a4bd d017 073e 146c 2cbd 9a2f cf3c
00000180: a75e 9c3d 3105 02bd b6e6 373d d33d d13d
00000190: b508 60bc ad83 abbd 52ea 8b3d 1c2c fd3d
000001a0: 1467 f83d ec0b f2ba 1008 72bd eb9d 64bc
000001b0: 91ad 7b3c c61d 2bbd 9506 9dbd 5fe6 bb3d
000001c0: 655a 123c a6a8 73bd f156 c5bd d6cd 46bc
000001d0: bdd6 d8bb 57d2 67bd 5a60 713d 9987 fdbd
000001e0: 24ed 89bd e303 c0bd d7d0 d33d 3e0f 283d
000001f0: dc44 25bd aa39 70bc 343c b93d 57c9 37bd
00000200: f635 03be b0ec 9bbd 4544 b83d 86be e83d
00000210: 7d21 15bd adba 9b3c b84b 5cbd 27a4 ddbd
00000220: 12db 653c e838 c5bd e34f f6bd 4984 9bbd
00000230: e4fa e6bd 0b4e c3bd 5ee7 cdbd 3da9 e63c
00000240: 5b69 923b 880e ff3d 370a cdbd c0d3 013e
00000250: f824 983d 11eb 733d 73db b53d ffed a63b
00000260: fb3c b23d bcb0 bebd 4918 42bc b895 cdbd
00000270: ecc9 0ebe 69e6 993d 89e4 823d c19a 15bd
00000280: df06 b03d 395a babd 2adb b7bd c03f febc
00000290: b5b9 cbbd 2904 713c 165c 81bc 6f8d 133e
000002a0: bc9c 1ebd b9d9 a63d a629 01be 5414 683d
000002b0: 9334 d2bd 517f 11be 2a8d b2bd df7a 55bd
000002c0: a683 86bb 67aa 52bd 861d dcbc 1c99 c6bd
000002d0: f746 9a3d 7235 963d 44a8 113d a4d0 a13d
000002e0: 83e6 9abd 4148 513d 454e b2bd 06a3 cdbd
000002f0: 76c1 a2bd 05ff 08bd a7be a1bd 0dd9 103d
00000300: a1be 3ebd 5ecb fabc 5dc7 fd3c f7da d33d
00000310: 5df9 87bd d3e9 9d3c 1ef3 3c3d 36ec 2ebd
00000320: 3a6f 48bd ea01 d23b 2de4 133e 199a 98bd
00000330: 1b35 9abd d257 80bd e074 e4bd a0ec fb3d
00000340: 0e4c 33bd 1352 5c3d 6192 c03a 2ee6 6ebd
00000350: 2c75 cb3d b8da 143e 73d3 de3d dfac a7bd
00000360: ad70 153d 01cc 5d3b 4ab6 a9bd 44ed ca3d
00000370: 034e 9bbd 78e7 943d f865 ed3d 3222 853d
00000380: 12e7 153d 9b74 91bd de6b 6e3c d056 7ebd
00000390: 6c43 79bd 6609 40bd 8d46 adbd 3ea0 403c
000003a0: aa89 f4bb 1ba2 babb ce3f d6bd 081d 043e
000003b0: 1e15 1f3c 7c80 893d 9d28 913d 5dc5 de3c
000003c0: 472d 88bd d2ff 8fbd e9db e63d 0e65 da3d
000003d0: eabb cc3d 979c c43d e9ef 37bd ffcd b33c
000003e0: 9511 58bd 1936 ad3d 1c3f 94bd bfb0 a13d
000003f0: 0f19 2c3d 4e7d c13d 4c33 a03d 5bd7 91bc

bias_hh f4 [256]
0.1034685 -0.10649129 -0.04423574 0.12239429 -0.0046055526 -0.105444916 -0.034831405 0.08534287
-0.07850638 -0.06871464 -0.084713385 0.0038766828 -0.04992593 0.026227351 -0.097174995 -0.035673104
0.002433002 0.10602069 -0.019771041 -0.028941847 -0.071169995 0.0007001645 0.06506632 0.08309133
0.109395534 0.12809284 0.058157306 0.09944 0.031550426 -0.014019958 -0.07133134 -0.112231925
-0.029916015 0.13085279 0.09215746 -0.08505998 0.093775444 0.011741716 0.08032719 0.087960035
-0.012775078 0.061762765 -0.045170933 -0.0037799827 -0.049689967 0.07917979 0.011231677 -0.054944277
-0.01619744 0.013145584 -0.010822172 0.067878656 -0.035106923 0.07186153 -0.06851278 -0.04481779
0.103316724 -0.07583897 0.06476978 -0.00021870944 0.07174047 0.0518728 -0.04143038 0.01797252
-0.014220206 -0.0684299 -0.03214773 0.005307219 0.0086037945 -0.15704331 0.07599121 0.1290664
-0.023564856 -0.07997359 0.14932154 -0.017883185 0.09169414 -0.075116105 0.11597688 0.13342385
0.14228328 0.09780005 0.048400056 -0.044944964 0.1598816 0.13630304 -0.043384172 -0.11833571
0.047415953 0.031382646 0.021564398 0.105756894 -0.08337989 0.052061208 -0.021249074 -0.054518998
0.021259561 0.09842101 0.03959816 0.11759945 0.080155544 0.15949908 0.045998607 -0.021058522
-0.06053847 -0.058728404 -0.019704798 -0.074172534 -0.10805297 -0.09859135 0.012338986 -0.06597968
0.06697385 0.16549774 0.084442325 -0.026394317 -0.06502242 0.08275679 -0.002874232 -0.09683468
-0.031810563 -0.10131765 0.08370238 0.15135239 0.08589621 0.114117935 0.009817743 -0.030189075
-0.059558813 -0.035975125 -0.08431772 0.09095292 0.10586503 -0.07346842 -0.10621787 0.040301103
0.026082728 -0.05772189 -0.11336423 0.06410069 -0.12981907 -0.1351409 -0.11724912 0.08332314
-0.09963162 0.01912307 0.058622524 0.14341933 -0.056081668 -0.10516546 -0.051455773 0.100761086
0.037658088 0.08354792 -0.06234944 -0.007839997 -0.054847028 0.10490077 -0.08312052 -0.07681585
-0.070726156 0.0071587986 -0.116277084 0.11117862 -0.11869855 0.08313128 0.092219844 -0.0419313
-0.10741869 -0.023219222 0.090426855 -0.09925888 -0.06837005 0.04975199 -0.06775597 -0.12876831
0.07421195 -0.008109842 -0.043553434 0.09047435 0.088095434 0.012616674 -0.08753532 0.08416925
-0.025044227 -0.00031968864 -0.041998003 -0.025309175 -0.015850618 -0.09726655 -0.04983118 -0.08086196
0.0839408 -0.07587733 0.12051133 0.06537648 0.070752196 0.12603323 0.08657839 -0.10046591
0.022651954 -0.09159351 -0.054692287 -0.017795071 0.045177296 -0.033839177 0.107308656 -0.09075855
-0.028209735 -0.06520567 -0.0031647736 0.0090434365 0.11790384 0.04891135 0.07381751 0.039881114
0.063280225 -0.088936284 -0.029295946 0.0645621 -0.013435205 -0.023662517 -0.021708034 0.11454133
0.013315243 0.044791985 0.09170249 0.031576008 0.13756515 -0.059977513 -0.043692928 -0.07322998
-0.007930447 0.08503186 0.060810503 0.030849578 -0.082122676 -0.045690693 0.13153835 0.08621848
0.03926963 0.07031274 -0.095496856 -0.0626517 0.13965766 -0.12232878 0.03359061 -0.059133243
-0.08383277 -0.087579824 0.14470382 -0.04786138 -0.09179444 0.06118729 0.1388231 0.12821314
00000000: 4be7 d33d 1b18 dabd 8930 35bd dca9 fa3d
00000010: 2dea 96bb 81f3 d7bd 60ab 0ebd 3ec8 ae3d
00000020: f4c7 a0bd 43ba 8cbd 367e adbd f20f 7e3b
00000030: 227f 4cbd beda d63c af03 c7bd f61d 12bd
00000040: 0073 1f3b 6021 d93d e1f6 a1bc 7417 edbc
00000050: 93c1 91bd 3f8b 373a 7e41 853d ca2b aa3d
00000060: c40a e03d c52a 033e 5b36 6e3d 33a7 cb3d
00000070: 053b 013d f7b3 65bc 2a16 92bd dad9 e5bd
00000080: 6e12 f5bc 46fe 053e 0dbd bc3d ed33 aebd
00000090: 570d c03d 5460 403c 9582 a43d 6424 b43d
000000a0: 904e 51bc f4fa 7c3d 2805 39bd 96b9 77bb
000000b0: b587 4bbd 0429 a23d 1105 383c 400d 61bd
000000c0: 7eb0 84bc 9360 573c 7b4f 31bc f703 8b3d
000000d0: 47cc 0fbd 232c 933d 6e50 8cbd dc92 37bd
000000e0: b897 d33d 7651 9bbd 05a6 843d 5e55 65b9
000000f0: abec 923d 9378 543d e7b2 29bd 1b3b 933c
00000100: defb 68bc fa24 8cbd 57ad 03bd 2ee8 ad3b
00000110: eef6 0c3c f6cf 20be 48a1 9b3d fb29 043e
00000120: 160b c1bc 32c9 a3bd bfe7 183e c27f 92bc
00000130: 23ca bb3d 79d6 99bd 4985 ed3d 43a0 083e
00000140: b5b2 113e 654b c83d 233f 463d 3618 38bd
00000150: 01b8 233e 0693 0b3e 9ab3 31bd fe59 f2bd
00000160: 3b37 423d 178b 003d d2a7 b03c 1297 d83d
00000170: 13c3 aabd 223e 553d 8a12 aebc 504f 5fbd
00000180: 8828 ae3c f490 c93d ae31 223d fbd7 f03d
00000190: 9728 a43d ba53 233e 0969 3c3d ec82 acbc
000001a0: 30f7 77bd 328d 70bd f56b a1bc c5e7 97bd
000001b0: e04a ddbd 43ea c9bd 7529 4a3c 5b20 87bd
000001c0: 9629 893d 3d78 293e 19f0 ac3d e538 d8bc
000001d0: 792a 85bd 647c a93d 9c5d 3cbb 4351 c6bd
000001e0: cb4b 02bd a17f cfbd 276c ab3d 1ffc 1a3e
000001f0: 5aea af3d aab6 e93d 99da 203c 144f f7bc
00000200: f1f3 73bd a75a 13bd c5ae acbd 8645 ba3d
00000210: c4cf d83d 9c76 96bd c188 d9bd c512 253d
00000220: 72ab d53c ca6d 6cbd 812b e8bd 3947 833d
00000230: 4aef 04be 6062 0abe 4e20 f0bd 53a5 aa3d
00000240: aa0b ccbd fca7 9c3c 2c1e 703d 84dc 123e
00000250: e4b5 65bd fd60 d7bd 4ac3 52bd d45b ce3d
00000260: 5e3f 1a3d 2c1b ab3d 2062 7fbd 5573 00bc
00000270: 47a7 60bd 37d6 d63d 173b aabd a151 9dbd
00000280: e0d8 90bd 5b94 ea3b ae22 eebd 9eb1 e33d
00000290: 3a18 f3bd bc40 aa3d c2dd bc3d 28c0 2bbd
000002a0: 55fe dbbd 3d36 bebc b731 b93d 3d48 cbbd
000002b0: 9905 8cbd bec8 4b3d a4c3 8abd d7db 03be
000002c0: 6ffc 973d 25df 04bc 1665 32bd 9e4a b93d
000002d0: 616b b43d 2bb6 4e3c b845 b3bd ee60 ac3d
000002e0: 8d29 cdbc e29b a7b9 1906 2cbd 3055 cfbc
000002f0: 28d9 81bc af33 c7bd c81b 4cbd f59a a5bd
00000300: 27e9 ab3d 9365 9bbd a5ce f63d 1be4 853d
00000310: 87e6 903d db0e 013e 0350 b13d 12c1 cdbd
00000320: 9790 b93c 6195 bbbd 0505 60bd f8c6 91bc
00000330: d40b 393d f39a 0abd a4c4 db3d 9edf b9bd
00000340: 1a18 e7bc 8d8a 85bd 1768 4fbb ec2a 143c
00000350: 9277 f13d 4557 483d a22d 973d 615a 233d
00000360: 1099 813d 3a24 b6bd 0dfe efbc 2239 843d
00000370: 561f 5cbc e5d7 c1bc 0cd5 b1bc a594 ea3d
00000380: 2d28 5a3c cd77 373d 84ce bb3d d855 013d
00000390: e1dd 0c3e fbaa 75bd 5bf7 32bd 9af9 95bd
000003a0: b5ee 01bc 2f25 ae3d 6f14 793d 41b8 fc3c
000003b0: ef2f a8bd 2a26 3bbd fdb1 063e 5093 b03d
000003c0: 31d9 203d 2000 903d db93 c3bd 894f 80bd
000003d0: 6b02 0f3e 8387 fabd 4f96 093d b335 72bd
000003e0: 84b0 abbd 0d5d b3bd 3d2d 143e 4b0a 44bd
000003f0: b9fe bbbd 869f 7a3d a527 0e3e 4e4a 033e

weight f4 [64, 128]
-0.088589154 0.013801199 -0.0511122 0.030661797 -0.0015673848 0.033664115 0.038454145 0.015615309
0.07129136 0.035133097 0.038337458 0.08585724 0.014608168 0.05361998 -0.043565944 -0.0038802268
-0.071805656 0.048942115 -0.027612926 0.0124621 -0.035232693 -0.025041528 0.016285786 -0.0032742366
-0.044203617 0.030529894 -0.044758536 -0.107008465 -0.07070121 -0.05059371 0.03378236 -0.07792681
0.04762905 -0.0020925442 -0.040077962 0.02509776 -0.04267902 -0.097127005 -0.06486136 0.089411475
0.010470529 -0.0032806373 -0.05981309 -0.08708119 0.0032608416 0.0019456438 0.004936913 -0.016712582
0.030681608 0.04577127 0.0077606277 -0.035963833 -0.015562149 -0.03211202 -0.027583495 -0.040243506
0.07231832 -0.036524463 -0.016141025 -0.030043144 -0.065048225 -0.03476536 -0.06732611 0.035261434
-0.042473808 0.028475659 0.06515371 0.04238328 -0.06290488 -0.060577076 -0.06512309 -0.04642218
-0.038007017 -0.089539826 -0.017056694 -0.0685655 0.026222106 -0.093610585 -0.0011335148 0.08026826
0.05054973 -0.0013023987 -0.009903942 0.017793275 0.09193878 -0.095984966 0.024731254 0.07627444
0.003657744 0.030476132 0.044442892 -0.093268864 -0.023188096 0.014236721 0.06629808 -0.0800912
-0.06542072 -0.08929986 -0.035810288 -0.06384462 -0.06558636 -0.0439858 -0.047685258 -0.002493984
-0.0808873 0.05966282 0.0034507073 -0.038393177 -0.054962013 -0.03964511 -0.030644039 -0.095746875
0.007511456 -0.08514747 -0.0040774248 -0.0123235565 0.11444799 0.061132167 0.048279688 0.07722825
0.08299554 -0.06412809 -0.0513646 0.0014922814 -0.09785128 -0.01678648 -0.064005844 0.05218279
0.035315175 -0.029937044 -0.006733379 -0.014678395 0.07144868 -0.05649125 -0.089742936 -0.053744916
0.07991072 -0.025241584 0.043825906 0.04344231 -0.09502309 0.059542295 0.07078204 -0.03853786
0.023636447 0.0961164 -0.018201206 0.080338 0.026498992 -0.023740217 -0.12043922 0.07982545
0.049714785 0.023526119 0.030013397 -0.13048759 -0.053230856 0.07336813 -0.035732865 -0.07169429
0.073752284 -0.012340056 -0.07776023 -0.023776855 -0.107257664 0.02025501 -0.06638398 -0.009708552
-0.09071127 0.004894385 0.07828651 -0.06342056 -0.027319485 -0.008675329 0.03639782 0.019156424
0.06276431 0.07541843 0.026753623 0.031131169 0.06239925 -0.003887537 -0.047880594 0.059385486
0.08204167 -0.031110262 -0.029415788 -0.030589636 -0.09853628 -0.0187611 0.008225154 0.066941686
0.016243009 -0.0841176 -0.04888682 -0.065114714 -0.007908682 0.055539716 0.030693198 0.02239605
0.060826395 -0.11923532 -0.012416167 0.059807595 -0.0046198107 0.060011417 0.05331999 -0.03964279
0.07231226 0.07736995 -0.08499864 0.01563359 -0.058190294 -0.10910712 -0.06829071 0.047573034
-0.06791159 0.019819641 -0.0055158595 0.025361357 -0.085657366 0.076305814 0.089744754 -0.08214325
-0.08018799 0.0022464686 0.012073095 0.007034902 -0.046903398 -0.0068627032 0.05781798 0.13038598
0.05264236 0.044227418 -0.060535304 -0.07014585 0.01584856 -0.06375964 0.021452334 -0.06601443
-0.055228774 0.059619877 -0.073280536 0.076870605 -0.035816047 0.08997076 -0.05575166 -0.024761284
0.07511934 -0.056870546 -0.05611452 -0.0055223745 0.047055773 -0.020034745 0.031892627 0.047653846
00000000: 3b6e b5bd 6d1e 623c 075b 51bd 732e fb3c
00000010: b570 cdba 62e3 093d 1882 1d3d 5ad7 7f3c
00000020: 3401 923d b9e7 0f3d bd07 1d3d ecd5 af3d
00000030: 1957 6f3c a0a0 5b3d 3472 32bd 674b 7ebb
00000040: d80e 93bd 8777 483d 8134 e2bc d62d 4c3c
00000050: 2850 10bd e423 cdbc c569 853c 9394 56bb
00000060: da0e 35bd d419 fa3c ba54 37bd 4127 dbbd
00000070: cccb 90bd 5a3b 4fbd 5f5f 0a3d 1798 9fbd
00000080: ae16 433d 1123 09bb ca28 24bd d199 cd3c
00000090: 32d0 2ebd 86ea c6bd 08d6 84bd 5d1d b73d
000000a0: 958c 2b3c f6ff 56bb 92fe 74bd 9f57 b2bd
000000b0: d8b3 553b f904 ff3a d4c5 a13b d3e8 88bc
000000c0: ff57 fb3c a87a 3b3d dd4c fe3b d04e 13bd
000000d0: 62f8 7ebc e587 03bd c8f6 e1bc 60d6 24bd
000000e0: a11b 943d ad9a 15bd 2f3a 84bc 0a1d f6bc
000000f0: 0138 85bd 1f66 0ebd 46e2 89bd 4b6e 103d
00000100: 04f9 2dbd c945 e93c 4f6f 853d 179a 2d3d
00000110: 46d4 80bd ab1f 78bd 415f 85bd 2f25 3ebd
00000120: 3fad 1bbd a860 b7bd 7bba 8bbc 126c 8cbd
00000130: becf d63c e8b6 bfbd 7292 94ba af63 a43d
00000140: 3c0d 4f3d 40b5 aaba 2544 22bc 34c3 913c
00000150: 664a bc3d c493 c4bd 3399 ca3c c635 9c3d
00000160: c3b6 6f3b 15a9 f93c c009 363d bf03 bfbd
00000170: f6f4 bdbc 2341 693c 4ac7 873d db06 a4bd
00000180: 4cfb 85bd d8e2 b6bd cfad 12bd f8c0 82bd
00000190: 2452 86bd 742a 34bd 9e51 43bd 1c72 23bb
000001a0: 3ea8 a5bd 0061 743d 4325 623b 2a42 1dbd
000001b0: d91f 61bd e962 22bd 3509 fbbc f016 c4bd
000001c0: a922 f63b cc61 aebd eb9b 85bb bee8 49bc
000001d0: b563 ea3d b965 7a3d ecc0 453d d829 9e3d
000001e0: 91f9 a93d 9755 83bd b063 52bd a898 c33a
000001f0: 4066 c8bd cd83 89bc 7f15 83bd 9fbd 553d
00000200: a5a6 103d 883e f5bc ada3 dcbb a77d 70bc
00000210: af53 923d 5e63 67bd 25cb b7bd a123 5cbd
00000220: 3ba8 a33d 70c7 cebc cb82 333d 90f0 313d
00000230: 779b c2bd 9fe2 733d 2df6 903d e0d9 1dbd
00000240: 39a1 c13c add8 c43d b21a 95bc 4088 a43d
00000250: 6a14 d93c d87a c2bc d6a8 f6bd 877b a33d
00000260: bba1 4b3d d9b9 c03c a8de f53c 8a9e 05be
00000270: 9908 5abd 0842 963d a05c 12bd 75d4 92bd
00000280: 700b 973d f22d 4abc c140 9fbd aec7 c2bc
00000290: e8a9 dbbd d6ed a53c 53f4 87bd 9e10 1fbc
000002a0: d5c6 b9bd 1461 a03b ae54 a03d a3e2 81bd
000002b0: 1dcd dfbc f822 0ebc e115 153d efed 9c3c
000002c0: 938a 803d fa74 9a3d 6a2a db3c cb06 ff3c
000002d0: 5b96 7f3d 0cc6 7ebb 711e 44bd 323e 733d
000002e0: 7705 a83d f3da febc 61f9 f0bc 1e97 fabc
000002f0: 64cd c9bd e1b0 99bc ccc2 063c b918 893d
00000300: 0f10 853c d945 acbd 8c3d 48bd dd5a 85bd
00000310: 6b93 01bc 9d7d 633d 4d70 fb3c ec77 b73c
00000320: 1925 793d a631 f4bd 2e6d 4bbc cff8 743d
00000330: c861 97bb 88ce 753d 1066 5a3d 7a60 22bd
00000340: 7318 943d 2374 9e3d c413 aebd 0412 803c
00000350: f258 6ebd 8e73 dfbd 00dc 8bbd f1db 423d
00000360: 3b15 8bbd cd5c a23c 62be b4bb 9fc2 cf3c
00000370: 216d afbd 3946 9c3d 19cc b73d b83a a8bd
00000380: 9a39 a4bd 7d39 133b 3bce 453c 0985 e63b
00000390: c71d 40bd 87e0 e0bb 8cd2 6c3d e783 053e
000003a0: 849f 573d cf27 353d def3 77bd a1a8 8fbd
000003b0: d7d4 813c 6a94 82bd cebc af3c 9332 87bd
000003c0: 9137 62bd f933 743d 1b14 96bd 566e 9d3d
000003d0: d9b3 12bd 9742 b83d da5b 64bd 2dd8 cabc
000003e0: 2bd8 993d 17f1 68bd 57d8 65bd 09f5 b4bb
000003f0: 8ebd 403d e81f a4bc d8a1 023d ae30 433d

bias f4 [64]
0.060231514 0.09344189 0.09715675 0.0004144592 -0.08560901 0.049290225 0.048116714 -0.01366508
0.044109162 -0.04365855 0.06598605 0.05166159 -0.04486572 0.044740465 0.06928723 -0.095844835
-0.0072033983 -0.05957543 0.09603777 0.05187562 -0.1018627 -0.030373046 0.043525655 0.07244225
-0.07133916 0.009624715 0.10242868 0.08815236 0.058797397 -0.103013806 0.05078382 -0.0030631588
0.008300976 -0.011868749 0.031169564 -0.022937514 -0.0713374 -0.031786058 0.108492784 0.048543423
0.015001287 -0.0639852 0.0005670865 0.048567332 0.014706139 0.10561926 -0.049159754 -0.059027854
-0.09515906 0.07709957 0.020823058 -0.029676748 -0.09263519 0.031690665 0.03137194 0.050603557
0.08876057 0.012458099 0.0127435755 -0.10180821 -0.11362576 0.05470845 -0.013606791 -0.021135805
00000000: 52b5 763d 765e bf3d 1efa c63d c64b d939
00000010: c753 afbd 8ce4 493d 0816 453d 80e3 5fbc
00000020: cfab 343d 4fd3 32bd b223 873d 1a9b 533d
00000030: 1ec5 37bd c741 373d 77e6 8d3d 4c4a c4bd
00000040: 7c0a ecbb 5e05 74bd 73af c43d 887b 543d
00000050: 649d d0bd e5d0 f8bc f547 323d 9a5c 943d
00000060: 441a 92bd fbb0 1d3c 21c6 d13d 3989 b43d
00000070: 8ad5 703d e7f8 d2bd b202 503d 47bf 48bb
00000080: d100 083c 2475 42bc 5057 ff3c 74e7 bbbc
00000090: 5819 92bd 1932 02bd 7731 de3d 78d5 463d
000000a0: f5c7 753c ac0a 83bd 88a8 143a 8aee 463d
000000b0: 05f2 703c e94e d83d bd5b 49bd 31c7 71bd
000000c0: c1e2 c2bd 61e6 9d3d 1e95 aa3c a71c f3bc
000000d0: 85b7 bdbd 12ce 013d dd7f 003d ad45 4f3d
000000e0: 1ac8 b53d 0e1d 4c3c 6eca 503c d380 d0bd
000000f0: 9fb4 e8bd f815 603d 05ef 5ebc ff24 adbc

weight f4 [3, 64]
-0.021836007 -0.011883133 -0.10881963 0.053033717 0.009484081 0.0783641 0.044615537 0.11324087
-0.06999937 0.13577463 0.024399722 -0.11434058 -0.014263686 0.11042826 -0.01893772 0.12294885
0.083290294 -0.09879184 0.09968875 0.036461532 0.14885499 0.07984674 -0.068127036 0.023163373
0.033373244 -0.07412594 -0.090537116 0.11555378 0.10323661 0.06158335 0.09736415 -0.047956474
-0.0042566103 0.0074562253 -0.11811463 0.13658823 0.011979165 -0.13588461 0.0027450777 -0.049709372
-0.11673489 0.08687206 -0.084792264 -0.074168876 -0.12991537 -0.103250965 0.051413253 0.09703127
-0.078729816 -0.13151462 0.013999124 -0.062249895 -0.08979262 0.07852464 0.079977065 -0.11213092
-0.044077344 0.09400472 -0.0997653 0.013013122 0.02370355 0.03690967 0.09718039 -0.012948794
0.096076824 0.08507006 0.0353835 -0.108830795 -0.10950052 0.10218444 0.012698156 -0.1181476
-0.09306833 -0.12134443 -0.042732485 0.030327348 -0.13320741 -0.07698457 0.022008331 -0.024068156
-0.09510339 -0.06306546 0.13603917 0.1203174 -0.024975972 0.09757069 0.118519254 0.12975389
-0.0019908282 -0.019539038 0.06664807 0.029463893 0.07110311 -0.081056654 -0.02969562 0.0039307126
-0.1198524 -0.11171606 0.054493755 0.048758883 -0.034991026 0.06287475 0.1230162 0.08218664
0.030475637 -0.050884232 0.07171807 -0.108136415 0.04476694 0.013614005 -0.03939188 -0.032920975
-0.14167689 0.0075955447 0.12180412 -0.037303187 -0.06087217 -0.1284452 -0.037926037 -0.00856961
0.018325835 -0.109755404 0.10509769 -0.110401206 -0.11635607 0.017564876 0.09729063 0.0035094575
-0.048018355 0.028128397 -0.0655299 -0.14220972 -0.10388663 -0.010155795 0.047589052 0.0068988977
-0.005635837 -0.10205427 -0.050508574 0.02297768 0.07013969 -0.042422283 -0.09745613 -0.00019792697
0.14645399 0.14993268 -0.028526034 -0.022859696 0.06391419 -0.076202825 0.06543821 -0.09670688
0.09044131 0.042964257 0.03421235 -0.14034465 0.013987621 -0.118095286 -0.15237188 -0.10510626
-0.061532788 0.027890408 0.1449918 -0.07711671 0.09673149 -0.038124364 0.12358935 -0.053403895
0.02988009 0.0109423725 -0.013955559 0.02034467 0.03087837 -0.10073736 0.11129674 0.008124515
-0.07612927 0.084768474 0.0014041461 0.1114108 0.021560114 -0.10340881 0.09939253 0.02881252
-0.11365392 0.04421366 -0.032958116 0.098238006 0.06006441 -0.11578438 -0.10386271 0.0038441783
00000000: 6de1 b2bc 79b1 42bc d4dc debd e239 593d
00000010: 1e63 1b3c 5b7d a03d c8be 363d d4ea e73d
00000020: d45b 8fbd 8108 0b3e ede1 c73c 652b eabd
00000030: 3cb2 69bc 3628 e23d 4723 9bbc 9bcc fb3d
00000040: 1a94 aa3d 6053 cabd 9e29 cc3d b058 153d
00000050: 716d 183e b086 a33d 3086 8bbd 1dc1 bd3c
00000060: 62b2 083d 57cf 97bd 866b b9bd 76a7 ec3d
00000070: b76d d33d d33e 7c3d db66 c73d 026e 44bd
00000080: 097b 8bbb 5a53 f43b 15e6 f1bd c9dd 0b3e
00000090: 4244 443c 5625 0bbe c3e6 333b 0e9c 4bbd
000000a0: b412 efbd fbe9 b13d 91a7 adbd dae5 97bd
000000b0: 8908 05be 3e75 d3bd b496 523d 55b8 c63d
000000c0: 193d a1bd c5ab 06be 955c 653c bff9 7ebd
000000d0: 31e5 b7bd 87d1 a03d 04cb a33d e5a4 e5bd
000000e0: 728a 34bd 8c85 c03d c051 ccbd fd34 553c
000000f0: f32d c23c 982e 173d 8306 c73d 2e27 54bc
00000100: edc3 c43d 3639 ae3d 4aee 103d aee2 debd
00000110: cf41 e0bd 1346 d13d ed0b 503c 5ef7 f1bd
00000120: 9c9a bebd 6e83 f8bd 4208 2fbd 0f71 f83c
00000130: 8667 08be 16aa 9dbd d14a b43c 952a c5bc
00000140: 91c5 c2bd 7728 81bd da4d 0b3e f868 f63d
00000150: 699a ccbc 24d3 c73d 39ba f23d 34de 043e
00000160: 8e78 02bb 5510 a0bc c97e 883d 435e f13c
00000170: 829e 913d 0801 a6bd 3b44 f3bc 35cd 803b
00000180: 2d75 f5bd 64cb e4bd d834 5f3d 65b7 473d
00000190: c052 0fbd 7ac4 803d ebef fb3d 7851 a83d
000001a0: 0ba8 f93c fc6b 50bd ece0 923d a076 ddbd
000001b0: 8a5d 373d 470d 5f3c 6159 21bd 25d8 06bd
000001c0: bf13 11be 0ce4 f83b 7074 f93d 3acb 18bd
000001d0: 1955 79bd 2387 03be 5558 1bbd 8d67 0cbc
000001e0: 1020 963c 71c7 e0bd 753d d73d 071a e2bd
000001f0: 174c eebd 37e4 8f3c 4f40 c73d edfe 653b
00000200: e5ae 44bd 866d e63c 8a34 86bd 6d9f 11be
00000210: 83c2 d4bd 7e64 26bc bdec 423d 2610 e23b
00000220: d4ac b8bb d401 d1bd 14e2 4ebd b03b bc3c
00000230: 66a5 8f3d fdc2 2dbd 1497 c7bd 9e8a 4fb9
00000240: 09f8 153e f487 193e 6eaf e9bc 4244 bbbc
00000250: 71e5 823d 3a10 9cbd 7804 863d 420e c6bd
00000260: 4b39 b93d 4afb 2f3d 4022 0c3d 82b6 0fbe
00000270: 562c 653c f1db f1bd 6007 1cbe f341 d7bd
00000280: ce09 7cbd 6d7a e43c bb78 143e 5eef 9dbd
00000290: 291b c63d 4b28 1cbd 6a1c fd3d 0bbe 5abd
000002a0: 17c7 f43c a347 333c dba5 64bc dea9 a63c
000002b0: a3f4 fc3c 644f cebd 8cef e33d b01c 053c
000002c0: aae9 9bbd 189b ad3d 530b b83a 582b e43d
000002d0: d69e b03c 00c8 d3bd 508e cb3d 3c08 ec3c
000002e0: 63c3 e8bd 6219 353d 17ff 06bd 0231 c93d
000002f0: 1906 763d 5c20 edbd f9b5 d4bd 9cee 7b3b

bias f4 [3]
0.004665822 -0.034304332 -0.039569873
00000000: c0e3 983b b382 0cbd 0514 22bd
