microsoft_lstm_0.pth (torch, 990449 bytes, 9 tensors)

weight f4 [3195, 64]
000000 e9 0b d1 bf 1d 90 7c 3f fa b7 dc 3e 7b 03 ae bf
       -1.633176 0.986574 0.43109113 -1.3594812
000010 e7 eb 55 3e c6 c2 cf 3e e3 c4 35 bf 68 d9 01 bf
       0.20890771 0.40578288 -0.7100355 -0.5072236
000020 ef e8 5a bd ff 28 89 3d 1c 9e 05 3d ad 11 f3 be
       -0.0534448 0.066972725 0.032621488 -0.47474423
000030 95 da c2 3f 1a be cc 3f ea db 5c 3d 97 48 28 3e
       1.5222956 1.5995514 0.053920664 0.16433941
000040 fa 95 2d bf dc 4d 90 3f 12 fc ea 3d 77 34 24 bf
       -0.6780697 1.1273761 0.1147386 -0.64142555
000050 cc 6b ac bf bf 4a 81 3f 02 ec 70 3f 50 d7 e1 be
       -1.3470397 1.0100936 0.9411012 -0.44109583
000060 54 ac 10 bf 9a 62 d8 3e 16 58 4f bf 7c 73 82 be
       -0.5651295 0.42262727 -0.80993783 -0.25478733
000070 7d 96 5a 3f ab be 93 3e 7c 6b 7b 3e 4f ed 4e be
       0.85385877 0.28856406 0.24552721 -0.20207714
000080 d8 5a 08 40 6a e7 8c 3f e4 65 d6 bf ce 62 5d bf
       2.1305447 1.1008122 -1.6749845 -0.8647889
000090 fc cf 08 bc 5f 88 48 3f 08 ad 09 3e ad 4d b1 bf
       -0.008350369 0.78333086 0.13444912 -1.385183
0000a0 31 e6 53 3f 8f 0f c5 3e 64 ee b0 bf 17 c7 c1 3f
       0.8277312 0.38488433 -1.3822751 1.5138882
0000b0 f5 73 bc b9 00 20 d5 bf 6f 83 bf 3b 88 4a 5f 3e
       -0.0003594455 -1.6650391 0.0058445255 0.21805775
0000c0 ee 58 50 3f 9b 8b 1f 3d bd 93 d5 bf 04 45 09 40
       0.81385696 0.038951498 -1.6685711 2.1448374
0000d0 51 a7 87 bf 46 6f a7 3e 81 18 a3 3f 97 4c 09 bf
       -1.0597936 0.32702082 1.2741853 -0.5363249
0000e0 c8 1f 22 bf 46 55 7b 3f 70 eb ab be 91 d5 98 3f
       -0.63329744 0.9817699 -0.33578062 1.1940175
0000f0 bd 4e 89 be 65 8e 5c bf 7b d1 86 3f 47 db ba be
       -0.26817885 -0.86154777 1.0532678 -0.3649542
000100 4f 66 0a 3f 57 1d bd 3e c2 5b c0 bb 0f ca ac bf
       0.5406236 0.36936447 -0.0058703134 -1.3499163
000110 8b 7c f2 bf b7 f4 a8 3e a4 70 f4 3e a4 23 3c 3f
       -1.8944257 0.32999203 0.47742188 0.73491883
000120 72 f3 d7 3e 9d 97 23 40 b8 95 81 3e 08 0e a6 3f
       0.42177922 2.5561287 0.2530954 1.2973032
000130 86 5f da be 2b 73 2b bf dd 26 6d bf 67 22 95 be
       -0.42651004 -0.6697261 -0.92637426 -0.2912781
000140 35 b9 d0 3d 92 ee 2d 3f 26 e7 5a 3e 06 ee 87 bf
       0.101915754 0.67942154 0.21377239 -1.0619514
000150 60 64 17 3f 45 46 c1 3f 9c 0c 41 bf 9a 57 c3 3f
       0.59137535 1.509957 -0.75409865 1.5261109
000160 87 87 0e 3d 13 1b 1c 3f 17 cc 53 be 66 2a 4a bf
       0.034797218 0.6097881 -0.20683323 -0.78970945
000170 fc 9c d1 bf 2c 4d 69 be 39 5b 2c 3f 32 b2 56 bf
       -1.6376033 -0.22783345 0.67326695 -0.83865654
000180 66 59 4b c0 42 e6 a9 be 72 d1 56 bc c7 cc 60 3f
       -3.1773314 -0.33183485 -0.013111459 0.87812465
000190 0d 84 0e bf 41 df cc bf 17 db 0d 3e 53 15 dd 3f
       -0.55670244 -1.6005632 0.13853107 1.7272133
0001a0 1a a8 b4 3e a9 b0 92 3d 25 8e 90 bf 3c ab 66 3f
       0.352845 0.071626015 -1.1293379 0.9010503
0001b0 29 62 67 3e 65 62 8f 3f 78 1f 65 3f 6d a9 88 3f
       0.22596039 1.1201903 0.8950114 1.0676705
0001c0 8e 9d 32 bf 5c b3 2b bf f0 72 62 3f 01 77 a4 bf
       -0.6977166 -0.67070556 0.8845663 -1.2848817
0001d0 c2 5d 82 bf 60 93 c6 bf 58 6b cb be 0b ef 95 be
       -1.0184863 -1.5513725 -0.39730334 -0.29283938
0001e0 4b d2 e5 bd 13 0b 7a 3d 2c 5b ef bd 29 b7 6e 3e
       -0.11221751 0.061045717 -0.116873115 0.23312058
0001f0 a4 da 89 3e c1 3f f3 bf b6 a8 a3 3e d7 0a b0 bf
       0.26924622 -1.9003831 0.31964654 -1.3753308
000200 21 7b f0 be 96 43 13 3f a7 e0 6f bf 8d c2 9f 3e
       -0.4696894 0.57525 -0.9370217 0.31203118
000210 4e da a8 bd 4e 10 c2 3e 09 c0 c3 be ff df b3 be
       -0.08244763 0.37903064 -0.3823245 -0.35131833
000220 4f 2e ca bf 73 65 f6 3f 17 c5 cf bc f0 23 42 bf
       -1.5795382 1.924971 -0.025362534 -0.75836086
000230 21 a2 8c bf 45 ff 74 bf ee 79 85 bf 28 4d 2f bf
       -1.0986978 -0.9570201 -1.0427835 -0.68477106
000240 bb 5e 90 3e 1a 87 c6 3e bb a9 dc 3f f8 95 8b bf
       0.28197274 0.3877495 1.7239298 -1.0905142
000250 66 71 7b bf 2a 27 b3 3e e7 38 dc be 52 56 99 bf
       -0.9821991 0.34990817 -0.43012163 -1.1979468
000260 43 7a 25 3f dd 06 6a 3f a4 01 7d 3f 83 27 12 3f
       0.6463968 0.9141672 0.9883063 0.5709154
000270 1b 05 6c 3e 08 12 b0 bf b1 dc cc 3f 60 7f f9 bc
       0.23048823 -1.3755503 1.600485 -0.030456245
000280 da 43 cd bf 43 92 2b bf b6 0a 51 3e 35 89 01 c0
       -1.6036332 -0.6702005 0.20414242 -2.0239995
000290 46 d5 83 bf 71 8d 36 3f a8 4a 11 3f 92 4b 27 3c
       -1.0299461 0.7130957 0.5675454 0.010210888
0002a0 1a 57 a0 3e df 3a ab bd 08 fc 35 bf 44 14 af be
       0.31316453 -0.08360838 -0.71087694 -0.3419515
0002b0 ed 07 da 3f cc f2 dd 3e 6f 59 0b bf 42 27 0f 3d
       1.7033669 0.43349302 -0.5443334 0.03494955
0002c0 15 85 f1 bf 40 ab 38 3f 59 01 93 bf cb c7 a4 bf
       -1.8868738 0.72136307 -1.1484786 -1.2873472
0002d0 57 5c 69 3f bf c0 82 be 3a ea 15 bf 25 95 e9 3d
       0.91156524 -0.2553768 -0.58560526 0.114054
0002e0 e9 bf 7d be f4 50 5e bf f2 78 8c 3f 74 d8 e0 3e
       -0.24780239 -0.86842275 1.097441 0.4391514
0002f0 69 41 80 bf 99 d5 15 3f 6f b9 00 3f 2e fa 77 be
       -1.0019962 0.5852905 0.5028295 -0.2421653
000300 71 7a 80 3d 47 a6 26 40 a9 4a 9c bf fb c0 df 3f
       0.06273354 2.6038988 -1.2210284 1.7480768
000310 5d 02 d3 3e 1a 2c 31 40 83 87 27 3f e6 6b 98 3e
       0.4121274 2.7683167 0.6544115 0.2976982
000320 51 1f 28 3e 16 b8 bd 3e c5 b2 fc 3e 4d dd 06 40
       0.16418196 0.3705451 0.4935514 2.1072571
000330 48 64 94 3e b6 9d 59 3f 6a ab 84 3e 3d 38 32 be
       0.2898276 0.8500627 0.2591203 -0.17404266
000340 4f 3e ce 3e 76 36 f1 3e 74 9c f3 bf 59 46 94 bf
       0.40281913 0.47111863 -1.9032121 -1.1583968
000350 ad 07 76 bf 17 10 cd 3f 49 22 ab bf 0b 2d 16 bf
       -0.9610546 1.6020535 -1.3369838 -0.5866248
000360 87 d9 17 3f b2 fb 2c bf 81 26 a3 3d 1d fc 10 bf
       0.59316295 -0.67571557 0.079663284 -0.56634694
000370 d0 d8 f1 3e 51 29 a2 be d6 5d 6f 3f 85 9f df bd
       0.47235727 -0.31672147 0.9350256 -0.10919098
000380 46 6a 1f bf 6b ac a9 bf dc d1 14 3f 52 2d b1 bf
       -0.62271535 -1.3255743 0.5813272 -1.3841956
000390 0f 32 04 bf ad c4 a0 3d c5 48 99 bf 84 c9 25 bf
       -0.51638883 0.07850013 -1.1975332 -0.64760613
0003a0 a5 f0 02 c0 3d f7 14 be ea fc 85 3f 0d dc 00 40
       -2.0459378 -0.14547439 1.0467808 2.0134308
0003b0 99 57 e2 3f 28 64 9e 3e f1 3c df bd 87 16 6d be
       1.7682983 0.30935788 -0.109002955 -0.23153125
0003c0 c5 4c ca 3e af dd 59 3f d4 64 0d bf a5 d2 1a 3f
       0.39511696 0.8510389 -0.55231977 0.6047767
0003d0 21 bd 88 3f b1 69 cc 3f 70 a2 6d bf aa 54 82 3f
       1.0682718 1.5969754 -0.92825985 1.0182087
0003e0 80 71 a9 3d 54 5a 51 3e bd 49 00 c0 93 53 22 bd
       0.082736015 0.20444614 -2.0045006 -0.039630484
0003f0 6b 6d 84 be 6d 8b a8 bf a2 1b 88 bf 57 f4 d9 bf
       -0.2586473 -1.3167549 -1.0633433 -1.7027692

weight_ih f4 [256, 64]
000000 94 c1 09 3e 43 1c 01 3d 54 73 50 bd 17 93 e8 3d
       0.1345275 0.031521093 -0.050891235 0.1135618
000010 44 57 c3 3d b5 00 9c 3d 0b 85 d7 bd c3 5a 30 bd
       0.09538129 0.07617322 -0.10523423 -0.043055307
000020 94 11 db 3d 10 8b f5 3c 14 0f f5 3b 99 ea e4 bd
       0.10696712 0.029973537 0.007478604 -0.111775585
000030 03 61 02 be 54 4b af 3d 90 34 c0 3d cc 30 aa 3c
       -0.1273232 0.085592896 0.093850255 0.020775221
000040 f8 39 8c bc 08 68 ca bc 6d 56 6b 3d 3b c2 81 3d
       -0.017117485 -0.02470781 0.05745547 0.06335875
000050 98 6e a0 bd 09 94 07 3e 9e d2 f1 bc 6a b5 1a 3e
       -0.07833594 0.13240065 -0.029519375 0.15108266
000060 7d d7 f5 bc 3d 7a ab bc e7 c0 34 bc 3e 53 fc 3d
       -0.03000998 -0.020932311 -0.01103232 0.12320565
000070 37 a0 66 3d ce ff 06 3e 45 d7 4b bd 6b 59 90 bc
       0.056305137 0.13183519 -0.049765844 -0.017620763
000080 27 de a7 bd 04 41 38 3d d8 59 e3 3c 6c 61 d2 3d
       -0.08196669 0.04498388 0.027752802 0.10272488
000090 5c 2b 42 3d b4 fd a1 3d 79 ff a6 bd 5f 3f 08 bc
       0.047404632 0.07909718 -0.08154196 -0.00831589
0000a0 9a e2 fb bd 0b 8f 19 3e 83 d3 88 3d fd fc e6 3b
       -0.1229908 0.14995973 0.06680968 0.0070492015
0000b0 c1 3b 76 3c 9e 87 35 bc fc 47 d1 3c 88 50 22 bd
       0.015028895 -0.011079697 0.02554702 -0.03962758
0000c0 3e 0e 07 3c dc 5d 73 bd e3 25 f3 3c 54 b3 56 bb
       0.008243142 -0.059415683 0.029681152 -0.0032760696
0000d0 95 b0 a7 bd fa 38 4c bd 7c 25 91 bd 21 91 88 bd
       -0.08187977 -0.049859025 -0.07087228 -0.06668306
0000e0 14 dc 12 3d a6 2c 01 3e 5b f0 cc bc 80 5b 20 bd
       0.035854414 0.12614688 -0.025016954 -0.03914976
0000f0 2a db bc 3c b4 cb db 3d 66 51 4c 3c 81 80 ca 3c
       0.023053724 0.10732213 0.012470579 0.024719479
000100 84 c1 74 3c 4d 24 e8 3d 25 fb 9d bd 48 15 e7 3b
       0.014938716 0.11335049 -0.07713918 0.0070520975
000110 72 8d 8f bc 62 74 c4 bd 24 e2 f1 3d c1 0c 68 3d
       -0.017523501 -0.09592511 0.11810711 0.056652788
000120 59 52 c0 3c 3b b7 39 3d e7 82 07 be 57 0e c9 ba
       0.023476766 0.045340758 -0.13233529 -0.0015339357
000130 f7 6e c1 bd 00 8e 8d 3d 53 ca 0d 3e d0 ff 9a 3d
       -0.09444993 0.0691185 0.13846712 0.075683236
000140 31 fd 81 bc 77 ee ec 3d 03 d2 18 be 7e 1a d1 bd
       -0.015867801 0.11568921 -0.14923863 -0.10210131
000150 f3 7c 4c 3d db ae b6 3d e8 cf 99 bd 5c 14 ca bd
       0.04992385 0.0892007 -0.07510358 -0.098671645
000160 32 0b 1d be 80 fe f1 ba 99 3d 06 be 1a 49 85 bd
       -0.15336302 -0.0018462688 -0.13109435 -0.06508084
000170 09 9f 95 bd 30 c2 06 3e c6 42 29 3d f3 61 f3 bd
       -0.07305724 0.13160014 0.041323446 -0.11883917
000180 e8 1c df bc a3 fe ab 3c 72 9c d8 bd e7 d4 b2 3d
       -0.027235463 0.020995444 -0.105767146 0.08732014
000190 86 bf 9e bd 84 6d 37 3c c4 62 5c bc d7 7e 0d bb
       -0.07751374 0.011195544 -0.013451282 -0.0021590495
0001a0 3e 18 b4 3d 77 a3 c1 3c 70 14 8e 3d 9d 04 18 bd
       0.08793686 0.023637516 0.06937492 -0.037113775
0001b0 06 2e ed 3d e9 b6 07 be 62 fa 86 3d dc ea c8 bd
       0.11581044 -0.13253368 0.065907255 -0.09810421
0001c0 db f0 94 3d 2b fb 8f 3d e0 73 31 bd 2d e7 0e 3c
       0.07272502 0.07030328 -0.043323398 0.008722109
0001d0 33 df eb bc 7b 6f 79 3d b1 14 16 bc 72 5c 2a 3d
       -0.028792953 0.06089733 -0.009160207 0.04159207
0001e0 c5 89 ff 3d 2b d9 1d 3b 1b 20 04 3d 14 97 a1 3d
       0.12477449 0.002408574 0.03225718 0.07890144
0001f0 42 73 08 be ad 3e 24 3d 6a 65 cc bb a2 7b 28 bd
       -0.13325217 0.040098835 -0.0062376754 -0.04113353
000200 7a f9 f2 3c f1 a2 bc 3d fe 8f 0e bc ee 53 dd 3d
       0.029659975 0.09210766 -0.008701323 0.10807024
000210 5e 9a 8b bb 27 24 d3 bd 4f 24 94 3d ef ed 21 3d
       -0.0042603454 -0.1030963 0.07233488 0.03953355
000220 c3 1e cf 3d 0c 1f 5b bd 18 44 e3 bd fe 06 7f 3d
       0.10113289 -0.053496405 -0.11096972 0.062262528
000230 5e fe f4 bc 56 96 84 bd 94 63 1b 3e d1 12 d8 3c
       -0.029906448 -0.06473987 0.15174705 0.02637616
000240 3d 00 b7 3c 38 db c1 bd f0 8e 21 3c 6b b9 fb 3d
       0.02233898 -0.09465641 0.009860739 0.12291225
000250 05 01 05 3d 0f 28 da bd 4d 32 c0 bd 6e 75 de 3d
       0.032471675 -0.10652172 -0.09384594 0.10862242
000260 9e 54 7b bd 91 18 1c 3d 5e 66 f8 3d de 49 bc bd
       -0.061359994 0.038109366 0.121289 -0.091937765
000270 73 b1 0f bd a7 3b ab 3d a0 47 0d be f6 ec 87 bd
       -0.03508134 0.08360987 -0.13796854 -0.066369936
000280 ed 53 17 be 35 24 24 be ce 0b 5c ba 55 00 93 bc
       -0.14778109 -0.16029437 -0.0008394093 -0.017944494
000290 b5 6b 83 3c c5 69 b7 3d 04 b1 e2 bd e9 b8 db 3c
       0.01604257 0.08955721 -0.11068919 0.02682157
0002a0 ad 10 0e be ae c7 ff bc 91 98 6d ba 0d c1 3b bb
       -0.13873549 -0.031223144 -0.00090635667 -0.0028649003
0002b0 7c 0f 9c bd a4 62 01 3e 81 06 bc bd 14 5c b9 3d
       -0.07620141 0.12635285 -0.09180928 0.09050766
0002c0 c1 13 f1 3d 42 4a 21 3d 44 54 53 bc b8 ac bb bc
       0.11771346 0.03937746 -0.012898508 -0.022909507
0002d0 a1 9b 69 3d f5 49 f2 bd 80 09 ad 3d 2a 08 f7 39
       0.057033185 -0.118305124 0.084490776 0.00047117594
0002e0 d7 93 bc 3d 43 11 88 3d e3 ac a0 3a 06 81 fa 3c
       0.09207886 0.066439174 0.0012258556 0.030579101
0002f0 11 1d 87 3b c2 e9 b2 bd 69 fe 11 3e 03 7b 46 3d
       0.004123338 -0.08735992 0.14257206 0.048457157
000300 51 98 9f bc 25 e6 5d bd 33 6d a8 bb aa f9 11 3d
       -0.01948181 -0.05417456 -0.0051399707 0.03563849
000310 03 d2 7d bb 4f 48 b4 3d f4 6c 07 be 0b 52 36 3d
       -0.0038729913 0.08802854 -0.13225156 0.044511836
000320 df 40 c4 bd 60 3e 55 bd bc 57 9d bd 7a 4f f0 3d
       -0.09582686 -0.05206144 -0.0768275 0.11733909
000330 5c 64 cd 3d aa 82 b4 bd aa 65 9d 3d 02 3d 8b 3d
       0.10028908 -0.08813985 0.076854065 0.06798746
000340 c8 8c b5 3b 4c dc 42 3d 12 7f e8 3a 54 e5 d1 bd
       0.005540464 0.047573373 0.0017738065 -0.10248819
000350 b8 bc 92 3d 2d e5 e7 3c 8e 5b 25 bd ea 0e 15 be
       0.071649015 0.028307522 -0.040370516 -0.1455647
000360 7e 28 9b bd 6c 22 aa 3d 91 80 f3 3d c3 0b 2e bd
       -0.07576083 0.08307347 0.118897565 -0.042491686
000370 7d 43 92 bb 97 4a 27 3d 32 f0 be bd 48 ad 95 bd
       -0.0044636116 0.04084262 -0.09323157 -0.073084414
000380 92 cb dd 3b 5b 62 90 3d 5c 65 57 bd fa bf 81 3d
       0.0067686522 0.0705001 -0.0525869 0.06335445
000390 15 00 e0 b9 da 25 ca 3c 32 23 02 3e 98 8b ca 3d
       -0.0004272467 0.024676252 0.12708738 0.09889907
0003a0 fc aa ca bd 67 83 05 be 6c 2e 07 be 42 75 92 bd
       -0.09895894 -0.13038407 -0.13201302 -0.071512714
0003b0 f2 a3 ed bc a4 d0 b2 3b a1 ce 02 bd 7a 23 07 3e
       -0.02900884 0.005457001 -0.031935338 0.13197127
0003c0 40 31 25 3d 12 9c ab 3d e8 5d 37 bd 66 be 06 be
       0.04033017 0.083793774 -0.04476729 -0.13158569
0003d0 ee 3f 56 bd cf 54 f0 3c 08 e7 c5 bd 7c 2d d2 3a
       -0.05230706 0.029337315 -0.09663206 0.0016035284
0003e0 71 a0 bc 3c e2 94 45 3d 97 89 3d 3d 0c 6e b1 bc
       0.023025723 0.04823769 0.046273794 -0.02165892
0003f0 38 69 ea bd 77 38 12 be 06 20 d8 bd d0 19 e3 bd
       -0.1144585 -0.14279352 -0.10552983 -0.11088908

weight_hh f4 [256, 64]
000000 c4 9e 06 3d 44 2b bd bd 86 b3 14 bd 79 93 d2 bd
       0.032866254 -0.09236768 -0.03630402 -0.102820344
000010 ed 64 96 3d a3 88 0c bd e0 ea 2f 3d 3e 43 0d 3d
       0.07343469 -0.034309994 0.042948604 0.034487955
000020 c8 45 6b 3d 6d 19 9d bd af 51 e7 bd 3f 14 b0 bd
       0.057439595 -0.07670865 -0.11294877 -0.08597612
000030 7e 7e a2 bd 78 50 77 bd d6 ba bf bd 3c ba be bc
       -0.07934283 -0.060379475 -0.09361808 -0.023282163
000040 95 f6 92 bc e7 83 08 be 1b b5 a2 3d b6 01 a1 bd
       -0.017939845 -0.13331567 0.079446994 -0.078616545
000050 49 89 ce 3c f3 b0 15 3d 83 1a 37 3d 9b 6f 37 bc
       0.025211947 0.036545705 0.044703018 -0.011196042
000060 48 98 f9 3c a6 65 c9 bd 48 88 db 3d 7e 4b b6 3c
       0.030468121 -0.09833841 0.10719353 0.022252794
000070 df 96 d5 3d 90 da d8 3d 00 a4 1a bd 4c 38 d2 b8
       0.10429167 0.105885625 -0.03775406 -0.000100240664
000080 b4 ef b2 3d 96 1b 0f bd 03 51 b2 3b 97 ce d6 3c
       0.08737126 -0.034938417 0.0054417863 0.026221557
000090 04 45 93 3d 90 d7 1e bd 03 a6 89 bc cc b5 11 3d
       0.07190898 -0.038779795 -0.016802793 0.035573766
0000a0 0c 94 09 3d 50 89 c7 3d db c6 f4 3d 47 13 f6 bd
       0.033588454 0.09742987 0.11951991 -0.120153956
0000b0 79 10 f8 bd 9b c7 81 bd 3a de 8f bd cb 70 ae 3c
       -0.12112517 -0.063369 -0.07024808 0.021294018
0000c0 9c c3 84 3d e4 c5 68 3d e3 c0 c2 bd 6e 98 73 3d
       0.06482622 0.05682935 -0.095094465 0.05947154
0000d0 10 a2 c4 3d d7 58 1c 3d 1e 00 0d 3e 70 01 10 3c
       0.096012235 0.03817066 0.13769576 0.008789405
0000e0 da 0c e1 3d c8 e8 8e 3d 87 0f b8 bd b6 b4 e8 3d
       0.10988779 0.06977993 -0.089873366 0.11362593
0000f0 c4 1f 05 3e 08 94 d9 b7 99 12 26 3d 6b 1b 01 be
       0.13000399 -2.5937348e-05 0.04054508 -0.12608115
000100 fe 59 17 3d 6b df a0 3d 7e be c9 3d 40 b6 52 bd
       0.036951058 0.078551136 0.098507866 -0.05144334
000110 0b 93 12 3d 99 68 47 3d 6f 04 8e 3d 4d 6e b4 3d
       0.035784762 0.048683736 0.069344394 0.08810101
000120 b9 5d a0 3d 2a f3 90 bb 90 b1 af bd 5a bd 01 3b
       0.07830376 -0.0044235187 -0.08578789 0.00197967
000130 58 01 b4 bd 53 09 0e bd ac bd 64 3a c9 89 28 3c
       -0.08789319 -0.03467686 0.0008725773 0.010286757
000140 eb e9 bf 3b c4 7a ee bd 28 aa 16 3e ef f2 e8 bc
       0.0058567426 -0.116445094 0.14713347 -0.028436152
000150 7c 77 b9 3d 1a 7e 66 bd e4 2f c7 3d 4b 8e b6 bd
       0.09055993 -0.056272604 0.09725931 -0.08913859
000160 26 f7 ee bd 9d 58 6c bd db d3 9a bd 49 96 8d bd
       -0.116682336 -0.057701696 -0.075599395 -0.0691343
000170 22 4f 25 be f2 1b b1 bd 2e 4f d0 3d 7f 24 df 3d
       -0.16143468 -0.08647908 0.10171352 0.10895633
000180 09 8c 5c bd ac 4e fe bd 05 02 0a bd e3 a1 bf 3d
       -0.053844485 -0.12417349 -0.033693332 0.09357049
000190 48 55 82 3d f0 9b a2 3d c0 b3 fd bd be d5 8d 3c
       0.06363922 0.07939899 -0.123878 0.017313834
0001a0 a7 a1 e0 bb ef 79 7d 3d dc b5 ee bb d5 a8 29 3d
       -0.006855208 0.061883863 -0.007284863 0.041420776
0001b0 a8 2c 04 be be d1 70 bd 1a 4d 9e 3d 74 e8 60 3d
       -0.1290766 -0.058793776 0.0772955 0.054909185
0001c0 32 b0 6f bd 0a fc 3c 3d ff 62 f7 3d c5 ba 9f bd
       -0.058517642 0.0461388 0.12079429 -0.07799295
0001d0 a6 17 03 be 62 c1 91 3d c1 a3 a2 3c c1 d4 3c 3d
       -0.1280199 0.07116963 0.019853475 0.046101335
0001e0 dd f3 7e bd 79 f5 9c bd e7 57 fd bc 56 ae 15 3d
       -0.062244285 -0.07664008 -0.030925704 0.036543213
0001f0 4f cf ae 3d bd 6c e4 3b e9 b1 a5 bc 32 36 86 bd
       0.08535635 0.0069709704 -0.020226436 -0.06553306
000200 8e 94 d8 bd af a1 af bd fa 17 4c bd 34 bf f8 3d
       -0.105752096 -0.085757606 -0.049827553 0.12145844
000210 13 b6 9a 3c 2b 52 94 bd 53 89 13 3d 1a fb 9c bd
       0.018885648 -0.07242235 0.036019634 -0.07665081
000220 50 0b c0 3b 96 82 08 bc 20 53 56 bc b6 b8 f1 bc
       0.0058607236 -0.008331915 -0.013081342 -0.029507022
000230 d9 9f 33 bd 0a 2d 9b 3c a3 69 00 be 16 14 1b 3b
       -0.043853614 0.018942375 -0.12540297 0.0023663095
000240 c4 91 ab 3d 7b 8b b2 bd 1b 53 53 3b f7 99 b0 bd
       0.08377412 -0.0871801 0.003224558 -0.086231165
000250 b9 06 92 3d 2c b8 c3 3b b3 a3 30 3d 3f bb 06 bd
       0.071301885 0.0059728827 0.043124866 -0.032893416
000260 44 9f f0 3d 12 7b 2d 3d 49 03 58 bd b4 7a b3 bd
       0.117491275 0.042353697 -0.052737508 -0.08763638
000270 d4 70 7d 3d c5 3f b5 3c cd ac e0 bd 37 09 88 3d
       0.06187518 0.022125134 -0.10970459 0.066423826
000280 c2 fc 17 3e ef f8 96 bd c4 03 77 3d bf 23 d1 3d
       0.14842513 -0.07371699 0.060306326 0.10211896
000290 79 3c 99 3b 0a 39 c8 3d 41 66 67 3d 5a 07 9d bd
       0.0046763984 0.09776504 0.056494 -0.07667418
0002a0 8d a7 52 bc f7 4c c5 3d a2 99 c9 bd 4c 91 a7 bb
       -0.01285733 0.096338205 -0.09843756 -0.0051137563
0002b0 1d 4b 9b 3d fc c4 83 bd 5a fc 61 bd dc d0 be bc
       0.07582686 -0.06434056 -0.0551723 -0.023292951
0002c0 64 24 91 bd 76 bc f5 bd 06 78 3c bd 6e 77 a4 3d
       -0.07087019 -0.11998837 -0.0460129 0.08030592
0002d0 0c e0 95 3d 7d 24 5d bd 72 7c 1f 3d 20 69 cb bd
       0.07318124 -0.053989876 0.03893704 -0.099321604
0002e0 59 a3 02 3e 8e 0e 7f 3c b5 a2 00 3d f6 0b 47 3d
       0.12757625 0.015567435 0.03140517 0.04859539
0002f0 0b ee b5 bd 85 7c ca bd 9a e1 49 3d 6b 16 12 3e
       -0.08883294 -0.098870315 0.049287416 0.14266364
000300 d9 b0 ad 3d 13 bc b9 bd ad 9b a0 bb c7 37 df bd
       0.08480997 -0.090690754 -0.0049013705 -0.108993106
000310 30 4e c0 3b 5e 52 9b bd fc 39 e7 3d b7 49 2a bc
       0.0058686957 -0.0758407 0.112903565 -0.010393552
000320 fd 22 f5 3c a3 c5 d3 bb 91 bc 44 bd 32 eb 87 3c
       0.02992391 -0.006462769 -0.048031393 0.016591642
000330 4f 60 38 3d c6 1d 31 bd d3 03 dc 3b a6 ce 59 3d
       0.045013722 -0.043241285 0.006714323 0.05317559
000340 ad 56 f5 bd 53 8b 81 3d 76 25 cc ba d8 aa 5c bd
       -0.11979423 0.06325402 -0.0015575129 -0.053873867
000350 2f b4 88 bd db 8c 4d bc 07 d8 2d 3d ae 9d 3f bd
       -0.06674992 -0.01254579 0.042442348 -0.046781234
000360 58 bf 0a bd a3 26 fc bd 72 00 af 3c 0b b0 40 bd
       -0.033873886 -0.12312057 0.021362517 -0.047042888
000370 07 c9 c0 3d 3c 3e ca bd 9e d2 ef bc 98 d4 7c 3d
       0.09413343 -0.098751515 -0.029275235 0.061726183
000380 62 ef bc bd a4 d9 ff 3d e1 0f 63 3d 48 a2 46 3c
       -0.09225346 0.124926835 0.055435065 0.012123652
000390 14 b0 a8 bd d7 a7 dd 3d 3c 28 00 be 2e dd 49 bd
       -0.08236709 0.108230285 -0.12515348 -0.0492832
0003a0 71 58 46 3d 9e 21 86 bd 41 48 e7 bc b4 97 d1 bc
       0.048424188 -0.06549381 -0.028232696 -0.025585033
0003b0 e2 c6 55 bd db c6 b2 b9 94 f3 47 bc a7 9a 54 bd
       -0.052191623 -0.00034098965 -0.01220407 -0.0519053
0003c0 96 d3 b5 3d bd 90 c2 3d 69 dc f9 bd 0a 35 fc bc
       0.088782474 0.09500263 -0.12200243 -0.03078701
0003d0 50 1d b7 3d 62 90 bb 3c aa 2d c8 3b ac aa af bd
       0.08941138 0.022895996 0.006108959 -0.08577475
0003e0 ea a1 50 bd 5d 66 48 bd 69 73 dd bd 55 dc e8 bd
       -0.050935663 -0.048925746 -0.10813028 -0.1137015
0003f0 e5 f0 6d 3d 79 8b 02 bd 7e c2 e5 3b e7 da 8c bd
       0.058091063 -0.031871293 0.0070117107 -0.0687769

bias_ih f4 [256]
000000 69 61 c8 3c f7 69 c2 bd 84 dd 9e bd 76 2b cf 3d
       0.024460511 -0.094928674 -0.077570945 0.101157114
000010 36 0a 7c 3b 67 4a f2 bd b8 ef a3 bc 73 74 4e bd
       0.0038458235 -0.11830597 -0.020011768 -0.050404023
000020 8c b9 c1 3d 54 18 19 bd e7 8b a9 bd b3 9b 97 3d
       0.094592184 -0.037376717 -0.082786374 0.07402744
000030 03 1d 7b 3d 13 81 a1 3d b1 d6 8b bd 00 37 51 bd
       0.061306965 0.07885947 -0.068280585 -0.051077843
000040 17 7c 21 3c 93 3c b0 3d af c5 59 3d 84 b2 2f ba
       0.0098562455 0.086053036 0.05316704 -0.0006702321
000050 75 fd d5 bc 8b 99 d8 bd dd b0 76 bb c0 2d 1b ba
       -0.026121834 -0.10576161 -0.003764204 -0.0005919598
000060 38 b5 34 3d c4 38 2c bc 0a ea d8 bd a4 c1 01 bd
       0.044118136 -0.010511581 -0.105915144 -0.03167881
000070 4e f0 20 bd 55 5e 09 3e 8a 43 9f 3d 5f 62 4e 3d
       -0.039291672 0.13414891 0.07776554 0.050386783
000080 44 1c 31 bb c4 c0 47 3d 9e 5d d9 3d 2d 72 e4 bc
       -0.0027024904 0.04876782 0.10613559 -0.027886475
000090 41 47 64 3d 1c 60 14 3d 90 7d 14 bd bb f5 07 bc
       0.055732016 0.03622447 -0.03625256 -0.008298333
0000a0 a0 b8 e8 3d 87 e0 8d bd 8c ac 32 bd c1 a6 08 3c
       0.113633394 -0.06927591 -0.043621585 0.0083405385
0000b0 6c 69 0d 3e ae 99 12 3c 5c 91 eb 3d 1b 2a ac bc
       0.13809747 0.008947773 0.115023345 -0.021016171
0000c0 2d ed f6 3d 0e 25 bb 3d a6 f0 e7 3d d8 6c 1f 3d
       0.120569564 0.09137927 0.11325197 0.03892216
0000d0 c3 d9 49 bd 98 90 2a bd d3 b2 5a 3d 8c d8 2d 3d
       -0.04927994 -0.0416418 0.053393196 0.042442843
0000e0 ec 00 bf 3d 20 f3 65 bd 46 a8 28 3d eb cc 54 3d
       0.09326348 -0.056140065 0.041176103 0.051953238
0000f0 e2 d4 eb bd c0 0c 70 bd ec a7 46 bc 89 45 8a 3c
       -0.115152135 -0.05860591 -0.012124997 0.01687886
000100 1b 91 27 bd bd 51 f2 3c fe 96 6f bd f3 83 e3 3c
       -0.040909868 0.029579991 -0.058493607 0.02777288
000110 09 47 03 3e da b8 82 3b e1 c8 b6 3d 32 5c c0 3d
       0.12820067 0.003989321 0.08925033 0.09392585
000120 3f 05 09 bc 2c 1f 3f bd 5b 3f e6 3c 5a 4a 98 bc
       -0.008363067 -0.046660587 0.028106382 -0.018590141
000130 c1 22 3f bd 82 b5 ef 3d 00 55 0e 3d a6 b3 21 bc
       -0.046664003 0.11704542 0.03474903 -0.009869492
000140 af 8c 84 bd 6f 04 21 3d bc 5e d1 bd f6 65 b0 bb
       -0.06472146 0.03931087 -0.10223147 -0.0053832484
000150 b1 9e 0a 3e 26 a0 92 bd 6c fb 54 bc 66 f6 0b bd
       0.13537098 -0.07159452 -0.012999397 -0.03417053
000160 53 a8 6e 3c 64 12 a2 3b bb 5d 9d bd 52 3e 03 3e
       0.014566499 0.00494604 -0.07683893 0.12816742
000170 8b 75 8b bd 5c 64 fa 3d 44 97 c1 3d bc 6c e3 3d
       -0.06809529 0.12226173 0.0945268 0.11104724
000180 3c 9e c2 3c 9c c8 de bd 4a f5 0f 3d c0 40 95 bd
       0.023757093 -0.10878107 0.035146035 -0.07287741
000190 31 8f 2d 3d fe bc cc bd da ae a3 bc 07 1a f0 3d
       0.042372886 -0.09996985 -0.019980837 0.11723714
0001a0 74 46 5d bd 75 5c 9a bd da 0e e6 3d ba 01 c6 3d
       -0.054022267 -0.07537166 0.112333015 0.09668298
0001b0 08 20 f9 3d b9 be ff 3d ab 49 10 3d 5e b7 4a 3d
       0.121643126 0.12487549 0.035226505 0.04949128
0001c0 ec 7e e9 3c d3 ab 5e bd e5 09 f5 bc a4 e2 d8 3d
       0.028502904 -0.054363083 -0.029911945 0.10590103
0001d0 ad 2c 34 bd 5c 7b 53 bd 13 09 dc 3d cd 51 b4 3b
       -0.04398792 -0.051631317 0.10743918 0.0055029155
0001e0 99 78 b0 3c 76 ff 49 bb 45 ec ea 3d ac 9e 2c 3d
       0.02154188 -0.0030822433 0.11470846 0.04214351
0001f0 b7 cf 8d 3d 72 4c 87 b7 15 fd 8d 3c 18 97 09 3c
       0.06924384 -1.6128852e-05 0.017332593 0.00839784
000200 4d f7 b3 3d 79 28 17 bb 90 77 fe bd 1c 89 a6 3d
       0.08787403 -0.0023064895 -0.124251485 0.0813162
000210 f1 4f 6f 3d 99 fa 81 bd 3c 72 80 bd 3a 39 51 3d
       0.058425847 -0.06346626 -0.062717885 0.051079966
000220 de a7 28 3c b3 fa ae bd dd 56 94 3d 57 bf c8 3c
       0.010293929 -0.08543911 0.0724313 0.0245053
000230 53 e1 05 3e b0 35 e0 3d f4 28 d9 3a 0e 1c 9c bd
       0.13074236 0.1094774 0.0016567991 -0.076225385
000240 91 85 47 bd f6 d5 51 39 03 71 0a be 26 3b 75 bd
       -0.048711363 0.000200115 -0.13519673 -0.05987086
000250 c6 d2 c3 bd 61 39 d6 3d 31 f3 d9 3d 35 d6 38 bd
       -0.09561686 0.10460163 0.10642088 -0.04512616
000260 19 25 84 bd 17 86 dc bd c4 42 f3 3d 2d 3c 8e bd
       -0.06452388 -0.10767763 0.11877969 -0.06945071
000270 a6 c7 5c bc 5d d1 14 bd 0e a7 fb bd bd 31 97 bd
       -0.013475334 -0.036332477 -0.122877225 -0.07382534
000280 df 32 40 3d 2e 22 87 bd 20 11 f6 3d 37 60 17 be
       0.046923514 -0.06598316 0.12014985 -0.14782797
000290 5c b7 32 bd 72 28 d8 bd e9 f4 53 bd a3 02 fc bc
       -0.043631896 -0.10554589 -0.051747236 -0.030762976
0002a0 2a f2 1c be 66 6c e4 bd b8 63 b9 3d f2 da bb bd
       -0.15326753 -0.11153488 0.09052223 -0.0917262
0002b0 50 0c f1 bc 47 1f a8 bd e8 f6 95 3d 80 76 01 3e
       -0.029424816 -0.08209091 0.07322484 0.1264286
0002c0 ee 90 b7 3d 63 85 39 bd 7f 15 af bd 98 e4 07 3d
       0.0896319 -0.045293223 -0.08549022 0.03317699
0002d0 df ba b0 bd 6b 08 9b bc 18 04 60 3d 90 04 f3 bd
       -0.08629393 -0.018924912 0.054691404 -0.118661046
0002e0 9c f8 3a 3d ef f8 20 3c b6 99 17 3d e5 67 a9 3d
       0.04564725 0.009824975 0.037011825 0.082717694
0002f0 91 4c 6d bd df ee 7f bd b2 b8 9c bc b3 e7 09 bd
       -0.057934348 -0.062483665 -0.019131038 -0.03366823
000300 79 13 8b 3d 9c ab 43 bc 11 40 d1 bb 7e 22 09 3e
       0.067908235 -0.01194277 -0.006385811 0.13392064
000310 ed 1d 6e 3d 03 01 60 bd 86 2c 35 3d 8b 52 89 bd
       0.05813401 -0.054688465 0.044231914 -0.06705197
000320 fa 88 be bd 8a f2 e5 3c fa cd 58 bb 58 96 c4 bd
       -0.0930347 0.028069753 -0.0033081756 -0.09598988
000330 54 92 df 3d 52 79 df bc c0 24 8f 3d 90 7f 42 3d
       0.10916582 -0.02727953 0.069894314 0.047484934
000340 4a 20 bd bd 7b c0 e7 3d ec c5 d0 3c 4a 73 4a 3d
       -0.09234674 0.113160096 0.025485002 0.049426354
000350 f3 f2 a0 bc 85 a8 bd 3d 14 71 b4 bd 58 99 06 bd
       -0.019647097 0.09260658 -0.088106304 -0.032861084
000360 fe 12 0b 3e ae b8 d4 3d 17 46 81 bd 34 e0 1c 3e
       0.13581464 0.10386787 -0.06312197 0.15319902
000370 d3 85 01 3e f9 d9 ed 3c 5f c9 05 3e da db 1b bd
       0.12648706 0.029034602 0.13065098 -0.038051464
000380 15 b5 a6 bb 43 0e 9c bd c8 48 12 bd c0 c6 42 bd
       -0.0050875046 -0.07619908 -0.03571394 -0.047552824
000390 d0 14 02 3e d9 71 a8 bd 4a b3 54 bd 65 62 c9 bc
       0.12703252 -0.0822484 -0.051928796 -0.024583051
0003a0 11 48 c4 bd 3f 73 bf bc 53 ef 10 3d d9 b0 7b 3d
       -0.09584058 -0.023370383 0.035384487 0.061447952
0003b0 68 30 46 3d 1c bb 17 3e 31 6e 47 bc 02 2d b2 3c
       0.048386008 0.1481747 -0.012172268 0.021749977
0003c0 38 f4 3b 3d 14 d0 91 3d 5d 1c 8c 3c b0 ef b8 3d
       0.045887202 0.07119766 0.017103368 0.09030092
0003d0 2f 54 e4 3d 11 00 d8 3d 56 c1 ae bd c2 ae 86 bc
       0.11148869 0.10546888 -0.0853297 -0.016440753
0003e0 e8 8f 04 3e 8f 1e 85 bb 5b 5c 8e 3d b2 ee 43 3d
       0.12945521 -0.0040624808 0.06951209 0.04783506
0003f0 ff 1f 95 3d 40 25 8f 3d 9d 3b d8 bc ec d1 8f 3d
       0.072814934 0.06989527 -0.026395613 0.07022461

bias_hh f4 [256]
000000 54 05 8e 3d bc d3 63 3c c7 84 12 3e 5e 94 38 bb
       0.0693461 0.013905462 0.14308463 -0.0028164606
000010 a0 6c c4 bd 51 a8 74 3d 2f 33 02 3d d8 e0 ee ba
       -0.09591031 0.05973083 0.031787094 -0.0018224968
000020 78 f5 1b 3e a0 c4 75 3d 84 0a cf bc 8f 22 05 3e
       0.15230358 0.06000197 -0.025273569 0.13001464
000030 cf e4 66 3d db bf 40 3d f7 09 8b 3d 79 9f aa 3d
       0.056370553 0.047057968 0.0678901 0.08331198
000040 b8 8e 80 bd ab dc da bc c6 87 77 bd 37 1c 77 bd
       -0.062772214 -0.02671655 -0.060432218 -0.060329642
000050 9a 1d 0b 3d 2c 1b f5 3c ee a0 a2 bc ae ce 24 3d
       0.033963777 0.029920183 -0.019852128 0.040236168
000060 66 f0 1c 3a c6 0a c6 bd 10 ef d4 3d b7 f6 72 3b
       0.000598675 -0.096700236 0.1039716 0.0037073323
000070 e4 1a ae 3d 2e 67 47 3d 6c 7f 02 3d 0b 91 c4 3d
       0.08501223 0.048682384 0.0318598 0.09597977
000080 3b ab 0f 3d 06 31 56 bd ca bf 15 3e e6 89 6e 3d
       0.035075407 -0.052292846 0.14623943 0.05823698
000090 d1 06 8d bc a2 26 39 3d 5b 8f f6 bb 08 b8 a5 3d
       -0.017215164 0.04520286 -0.0075244135 0.08091742
0000a0 70 5e 99 bd 1b b6 a7 bd 1f f2 9f 3c 58 0f 1b 3d
       -0.07488716 -0.08189031 0.019524632 0.03785643
0000b0 09 72 82 bd f9 63 06 3d e5 2f 62 3d ab e5 ae bd
       -0.06369407 0.032810185 0.055221457 -0.085398994
0000c0 b7 bb 13 bd 4e 1b 5f bd f4 4b 01 3e c2 99 43 bd
       -0.03606769 -0.0544694 0.1262663 -0.047754057
0000d0 a3 9a 34 bd 22 cc ab bd 22 59 83 3d 7e 50 b5 ba
       -0.044092786 -0.083885446 0.06413485 -0.0013833193
0000e0 9e 5f 93 3c 93 d4 0e 3e 99 c4 e0 3d a2 11 e9 bb
       0.01798993 0.13948278 0.10974998 -0.0071126977
0000f0 f6 bc f5 bd 18 cf e0 bd 25 5b 13 3e 29 43 da bd
       -0.11998932 -0.10977 0.14390238 -0.10657341
000100 bb 3a dc 3d 9f 22 b8 bd d4 bd 03 3e 39 6a 3f 3d
       0.107533894 -0.089909784 0.12865382 0.04673216
000110 58 3c 3a 3d 91 19 8c bd 78 52 97 bd 9e fd ca bd
       0.045467705 -0.06840814 -0.073887765 -0.09911655
000120 ef 30 07 3e 60 8d c9 3d b5 0d a4 bd b0 27 ee 3b
       0.1320226 0.09841418 -0.08010427 0.0072679147
000130 38 23 96 3d c6 a4 fd 3d 28 bb b0 bd 83 44 65 3d
       0.07330936 0.12384944 -0.08629447 0.05597354
000140 49 ad bc bd 40 8f e3 bc a2 f8 d7 3d 0b 42 c9 3d
       -0.09212739 -0.027778268 0.1054547 0.0982705
000150 48 3b 54 3d f2 37 c1 bd aa 0e f4 bd a7 25 49 3d
       0.051814348 -0.09434499 -0.119168594 0.049108174
000160 bf b2 98 bc 3e 83 4a 3d c5 b9 ba 3d a7 db b6 3c
       -0.01863992 0.04944157 0.09117464 0.022321535
000170 d5 0b f9 3d a1 1b c6 bc 2a 51 4e 3b 61 af 17 bd
       0.1216046 -0.024183096 0.0031481483 -0.03703249
000180 77 2f 39 3d a6 4a 54 3d ab a8 32 bd 47 a8 42 bc
       0.04521128 0.051829003 -0.043617886 -0.011880941
000190 8b 47 55 3d ff 01 99 3d c3 cf 01 3e 46 2b 80 3d
       0.05207018 0.07471084 0.12676911 0.06258254
0001a0 2e 60 06 bd e7 52 cc 39 23 87 0b 3e 7a 69 8b 3d
       -0.032806568 0.0003897168 0.1362577 0.068072274
0001b0 e6 87 39 3c 5a af 45 3d c4 57 98 3c 61 86 0a 3d
       0.011323905 0.04826293 0.018596537 0.03381956
0001c0 8b c9 10 bc 91 e8 0a 3d 56 7f 34 3e d6 bf b2 bc
       -0.008837114 0.0339132 0.176267 -0.02181999
0001d0 53 20 4e 3d 57 71 8a 3d 38 77 82 3d a1 c6 9c bd
       0.050323796 0.06759899 0.063703954 -0.07655073
0001e0 ef bc be 3d bf 27 6d 3d a4 71 38 3c ef 4d e4 3c
       0.0931338 0.057899233 0.011257563 0.027869193
0001f0 7f e3 da bd 91 b3 e8 3c 0f e5 da 3d ca 28 bd 3d
       -0.10687923 0.028405936 0.10688221 0.092362955
000200 8c 73 0b be 1e a8 07 be 69 0b 93 3d 48 0d 93 3d
       -0.13618296 -0.13247725 0.07179911 0.071802676
000210 af fd 08 3e 60 30 25 bc 29 38 0d be 1f d5 aa bd
       0.13378023 -0.010082334 -0.13790955 -0.08341431
000220 d6 df f0 3d 68 44 69 3d f5 7b a2 bc 40 85 a8 bd
       0.11761443 0.056950003 -0.019834498 -0.082285404
000230 a9 f6 1d bd 56 ca ff 3c 56 76 a9 bc 52 2d 64 bc
       -0.03856531 0.031224411 -0.02068631 -0.013926821
000240 4f 2c ec bd 61 fa ae bd 4f 40 2a 3c 44 79 2c 3c
       -0.11531889 -0.0854385 0.010391309 0.010526959
000250 98 7d 10 be c5 13 9f bd ed a1 94 3d 9d f4 55 bc
       -0.1411041 -0.077674426 0.072574474 -0.013058809
000260 f7 3d 0c be 3b 66 aa 3d 77 38 1b bd 94 62 0d bc
       -0.13695513 0.0832028 -0.037895646 -0.00862946
000270 3e ba 51 3d 23 15 9c bd 3a 7d c0 bd 15 1d 9b bd
       0.051203005 -0.07621219 -0.09398885 -0.07573906
000280 be ae 82 3d a2 3f a7 3d cc 07 37 bd cc 9b a6 3d
       0.06380986 0.08166434 -0.04468517 0.08135185
000290 60 08 33 bd b8 45 83 bd f7 6b c8 bd 11 c2 81 3d
       -0.04370916 -0.06409782 -0.09786218 0.06335843
0002a0 d5 4c 40 bd 3b e2 12 bc 86 71 a0 bd 1d 4f 54 bd
       -0.046948273 -0.00896507 -0.07834153 -0.05183326
0002b0 58 08 73 3d 5c 15 c6 3c aa 48 a8 3d dd 54 77 3d
       0.05933413 0.024180107 0.082169846 0.060383666
0002c0 23 ed 0d bd c2 59 d8 3d 70 43 36 3c ef f0 f0 bd
       -0.03464998 0.10563995 0.011124477 -0.117647044
0002d0 4d 07 d0 3d 10 3d 34 3d e5 cf 14 3e ed 6a ff bd
       0.101576425 0.044003546 0.1453243 -0.12471566
0002e0 35 72 f4 bc 55 8c 03 3d 87 68 0a be 3d 0f cc bc
       -0.029839614 0.032116253 -0.13516437 -0.02490961
0002f0 01 58 66 3d 49 d8 d0 bd db d3 eb bc 1c 60 82 3d
       0.05623627 -0.10197503 -0.028787544 0.06365988
000300 65 fe 0f 3d 20 f6 0a 3b 2d 3e 96 bc 8c e9 2c 3c
       0.03515472 0.002120383 -0.018340195 0.010553729
000310 11 9a 4a 3d dc a6 dd 3c fc 81 d7 bc 97 6c a3 bd
       0.049463335 0.027057104 -0.026307099 -0.07979696
000320 c2 8a 14 bd de fd 01 3d 46 8d 5b bd 9c 97 d1 bd
       -0.036265142 0.031736247 -0.053601526 -0.10233995
000330 06 53 80 3d 84 cf d4 3d b9 b8 27 bc 08 76 88 3d
       0.062658355 0.10391143 -0.010236912 0.06663138
000340 7b ed b9 3d ee ff 03 3e dd 93 83 bd 51 91 a4 3d
       0.09078499 0.12890598 -0.06424687 0.080355294
000350 be 1b 03 3e d0 df dd 3a 3e 46 e1 3d 0e 0c d2 3d
       0.12803552 0.0016927663 0.10999726 0.102562055
000360 10 77 56 3d ee aa 4f bd 61 41 1b bd aa 6b b4 3c
       0.05235964 -0.05070012 -0.037904147 0.022023994
000370 c8 68 cc 3d c8 46 60 bd f7 69 63 bd d6 5d 80 bd
       0.09980923 -0.054755002 -0.055520978 -0.06267898
000380 8e 12 a4 bd 9d 68 ac 3d cd ec ae 3d 0a 80 f8 3d
       -0.080113515 0.08418391 0.0854126 0.121337965
000390 5b 03 eb 3d 0b 91 cb bd cb 0d 67 bd 1b 61 5a bd
       0.114752494 -0.09939774 -0.05640964 -0.053315263
0003a0 67 a9 9d bd c9 43 fa 3d a6 24 0a bd 14 c4 bf 3b
       -0.076983266 0.1221996 -0.033726357 0.0058522318
0003b0 45 2f e9 3d be 0d 99 bb 8d 30 93 bd 4f 0f 02 3e
       0.11385969 -0.0046708276 -0.07186995 0.12701152
0003c0 38 b1 30 3c 2c f1 3d bd 40 60 96 3d 16 eb 5d 3d
       0.01078444 -0.046372578 0.07342577 0.054179274
0003d0 c1 d4 88 bc 8d c3 e0 3d 08 7d 2b 3d 52 de 87 bb
       -0.016703011 0.10974798 0.041867286 -0.0041463757
0003e0 45 29 e4 3c 41 f3 87 3d c6 ff 02 3e a6 8d 96 bc
       0.02785171 0.06638194 0.12792882 -0.01837809
0003f0 cc c0 aa ba 4f 8d 35 bc e4 6c 3c 3a da 75 0e 3d
       -0.0013027429 -0.011081054 0.0007187857 0.03478036

weight f4 [64, 128]
000000 e8 bc 4b bd fc 97 77 bd c0 63 5a 3d 63 ae 8b 3b
       -0.049740702 -0.060447678 0.053317785 0.004262732
000010 0c 6e 92 bd 83 4b 39 bd cf d4 96 bc e6 53 ef 3c
       -0.07149896 -0.04523803 -0.018412022 0.02921481
000020 32 94 2b 3c 02 55 cd 3d b6 1c 5e 3d 6d f4 58 bc
       0.010472344 0.100259796 0.0542266 -0.013241869
000030 d2 e4 55 bd 47 3d be bd e6 01 6f 3c ca b9 75 3d
       -0.052220173 -0.092890315 0.014587855 0.059991635
000040 59 1e c1 bb 9b c6 a0 bc 35 a2 74 bd 55 ca 5c bc
       -0.0058935103 -0.019625952 -0.059725005 -0.013475974
000050 e2 3a 34 bd fb ac 74 bc 83 8a 8a bd 2d 76 bc bc
       -0.044001468 -0.01493382 -0.067647 -0.02300557
000060 e1 54 5a 3d 7f e3 37 bd 3b e6 bd 3c 15 61 b2 3c
       0.053303603 -0.04489469 0.023181072 0.021774808
000070 b2 01 a2 3c 39 ed 73 3a 73 e8 ff 3c 34 71 aa 3a
       0.019776199 0.0009305063 0.03123877 0.0013003708
000080 46 6b 2f 3d 66 46 21 3d 90 94 e7 bd fc b2 37 3d
       0.042826913 0.039373778 -0.11307633 0.044848427
000090 3b 51 65 3c 15 9d 24 3c 1d 52 57 bd ee 1a 09 bd
       0.013996418 0.010047217 -0.052568544 -0.033472948
0000a0 fe b2 3e 3d c7 4a ac 3d 8d fc 04 3d 39 64 d2 3b
       0.04655742 0.084127 0.032467414 0.006420639
0000b0 40 fd 68 3d 9f af 8c bd ff 7c 2f 3d cb e5 77 3b
       0.056882143 -0.068694346 0.042843815 0.0037826176
0000c0 6e b5 69 bc bc dc 57 bd 78 9e d5 bc e6 d7 43 bd
       -0.014264448 -0.052700743 -0.02607654 -0.04781332
0000d0 a7 42 c8 bd c1 7e 6e 3d 3d 50 22 bd 8d 49 67 3d
       -0.09778338 0.05822635 -0.039627302 0.056466628
0000e0 39 71 75 bd e4 6d e2 bb a0 2f af 3d ad f4 e5 bd
       -0.05992243 -0.0069100726 0.085540056 -0.11228309
0000f0 b2 75 b9 3b 6f e7 55 3d 74 a0 e3 bc 43 20 17 3d
       0.0056597823 0.052222665 -0.027786471 0.036896
000100 69 d4 89 bd 57 7f 8b 3d 68 23 15 3d 95 e0 83 bc
       -0.06729967 0.068113975 0.03641072 -0.0160983
000110 d5 d4 b2 bd df f4 69 3c 12 da 15 3d 50 31 82 3c
       -0.08732001 0.014279573 0.03658492 0.015892655
000120 ce 66 52 3d a0 34 db bc 3c 56 ca bd d1 bc 8c bd
       0.051367573 -0.026758492 -0.09879729 -0.06871951
000130 14 18 68 bd d8 8b 7b bd 79 eb 10 bd 04 8b 8b bd
       -0.056663588 -0.061412662 -0.035380814 -0.068136245
000140 b5 a2 09 bc 71 d3 cc bd 91 51 8b 3d 67 f7 b6 3c
       -0.008400609 -0.10001267 0.06802667 0.022334768
000150 a3 aa bf 3d f3 92 6c 3d 78 5a 72 bd c4 68 81 3d
       0.09358718 0.05775733 -0.05916831 0.063188106
000160 95 83 2b 3d b9 3a 34 bd c0 96 ba bd 4f f6 ae 3d
       0.041873533 -0.044001315 -0.091107845 0.085430734
000170 35 88 0b bd 4e b0 90 bb 11 a5 80 3d 36 5c a2 3c
       -0.034065444 -0.0044155484 0.06281484 0.01981936
000180 ac f3 2d 3d d9 f6 be bd 5c 8b b9 3c 3e 96 95 bb
       0.04246871 -0.09324426 0.02264946 -0.0045650294
000190 9a 8a fb 3b 76 97 7e 3d 2d d8 1f bd 2d 51 5c bd
       0.0076764347 0.062156163 -0.03902452 -0.053788353
0001a0 25 ec a4 3d 04 3a ae bd 2b 64 9c 3c 6c 44 a8 3d
       0.080528535 -0.08507159 0.019090733 0.082161754
0001b0 d6 03 fc bc 1e 99 d3 3c c6 bc aa 3d c3 ba 85 3d
       -0.030763548 0.025829848 0.08336787 0.065297626
0001c0 1a 38 c0 bc 9f 0e 0c 3c a0 69 dd bd d9 75 d7 3c
       -0.023464251 0.008548408 -0.10811162 0.026301311
0001d0 63 5b d1 bb ce 46 94 bc bd 3b 3f bd 4b be 44 3d
       -0.006389068 -0.018100169 -0.04668783 0.04803304
0001e0 aa 17 14 3d 47 88 08 bc 47 6d d6 bc d2 e9 b0 bc
       0.03615538 -0.008333272 -0.026175154 -0.02159587
0001f0 d1 04 4b 3d 47 06 c9 3b 9c 24 88 3d 0b d6 51 bd
       0.04956514 0.0061347815 0.06647608 -0.051229518
000200 da 98 4d 3d 2c 60 7f 3d e4 f6 d9 bd bb 06 5d 3d
       0.0501946 0.062347576 -0.10642794 0.053961497
000210 c1 c1 b4 bc df b6 89 bd 91 e8 b3 bd 4d fd b5 3c
       -0.022065045 -0.06724333 -0.08784593 0.02221551
000220 24 7e eb 39 57 3b 83 bd 46 30 d2 3d 10 8b 15 bd
       0.00044916675 -0.064078026 0.10263114 -0.036509573
000230 43 b5 68 bd dd 48 f8 3d 6f 16 04 3d 08 96 3a bd
       -0.05681349 0.121232726 0.032247957 -0.045553237
000240 53 c2 a6 bd 1e 11 b6 3d bb a9 c9 bb bb 36 a0 3c
       -0.08142533 0.088899836 -0.0061542667 0.019557348
000250 d3 64 96 bd 2f e1 af 3d 30 4c 10 bc 2b b6 a4 3d
       -0.073434494 0.08587872 -0.008807227 0.08042558
000260 e6 4b 38 3d d2 73 ae bc f1 18 51 3d e1 ea d5 bd
       0.044994257 -0.021295462 0.051049177 -0.1044519
000270 e9 36 15 3d 5d fb fd bb e4 04 61 bd 49 b9 b7 bd
       0.03642932 -0.007750912 -0.054936305 -0.08970887
000280 e3 3b a2 3d b7 48 bb bd 94 2a 64 3a d7 56 4b 3d
       0.07921579 -0.09144729 0.00087038544 0.049643364
000290 80 b6 7e ba 12 77 48 bd 84 ff b7 bd e3 31 1e bb
       -0.00097165257 -0.04894168 -0.089842826 -0.0024138622
0002a0 4f 10 c3 3c 2b 0a 84 3d 8f 85 a2 3c 18 c3 ee 3c
       0.023811487 0.06447252 0.019839076 0.029145762
0002b0 2b bb f8 bc 4d e9 af 3b 85 e5 4f 3d a6 0c 96 3b
       -0.030362686 0.005368388 0.050755996 0.0045791445
0002c0 09 e9 12 3d 97 a9 29 bd 06 98 08 3e e4 cd 57 bd
       0.03586677 -0.0414215 0.13339242 -0.052686587
0002d0 03 2c 6f bd eb 2c 17 bd ef 15 86 3d b3 3d b5 bd
       -0.058391582 -0.03690807 0.06547152 -0.08849659
0002e0 bf 74 11 3d 34 71 82 bd c1 63 52 3d ee 77 2f 3d
       0.03551173 -0.06369248 0.051364664 0.042838983
0002f0 78 e7 67 bc 52 1a bc bd a8 86 9c 3d 17 29 4c 3d
       -0.014154308 -0.09184708 0.07642871 0.049843874
000300 28 2a 1a bd 8a 76 c0 3c 06 d1 f0 bc 92 08 37 bd
       -0.03763786 0.023494024 -0.029396545 -0.044685908
000310 79 d2 96 bd d3 39 86 bd 06 45 aa bd 45 19 ac 3d
       -0.07364363 -0.06553998 -0.083139464 0.08403257
000320 79 48 82 3d cf 20 d2 3c 6a f3 a5 3d 0b 40 b1 bd
       0.06361479 0.02565041 0.08103068 -0.08654793
000330 da 9e ad 3d f3 7f 07 3d 81 87 93 bd 68 78 f6 3c
       0.08477564 0.033081006 -0.0720358 0.030086711
000340 d7 12 7e bd c4 d1 ec bb ca 10 a2 3c 94 b5 39 bc
       -0.062029686 -0.0072271544 0.019783396 -0.0113347955
000350 4c 2a bb bd c2 d8 15 3d 6f 3a 97 bd 34 ff 8e bd
       -0.09138927 0.03658367 -0.07384192 -0.0698227
000360 32 6d ee bd 0d f6 5c bd b0 ea 8c bc 37 01 72 bc
       -0.11641921 -0.05394559 -0.017201751 -0.014770797
000370 c8 4f e3 3d a9 af 88 bc 27 8b 0f 3d 30 0b 69 bd
       0.110992014 -0.016685324 0.035044815 -0.056895435
000380 c4 c7 16 3c 1b 41 9f 3d 2c 0d 9f 3d aa 3c 89 3d
       0.009202901 0.0777609 0.07766184 0.06701024
000390 f8 d2 2f 3d 94 88 7c bd b3 0d 83 3d 4f ed 91 3d
       0.042925805 -0.06165369 0.06399097 0.07125341
0003a0 e0 51 1c bd 00 8a 87 bd da e9 5c 3c d5 3f 67 3d
       -0.03816402 -0.06618118 0.013483489 0.05645736
0003b0 9c a6 2f 3d 86 06 6a 3d 7d 51 e5 bc 95 de b6 3c
       0.0428835 0.057135127 -0.027992958 0.022322932
0003c0 aa 8b bc 3c f5 a5 94 bd c2 0b a2 ba 28 0c a9 b9
       0.023015816 -0.07258216 -0.0012363123 -0.0003224325
0003d0 90 09 af 3d 8b 30 41 3d a8 7d 31 bd c9 29 7b bd
       0.08546746 0.047165435 -0.043332726 -0.061319146
0003e0 52 b1 84 3d 8a 25 9d 3d 6c c3 ce bc 90 b1 eb bc
       0.06479134 0.07673176 -0.025239669 -0.028771192
0003f0 91 81 48 3d 5f 81 75 3d 80 ee fd bc fd 7e 0b bd
       0.04895169 0.05993783 -0.030997515 -0.034056652

bias f4 [64]
000000 c2 e4 1a 3d 07 78 85 bd 27 e0 0d 3d bc e9 be bd
       0.037815817 -0.06517034 0.034637596 -0.09321925
000010 0a f3 40 3d 32 94 cb bd 01 54 9c 3c bf 1a b9 3d
       0.04710678 -0.099403754 0.019083025 0.090383045
000020 a8 fd 15 bd db 55 8c bc 7d 71 17 3d df 6b 91 3d
       -0.03661886 -0.017130783 0.036973465 0.07100653
000030 12 64 82 3d 3b 93 a6 bc ee 37 95 3d 3a cd 40 bd
       0.06366743 -0.020333877 0.07286058 -0.04707072
000040 b5 a9 4b bd 2b 0a 34 3d e8 b8 25 bd 68 6f fc 3c
       -0.049722392 0.04395501 -0.040459543 0.030814841
000050 57 55 19 3d 64 40 d7 bc 10 36 cb bd 3c 19 2b 3c
       0.037434902 -0.026275821 -0.09922421 0.010443028
000060 78 e8 59 bd 2f 8b 0c bd 22 86 78 3c 18 19 96 3d
       -0.053200215 -0.034312423 0.0151686985 0.07329005
000070 78 40 83 bd 0e 53 95 bd 8c 87 b8 3d 0a 9a 1b 3d
       -0.06408781 -0.07291232 0.090102285 0.0379887
000080 c6 2f 4c 3d 46 c9 17 bd 03 99 98 3d 92 f1 9d bd
       0.049850248 -0.037057184 0.0745106 -0.077120915
000090 ab 66 27 bd 28 a1 a0 3d cc f3 3d 3d 45 60 3d bd
       -0.040869396 0.07843238 0.04637508 -0.046234388
0000a0 e5 d3 59 3d 07 5a 14 bd 54 79 07 3c 8e be 5f 3d
       0.053180594 -0.03621867 0.008268673 0.054625086
0000b0 73 94 a6 bb cc 30 07 3d fa 56 70 bc 94 df 52 bd
       -0.0050836145 0.03300552 -0.014669174 -0.051482752
0000c0 fa 3c 63 bd 8e a7 31 3c 48 4c 0e ba 8d 8c 97 bc
       -0.055478074 0.010843171 -0.0005428237 -0.018499637
0000d0 65 fe 26 3d 74 a5 3c bd e4 66 06 bd 09 42 99 bd
       0.040769953 -0.046056226 -0.032812968 -0.07483298
0000e0 90 56 5a 3c 55 fb 0a bc 60 58 8f bd 66 39 a1 bb
       0.013326302 -0.008482774 -0.06999278 -0.0049201725
0000f0 64 9e 7c 3d 69 64 92 3d 95 89 55 bd 38 9f d6 3d
       0.06167449 0.07148058 -0.05213316 0.10479587

weight f4 [3, 64]
000000 2e 25 91 3d 2c f4 0d be 57 a8 b3 3b 33 30 9b 3d
       0.070871696 -0.13862675 0.005482714 0.07577553
000010 88 78 12 be d4 46 ce 3d ac a3 ee 3d c8 a4 98 3d
       -0.14303792 0.10072103 0.11652312 0.074533045
000020 6a 4c 8d bd 5e 0f a0 3d 70 09 02 3e 43 e9 cc bd
       -0.068993405 0.07815431 0.12698913 -0.10005429
000030 d9 65 81 3d e9 85 8a bd c4 ff aa bc 4e 67 8f bd
       0.06318254 -0.067638226 -0.020873912 -0.07002126
000040 96 b3 f0 bd 8c 79 f0 3c 02 6f 0e be 4d 02 a9 bd
       -0.11753003 0.029354833 -0.13909534 -0.08252392
000050 e4 45 03 3b 5d dd 2c bd 43 5b 7f 3d 59 f0 a6 3c
       0.0020030672 -0.042203296 0.062342893 0.020378279
000060 52 a1 05 be d7 25 8c bd e8 45 b6 bd c9 d5 c8 3d
       -0.1304982 -0.06843155 -0.08900052 0.09806401
000070 77 d3 ac bd 15 03 03 3e 64 59 15 3d 40 70 68 bd
       -0.08438771 0.12794144 0.036462203 -0.056747675
000080 a2 86 d0 3d 8f 1a fa 3d cd 63 81 3d bc de c5 3d
       0.10181929 0.12212097 0.063178636 0.09661624
000090 37 fe b7 bc a9 3e 24 be b2 fe 95 3d be 7b b2 3d
       -0.022460086 -0.16039528 0.0732397 0.08715008
0000a0 a7 77 24 3d 1f 45 0d bc a1 65 05 be a7 4a 4a 3d
       0.040153172 -0.008622437 -0.1302705 0.0493876
0000b0 b1 4f 1f bd 15 10 cf bd 9d bb d2 3d 9a 86 4d bd
       -0.03889436 -0.10110489 0.10289691 -0.050177194
0000c0 47 19 cb bb d4 90 b0 3d 54 63 e1 bd 6f 50 10 3e
       -0.0061980817 0.08621374 -0.110052735 0.14093183
0000d0 95 59 ea 3d e9 c1 cc 3d 37 7c c8 3d 29 e2 a5 3d
       0.11442868 0.09997923 0.09789317 0.08099777
0000e0 ae 83 ee bd 3f e2 da bd 2c a4 c1 3d 67 34 cd 3c
       -0.1164621 -0.10687684 0.094551414 0.025049401
0000f0 20 88 ee 3d 35 2a 2a bc 7f 0c fa bc e6 d9 13 bc
       0.116470575 -0.0103860395 -0.030523537 -0.009024119
000100 c2 ce 0a bd e8 b4 8c 3d 69 8e 0f 3d 7e 4e 00 3d
       -0.033888586 0.06870443 0.035047922 0.031324856
000110 3d bc 9c 3c b4 09 d1 bd 54 45 ea bd 34 4d ce 3c
       0.019132728 -0.10206929 -0.114390045 0.025183298
000120 93 dd 48 3c 17 30 05 bd 94 77 51 3a 12 ea 42 bd
       0.012259859 -0.032516565 0.0007990536 -0.047586508
000130 77 1b c7 3d 3d 34 d5 bc 55 4b 06 3e 77 a2 d0 bd
       0.097220354 -0.026025886 0.13114674 -0.10187238
000140 e4 15 ab 3d 37 20 83 bd 84 5c 0f 3e 2e 75 0f 3e
       0.08353785 -0.06402629 0.14000136 0.14009544
000150 b2 07 08 bc ba 64 8d 3d 8d 50 99 bd 81 8e 62 bd
       -0.008302616 0.06903978 -0.07486067 -0.055311684
000160 e6 4b 82 bd a2 ad c9 bc 42 da 96 bd a5 4b 8c bd
       -0.06362133 -0.024618927 -0.07365848 -0.068503655
000170 cc cf ce bc 9f 3c 19 be 79 cb dc 3d 37 f4 7e 3d
       -0.02524557 -0.14964531 0.10780997 0.06224462
000180 16 b3 45 bc fc f3 1c be 33 59 0f 3e 85 23 a8 bd
       -0.012066623 -0.15327448 0.1399887 -0.082099
000190 17 de 59 bd b1 c5 6c 3b 72 33 aa bd 3f 46 d8 bd
       -0.053190317 0.0036128575 -0.08310594 -0.105602734
0001a0 44 b9 65 bd 09 b0 14 3d 58 3c 07 3e de fa 60 3d
       -0.056084886 0.036300693 0.13206613 0.054926746
0001b0 83 7d 91 bc af 1e a9 3d 06 e3 24 3b 0e 3b 12 3d
       -0.017760044 0.082578056 0.002515973 0.03570085
0001c0 99 65 b0 bc 84 63 a3 bd 02 06 af 3d f9 ef 01 3d
       -0.02153282 -0.079779655 0.08546068 0.031722996
0001d0 3b 69 d6 bd b3 16 f9 bd 89 26 1f be a5 50 d7 3c
       -0.1046929 -0.12162533 -0.15542044 0.026283571
0001e0 e8 2e 1f 3b 39 59 da 3d 33 ff 51 bd d8 9c 74 bd
       0.0024289433 0.10661549 -0.051268768 -0.05971989
0001f0 bf 7c d0 bd d9 15 fe 3d 69 a3 32 bb 1d 7c 0c 3c
       -0.101800434 0.12406511 -0.0027258045 0.008574513
000200 d3 7d ee 3d e0 b0 ee bc 3a 75 81 3d 58 c5 cc 3d
       0.11645093 -0.029137075 0.06321187 0.09998578
000210 bd 4c f9 bd ff 83 03 3e d1 76 38 3d 82 b6 cc bc
       -0.1217284 0.12843321 0.045035187 -0.02498937
000220 3d 28 87 bd fc f2 84 bd 0f 61 88 3d d8 63 0b 3c
       -0.06599472 -0.06491658 0.066591375 0.008507691
000230 37 a1 05 be 08 88 7f bd be 09 7a 3d 9d b4 ad 3d
       -0.1304978 -0.06238559 0.061044447 0.08481715
000240 15 92 44 bd 6e 11 9f bd 17 cd 61 3c b8 57 c4 bd
       -0.047990877 -0.07766996 0.013781807 -0.095870435
000250 4a 59 8c bd 83 69 93 3b cb 3f 0a 3e 0e 31 0f 3d
       -0.06852968 0.004498662 0.13500898 0.03495889
000260 d3 10 6e 3c 52 15 eb bd 61 18 0a 3d ed 9b fe bd
       0.014530378 -0.11478676 0.033714656 -0.12432084
000270 4f ad e7 3d 8d f0 00 3e 91 59 c9 bd 88 7f f8 bd
       0.11312353 0.12591763 -0.098315366 -0.121337
000280 b8 06 e0 3b 96 28 93 bc 7b ac 21 3d 06 a8 ca 3d
       0.0068367384 -0.017963689 0.03947113 0.09895329
000290 ca ec 21 3d a1 37 19 bd f8 b5 a2 3d f1 1b fe bd
       0.03953246 -0.037406567 0.07944864 -0.12407673
0002a0 6a e3 00 be 82 cf 2d 3d 6f 7c 95 3c 45 b4 94 bc
       -0.12586752 0.042434223 0.018247811 -0.018152365
0002b0 0e ca 21 3d 94 98 b9 bc 14 b6 17 be 20 cb ff 3d
       0.039499335 -0.022655763 -0.14815551 0.12489915
0002c0 05 90 c6 3d d9 c1 e9 3d 36 ed 38 3d 4e a7 2b bd
       0.09695438 0.11413927 0.045148097 -0.0419076
0002d0 5e ca 0b 3e e4 92 9d bd 3c 06 ac bd dd 9f 07 3d
       0.13651416 -0.07694033 -0.083996266 0.033111442
0002e0 3a 2b db 3d e2 b4 93 bd 56 5d 9d 3d 3f 4c cf bd
       0.10701604 -0.07212235 0.07683818 -0.10121965
0002f0 e4 00 72 3d 69 a9 a7 bd c2 26 bc 3d 6a 67 06 be
       0.05908288 -0.08186609 0.0918708 -0.13125387

bias f4 [3]
000000 24 24 0e 3d 21 33 fe 3d ed 9a 0b 3c
       0.034702435 0.12412096 0.008520824
