microsoft_lstm_0.pth (torch, 990449 bytes, 9 tensors)

weight f4 [3195, 64]
1.1381984 0.32457474 -1.2003852 -0.044598326 0.41322497 -0.08040343 0.022869883 0.735025
0.36242047 -1.211785 2.4497967 0.8049786 2.0783296 0.94430393 -0.3809078 -2.0074713
1.307858 2.487726 0.5784012 0.7471875 -1.4930519 -0.730448 0.16778538 -0.97046155
0.7668452 -1.0862046 -0.81417817 -0.2101691 0.20216635 -1.9342005 -0.8825654 -1.1771373
-0.8227617 -0.47053918 2.3232582 1.3405592 -0.7815416 -0.50709015 0.0047481456 -0.33212754
-0.31529662 -0.73178226 -0.85169476 -0.048795704 1.1819129 0.017034601 -0.332951 -0.0074264794
0.7905955 -0.01866083 -0.4539361 0.99859273 -0.5171943 -0.22943076 -1.9828563 0.08117853
-1.5687584 -0.8670769 1.3972886 0.47027895 0.99170214 -0.93070316 0.6191654 -2.0597458
1.5856696 0.4274808 0.6409649 0.58146876 1.1946094 -0.7267946 -1.7525744 -2.1995351
-2.4465644 0.08721446 0.893415 1.1335284 0.8282269 1.5000677 0.7776026 0.597956
0.86402625 -0.76190394 -0.40177578 1.032864 1.5250057 -0.92220056 -1.3043667 -1.0444963
1.2355224 0.583491 1.3727092 0.36496872 -0.2956192 -0.5858837 -1.2079316 -0.014272414
-2.154628 0.41424713 0.8876465 -0.2881574 1.53599 -0.6174615 0.15482658 0.15347414
1.7966983 1.0373288 -0.8432581 -2.9134905 1.7842871 -0.7709778 -1.5183909 -0.7083237
0.07737814 0.38338777 -1.5175214 -0.47323528 0.49521327 -2.279975 -1.5077645 0.28163844
1.3347248 0.018568315 0.17845084 1.718824 -1.044051 0.09967299 -0.5115204 -0.16449003
0.77022105 0.4954542 0.78875643 0.21600741 0.16489947 0.7164589 -0.30347383 -0.10427706
-0.90060693 -0.103256166 1.2318672 -1.9044391 0.1620669 -0.37828687 0.50364083 -0.8443011
0.41585094 -1.1657321 -0.48810467 -0.8970893 1.7192459 -0.10662507 -1.0978348 0.8027293
0.6442692 1.247313 0.6706753 -0.61030465 0.06293122 0.6629796 -0.7572957 -0.7058564
-0.4540352 1.0383127 -0.31364053 -1.164066 -0.36850217 0.044290334 0.2283583 1.8106855
-0.5328971 -0.45109665 -0.6752655 -2.049698 0.956643 1.0997391 -0.73033494 1.7245681
-0.27385008 -0.8640533 -0.5870988 -0.94689757 -2.6091313 0.36835897 -0.62465596 -0.21489222
0.22457333 -0.07545359 0.20430739 -0.46361682 -2.2357914 1.038112 -0.441669 -1.0610714
-0.07937123 0.8888588 -0.44702992 2.4436731 -0.09981135 -0.24212314 -1.478121 0.87939256
-0.5311493 2.083306 0.90355164 -1.4675282 1.6991143 -1.1363117 -0.63886774 0.25084308
1.0465266 -0.9908671 0.1808083 1.0185097 0.6410787 -1.2941153 -2.1774125 1.015459
0.85800254 1.8061398 -1.5177985 -0.702151 1.1916 -0.3042921 0.016039994 0.7384641
3.0889573 -1.6208138 -0.47716263 -0.51162606 -2.2760482 -0.32516727 0.48708618 -2.2453687
-0.5266752 0.36246657 -2.6282084 0.5852338 1.0840046 -0.82477105 -0.39532882 0.57146335
-0.75286466 -1.4800714 0.8243223 -0.5332798 0.3535607 -0.17511357 0.046260543 0.88353693
-0.15316181 0.66983426 1.2176805 0.88599914 -0.18421596 0.13034637 0.53025395 2.206219
00000000: 7cb0 913f a92e a63e 39a6 99bf bcac 36bd
00000010: 3992 d33e 8eaa a4bd 9f59 bb3c 992a 3c3f
00000020: 2d8f b93e c51b 9bbf 78c9 1c40 1413 4e3f
00000030: 5a03 0540 e7bd 713f 5906 c3be 697a 00c0
00000040: e467 a73f e736 1f40 1a12 143f ae47 3f3f
00000050: 531c bfbf a4fe 3abf eecf 2b3e 2b70 78bf
00000060: f84f 443f c108 8bbf fb6d 50bf 9236 57be
00000070: b204 4f3e e293 f7bf ceef 61bf 6fac 96bf
00000080: 83a0 52bf 83ea f0be 43b0 1440 7297 ab3f
00000090: 1c13 48bf a9d0 01bf 5596 9b3b 9f0c aabe
000000a0: 8f6e a1be 1556 3bbf ab08 5abf 01de 47bd
000000b0: ec48 973f 268c 8b3c 8e78 aabe d359 f3bb
000000c0: 7764 4a3f 99de 98bc 506a e8be c6a3 7f3f
000000d0: d866 04bf e6ef 6abe 3cce fdbf ee40 a63d
000000e0: 13cd c8bf c0f8 5dbf 5ada b23f 67c8 f03e
000000f0: 31e0 7d3f 9042 6ebf a081 1e3f e0d2 03c0
00000100: 39f7 ca3f c3de da3e 4716 243f 23db 143f
00000110: f6e8 983f 360f 3abf 5c54 e0bf 2fc5 0cc0
00000120: 8394 1cc0 7f9d b23d d8b6 643f 7517 913f
00000130: ae06 543f 3802 c03f f710 473f a513 193f
00000140: d330 5d3f 230c 43bf 8eb5 cdbe e334 843f
00000150: 6333 c33f 5615 6cbf 7df5 a6bf 0eb2 85bf
00000160: 9925 9e3f ab5f 153f efb4 af3f 2edd ba3e
00000170: 665b 97be 79fc 15bf 819d 9abf d8d6 69bc
00000180: 6de5 09c0 3318 d43e cd3c 633f 5e89 93be
00000190: 529b c43f f511 1ebf dc8a 1e3e 5328 1d3e
000001a0: 36fa e53f 31c7 843f c3df 57bf a176 3ac0
000001b0: 8563 e43f cd5e 45bf a25a c2bf b454 35bf
000001c0: 6e78 9e3d 674b c43e 243e c2bf e54b f2be
000001d0: 988c fd3e 1ceb 11c0 6dfe c0bf ea32 903e
000001e0: 43d8 aa3f 941c 983c d1bb 363e 6d02 dc3f
000001f0: 77a3 85bf 5a21 cc3d 00f3 02bf 1370 28be
00000200: 352d 453f 2cac fd3e f1eb 493f 0c31 5d3e
00000210: 68db 283e da69 373f ec60 9bbe 368f d5bd
00000220: 2d8e 66bf f877 d3bd d3ad 9d3f a9c4 f3bf
00000230: def4 253e d1ae c1be 9bee 003f 1e24 58bf
00000240: 6aea d43e b636 95bf dbe8 f9be a5a7 65bf
00000250: 4010 dc3f 3f5e dabd da85 8cbf ab7f 4d3f
00000260: d4ee 243f f4a7 9f3f 60b1 2b3f ed3c 1cbf
00000270: 15e2 803d 08b9 293f 22de 41bf 01b3 34bf
00000280: 4d77 e8be 6ee7 843f 7e95 a0be 1d00 95bf
00000290: 51ac bcbe c869 353d c2d6 693e 8bc4 e73f
000002a0: f26b 08bf 24f6 e6be 33de 2cbf 412e 03c0
000002b0: 8ee6 743f 40c4 8c3f 3bf7 3abf a6be dc3f
000002c0: 1436 8cbe 9932 5dbf 1b4c 16bf e167 72bf
000002d0: 02fc 26c0 8c99 bc3e 74e9 1fbf b50c 5cbe
000002e0: 8df6 653e 6987 9abd f535 513e 2f5f edbe
000002f0: 3517 0fc0 dbe0 843f 7022 e2be 30d1 87bf
00000300: 628d a2bd 408c 633f 1be1 e4be 2465 1c40
00000310: e569 ccbd 21ef 77be 1233 bdbf df1f 613f
00000320: 67f9 07bf e354 0540 294f 673f f7d7 bbbf
00000330: 947c d93f a972 91bf d68c 23bf 816e 803e
00000340: 95f4 853f 77a9 7dbf d025 393e 875e 823f
00000350: bc1d 243f 92a5 a5bf ba5a 0bc0 8ffa 813f
00000360: 0ea6 5b3f 972f e73f 3947 c2bf 2bc0 33bf
00000370: 5986 983f 2dcc 9bbe 4e66 833c fc0b 3d3f
00000380: 7ab1 4540 d476 cfbf a94e f4be edf9 02bf
00000390: c6aa 11c0 537c a6be 5c63 f93e 1fb4 0fc0
000003a0: 30d4 06bf 3895 b93e 9134 28c0 e2d1 153f
000003b0: aac0 8a3f 3224 53bf 8a68 cabe 6c4b 123f
000003c0: bdbb 40bf fb72 bdbf c906 533f 0685 08bf
000003d0: e805 b53e f950 33be b27b 3d3d 7a2f 623f
000003e0: 73d6 1cbe 427a 2b3f f4dc 9b3f d7d0 623f
000003f0: 1ca3 3cbe 8579 053e b9be 073f b132 0d40

weight_ih f4 [256, 64]
-0.03741536 -0.009211128 0.048449516 0.051841162 -0.024182104 -0.05672004 0.027960131 0.067138605
0.010801862 0.04911247 0.06045186 -0.07484729 -0.017102467 -0.09705463 0.058735903 -0.026514709
-0.015129658 0.06592007 -0.0064778817 0.015694588 0.07613647 0.014690073 0.105087765 0.058742575
0.0914458 -0.053978834 -0.105068445 -0.027896408 0.031393126 0.008743674 0.007037468 0.059378285
0.070880495 0.07091766 -0.026467988 -0.037439108 -0.09937543 -0.11983379 0.050955817 -0.030671144
0.029873798 -0.09926723 0.048344083 -0.0038312871 0.11566261 -0.035988398 -0.038713783 -0.12182776
0.06696085 0.015566853 0.1187678 -0.1376875 -0.020361824 0.08290873 0.048265554 -0.06257769
-0.00999725 0.01835457 0.05089875 0.039787475 -0.09545393 -0.09811162 0.072890855 0.005917331
-0.05619651 -0.053525127 -0.0759814 -0.048654243 -0.020629872 0.0659444 -0.028741289 -0.02421831
-0.027116148 -0.059722867 -0.052684397 -0.09353851 0.017691344 -0.106619045 0.045315318 -0.15838426
0.0098219495 0.009626496 -0.13551779 -0.0860177 -0.08790973 -0.06460376 0.10893882 0.040879846
-0.10195479 0.0007321775 0.027988892 0.08445777 0.08992867 -0.028829036 0.024585567 0.057204593
0.118856035 0.019225048 -0.12730028 -0.040084824 0.054917116 0.13658443 -0.09452769 0.114040405
-0.04250895 -0.01636869 0.08221511 0.12836558 0.069215074 0.054206096 0.08541598 0.0699826
0.09513057 -0.014467873 -0.0924838 -0.007168988 -0.10287218 0.014857853 -0.06665388 -0.13454512
0.07677503 -0.0032161812 -0.1204386 -0.065640755 -0.13255513 0.055400956 0.005021987 -0.0772274
-0.10672356 -0.004425465 -0.026874227 0.13412462 -0.09270218 0.05056571 -0.089182444 0.094957404
0.06017613 -0.04690309 0.0061134878 0.12567791 0.06499376 0.089160256 -0.0890916 0.08209233
-0.061649635 -0.018928284 -0.052505393 -0.06826276 -0.0632105 -0.09519082 0.028217431 0.1252602
0.034586348 0.034483515 0.028609512 -0.17273964 0.07235979 0.09044434 0.09879506 0.008506473
0.062120054 -0.04830009 0.041124802 -0.033954494 -0.083326116 0.030392338 0.097264774 -0.011127345
0.104244106 -0.06479297 -0.12704855 -0.088195466 0.044268005 0.05585731 0.013283139 -0.061394103
-0.00064107997 0.068391554 0.08512039 0.07200267 -0.053740732 0.07382543 -0.024927357 -0.048316423
0.10632269 0.058857955 -0.04503023 -0.07195702 0.028726095 0.003357322 -0.0010810309 0.019428581
0.088568114 0.037476815 -0.10135627 0.09489422 -0.09944589 -0.10080394 0.093449324 0.049429186
0.04664416 0.09746227 0.05735148 -0.052042227 -0.087174125 -0.05741785 0.1326913 0.110032864
-0.014035932 -0.056313783 0.049789056 -0.105409466 -0.11290086 0.17011805 -0.076269306 0.027049944
-0.0121334875 0.03743334 -0.053741664 0.11540553 -0.09208601 -0.065700546 -0.0044036107 0.03998236
-0.033769324 0.10761758 0.07128363 0.13612184 0.06491039 0.11424224 0.043442894 0.0032437276
-0.08709652 -0.03018647 0.07228463 0.02657351 0.03295522 -0.11186628 -0.013489935 0.0010432141
0.03380169 -0.029336354 -0.12213843 -0.043425947 0.09990493 -0.07838583 0.113305084 0.10202493
-0.0817053 0.07611666 -0.060975846 0.04801339 0.033076975 0.063257866 0.09069761 -0.13348532
00000000: d940 19bd 45ea 16bc 0073 463d 6657 543d
00000010: 8c19 c6bc 4653 68bd a50c e53c f77f 893d
00000020: 4bfa 303c 282a 493d 5f9c 773d 8949 99bd
00000030: 791a 8cbc 94c4 c6bd 0f95 703d 6035 d9bc
00000040: 63e2 77bc 1a01 873d 6944 d4bb f091 803c
00000050: 70ed 9b3d a2ae 703c 4138 d73d 0e9c 703d
00000060: f047 bb3d e918 5dbd 202e d7bd 0287 e4bc
00000070: 1496 003d a041 0f3c 8f9a e63b a536 733d
00000080: cb29 913d 473d 913d 65d3 d8bc c059 19bd
00000090: 5885 cbbd 6b6b f5bd 0cb7 503d 0d42 fbbc
000000a0: e5b9 f43c 9e4c cbbd 7204 463d 5516 7bbb
000000b0: 85e0 ec3d 9268 13bd 5892 1ebd d580 f9bd
000000c0: c522 893d 1d0c 7f3c 883c f33d f4fd 0cbe
000000d0: d7cd a6bc 0dcc a93d 1ab2 453d bb28 80bd
000000e0: 81cb 23bc 535c 963c 357b 503d 31f8 223d
000000f0: 5a7d c3bd bfee c8bd cd47 953d 2ce6 c13b
00000100: 502e 66bd 2a3d 5bbd 239c 9bbd ac49 47bd
00000110: faff a8bc dc0d 873d da72 ebbc 7a65 c6bc
00000120: af22 debc f79f 74bd 98cb 57bd 1e91 bfbd
00000130: 70ed 903c 165b dabd 8e9c 393d 7c2f 22be
00000140: 3eec 203c 73b8 1d3c 2dc5 0abe 0c2a b0bd
00000150: 040a b4bd fa4e 84bd 511b df3d a071 273d
00000160: accd d0bd 9aef 3f3a f648 e53c 32f8 ac3d
00000170: 862c b83d df2a ecbc ac67 c93c 5d4f 6a3d
00000180: cb6a f33d d97d 9d3c 015b 02be fc2f 24bd
00000190: c5f0 603d cadc 0b3e bc97 c1bd 048e e93d
000001a0: dd1d 2ebd a217 86bc 6560 a83d 4472 033e
000001b0: a2c0 8d3d 3607 5e3d 93ee ae3d 0a53 8f3d
000001c0: d1d3 c23d a80a 6dbc 2668 bdbd d5e9 eabb
000001d0: a6ae d2bd 5a6e 733c d481 88bd 32c6 09be
000001e0: 3a3c 9d3d 91c6 52bb 83a8 f6bd a96e 86bd
000001f0: 88bc 07be 1dec 623d 7b8f a43b 6629 9ebd
00000200: e291 dabd 7e03 91bb 5727 dcbc f757 093e
00000210: a4da bdbd fd1d 4f3d 49a5 b6bd 0779 c23d
00000220: 3f7b 763d 741d 40bd a753 c83b b6b1 003e
00000230: 731b 853d a799 b63d a875 b6bd 0620 a83d
00000240: 5484 7cbd 7d0f 9bbc e50f 57bd 59cd 8bbd
00000250: 8274 81bd 68f3 c2bd 3e28 e73c 3644 003e
00000260: 6aaa 0d3d 963e 0d3d 7f5e ea3c a9e2 30be
00000270: 5f31 943d e23a b93d 1055 ca3d bc5e 0b3c
00000280: 9971 7e3d 51d6 45bd 7b72 283d de13 0bbd
00000290: e2a6 aabd 5af9 f83c c132 c73d 784f 36bc
000002a0: ef7d d53d 2db2 84bd 0419 02be d39f b4bd
000002b0: 5e52 353d a2ca 643d 86a1 593c 6278 7bbd
000002c0: 260e 28ba df10 8c3d 9953 ae3d 2376 933d
000002d0: 3e1f 5cbd c931 973d 7534 ccbc 71e7 45bd
000002e0: b6bf d93d 0a15 713d 9e71 38bd 345e 93bd
000002f0: fd52 eb3c 8406 5c3b 61b1 8dba b028 9f3c
00000300: 3363 b53d 4a81 193d e093 cfbd e757 c23d
00000310: 49aa cbbd 4c72 cebd 5c62 bf3d 4276 4a3d
00000320: f20d 3f3d 4c9a c73d 63e9 6a3d 3b2a 55bd
00000330: 5988 b2bd fb2e 6bbd 3ae0 073e e958 e13d
00000340: f7f6 65bc 48a9 66bd 9cef 4b3d ebe0 d7bd
00000350: 9138 e7bd 6d33 2e3e 1533 9cbd d897 dd3c
00000360: 89cb 46bc b453 193d 3820 5cbd bc59 ec3d
00000370: 9797 bcbd 028e 86bd 2a4c 90bb 8bc4 233d
00000380: b451 0abd 9b66 dc3d 27fd 913d 8663 0b3e
00000390: bdef 843d d6f7 e93d 2df1 313d b894 543b
000003a0: a95f b2bd 9e49 f7bc f709 943d b1b0 d93c
000003b0: 0efc 063d 261a e5bd e304 5dbc 75bc 883a
000003c0: a473 0a3d cb52 f0bc b723 fabd 68df 31bd
000003d0: f59a cc3d c088 a0bd 7f0c e83d 72f2 d03d
000003e0: 1c55 a7bd 0de3 9b3d cfc1 79bd b0a9 443d
000003f0: b97b 073d 578d 813d abbf b93d 60b0 08be

weight_hh f4 [256, 64]
0.11472765 0.05359003 -0.007956477 0.0736408 -0.013945457 -0.063885495 -0.06860638 0.054131743
0.029366584 0.058824074 0.077285774 0.03621822 -0.015536316 -0.05176082 0.09899027 0.096368566
0.04781532 -0.113198385 0.044997603 0.01978937 -0.120843224 0.009897829 -0.010018191 -0.061974578
0.08106213 0.11005136 -0.10820097 -0.053050462 -0.05703034 0.002962415 -0.099042185 -0.02696937
-0.030289464 -0.060168594 0.0656564 -0.023475327 0.088799335 0.11034225 0.027207268 -0.032706983
-0.11972992 0.02424598 0.094413236 -0.008898286 -0.03970442 -0.027129868 0.048006188 -0.091973595
-0.028598392 0.055253796 0.037072003 -0.14386618 0.10791837 -0.10454585 -0.07554837 0.059414506
-0.051065747 -0.023529828 -0.04413931 0.054509584 -0.060045235 0.042387556 0.018241802 0.09405625
-0.0016407265 0.033659663 0.059360154 0.058141157 0.021956662 0.04808015 0.008827918 -0.07092875
0.047643542 -0.025291298 -0.13211489 -0.056646205 0.14751092 0.076502025 0.054726392 -0.036930144
0.03128691 -0.09831622 0.12546946 -0.04526243 -0.026399378 -0.118337005 -0.030314827 0.07045634
0.05639026 0.07361304 0.08644554 -0.073035076 0.050867185 0.06729653 -0.07180573 0.00944667
0.091158584 -0.054679785 0.008592011 -0.08994368 0.004163173 -0.016805442 -0.009930983 -0.0992199
0.1026168 0.062023263 -0.059695274 0.14116076 -0.059322093 0.047764 -0.11954481 2.1292653e-05
-0.10527657 -0.09187124 -0.059100404 0.042933945 0.025488416 -0.06798305 -0.026495343 0.11053246
-0.06677482 0.02542693 0.10377355 -0.095479175 0.1604824 0.07189226 0.0008738793 -0.085236564
-0.12628803 -0.07754808 0.09886692 -0.026906785 0.10470849 0.07166829 0.06737993 0.044992514
-0.08546294 -0.12598108 0.0052333702 -0.115785286 0.0034442716 -0.14689039 -0.0840931 0.010359007
-0.06494051 0.099037126 -0.011791714 -0.065384336 0.102096975 -0.07518777 -0.05588244 0.09740186
-0.12169559 0.044764392 -0.12492594 -0.084960535 -0.008642784 -0.09391665 0.030845812 0.097220175
0.09241505 0.052381217 0.05051038 -0.014402854 0.14662959 -0.02284764 0.08112812 0.13839024
-0.02093093 -0.03128522 0.046871755 -0.010556087 0.08196571 0.044930972 0.011157889 -0.02774669
0.05684794 -0.12166045 0.021789966 -0.010279716 0.03106551 -0.063211925 -0.005654167 -0.04574817
-0.09338638 -0.0025453374 0.055188205 0.07159936 -0.143592 -0.08262852 0.075888954 0.014847608
0.033230886 -0.090206325 0.10729708 -0.07916491 0.06430476 0.018328756 0.11672363 0.042499505
0.12478825 -0.02035117 0.00045622524 -0.05277855 -0.091559 -0.059215702 0.16638888 0.09876416
-0.047074374 0.094836675 -0.029419681 0.10344533 0.05255569 -0.042834748 -0.0979951 -0.029417692
0.072227746 -0.0407298 0.052571833 -0.058700535 -0.09676201 -0.050733227 -0.0023211893 -0.094965205
-0.05504539 -0.07901017 0.032006588 -0.08726172 -0.017396003 0.012180216 -0.07973213 0.080503516
-0.083906926 0.026046397 0.02905578 -0.042435408 -0.08227159 -0.015304618 0.048483074 0.009798638
-0.0765995 -0.017512111 -0.10892463 -0.033958524 0.046659533 0.111674 0.14355686 0.12116766
-0.06999469 0.034607183 -0.17476931 -0.016660675 -0.032720782 0.06529317 -0.10190302 0.07315227
00000000: 55f6 ea3d 3881 5b3d e25b 02bc fdd0 963d
00000010: 7c7b 64bc 66d6 82bd 8081 8cbd 3fb9 5d3d
00000020: 3192 f03c 83f1 703d 0148 9e3d 8e59 143d
00000030: 088c 7ebc 2703 54bd 69bb ca3d e25c c53d
00000040: ffd9 433d 8ed4 e7bd 684f 383d 511d a23c
00000050: a77c f7bd 812a 223c 5723 24bc 0ed9 7dbd
00000060: e703 a63d 9c62 e13d 7898 ddbd 714b 59bd
00000070: a598 69bd 1425 423b a1d6 cabd deee dcbc
00000080: 9c21 f8bc 5873 76bd dd76 863d 544f c0bc
00000090: 6ddc b53d 1efb e13d c7e1 de3c c2f7 05bd
000000a0: f634 f5bd 819f c63c ba5b c13d 1eca 11bc
000000b0: 1aa1 22bd 753f debc 23a2 443d a75c bcbd
000000c0: 2d47 eabc ce51 623d d0d8 173d a851 13be
000000d0: 4e04 dd3d 221c d6bd 1bb9 9abd a05c 733d
000000e0: 512a 51bd a0c1 c0bc 6ccb 34bd 7145 5f3d
000000f0: fef1 75bd 939e 2d3d d56f 953c 90a0 c03d
00000100: a50d d7ba b7de 093d a223 733d 6c25 6e3d
00000110: 75de b33c b1ef 443d f9a2 103c 1843 91bd
00000120: e025 433d b22f cfbc 2049 07be da05 68bd
00000130: 1a0d 173e 18ad 9c3d c828 603d 1044 17bd
00000140: b426 003d 045a c9bd 117b 003e 1965 39bd
00000150: 8243 d8bc ac5a f2bd cd56 f8bc 6a4b 903d
00000160: 79f9 663d 6fc2 963d 5c0a b13d 6a93 95bd
00000170: 1c5a 503d c3d2 893d e20e 93bd 35c6 1a3c
00000180: 5ab1 ba3d e9f7 5fbd 82c5 0c3c 6434 b8bd
00000190: 3a6b 883b 91ab 89bc 90b5 22bc ce33 cbbd
000001a0: c228 d23d 1b0c 7e3d 0883 74bd 728c 103e
000001b0: b9fb 72bd 2fa4 433d e9d3 f4bd a09d b237
000001c0: 3e9b d7bd fd26 bcbd 4413 72bd 81db 2f3d
000001d0: 15cd d03c b33a 8bbd c30c d9bc d85e e23d
000001e0: 3dc1 88bd 234c d03c 3a87 d43d 968a c3bd
000001f0: 8055 243e 403c 933d 0c15 653a 8290 aebd
00000200: a651 01be 87d1 9ebd bd7a ca3d 9e6b dcbc
00000210: 6871 d63d d3c6 923d 7dfe 893d 124a 383d
00000220: 3207 afbd 2f01 01be b17c ab3b d620 edbd
00000230: 4ab9 613b 6f6a 16be 0139 acbd d3b8 293c
00000240: 88ff 84bd fad3 ca3d 0832 41bc 39e8 85bd
00000250: 3818 d13d 0cfc 99bd fce4 64bd a07a c73d
00000260: 8a3b f9bd de5a 373d 2cd9 ffbd caff adbd
00000270: 779a 0dbc 5f57 c0bd 5bb0 fc3c 5f1b c73d
00000280: 1a44 bd3d b08d 563d f9e3 4e3d f3f9 6bbc
00000290: 1126 163e f92a bbbc 8026 a63d 2cb6 0d3e
000002a0: 5777 abbc ee24 00bd 99fc 3f3d 70f3 2cbc
000002b0: a3dd a73d 8a09 383d 94cf 363c 074d e3bc
000002c0: 63d9 683d 1d29 f9bd df80 b23c 416c 28bc
000002d0: 197d fe3c 4175 81bd 9746 b9bb 6f62 3bbd
000002e0: 5c41 bfbd adcf 26bb 070d 623d afa2 923d
000002f0: c809 13be 2439 a9bd ab6b 9b3d 6243 733c
00000300: 1c1d 083d 18be b8bd 92be db3d 3621 a2bd
00000310: 37b2 833d 3026 963c cc0c ef3d f613 2e3d
00000320: fb90 ff3d 7fb7 a6bc 8431 ef39 522e 58bd
00000330: 4983 bbbd 2a8c 72bd d961 2a3e dd44 ca3d
00000340: 0fd1 40bd bb39 c23d 8b01 f1bc 25db d33d
00000350: a344 573d 7d73 2fbd a8b1 c8bd 5ffd f0bc
00000360: 24ec 933d 4ad4 26bd 9055 573d f96f 70bd
00000370: 292b c6bd a5cd 4fbd 181f 18bb 1e7d c2bd
00000380: 4677 61bd 16d0 a1bd 5719 033d 46b6 b2bd
00000390: 1082 8ebc 878f 473c 994a a3bd 07df a43d
000003a0: 65d7 abbd 415f d53c 6306 ee3c c0d0 2dbd
000003b0: 027e a8bd 38c0 7abc 3096 463d 778a 203c
000003c0: 33e0 9cbd 8f75 8fbc e013 dfbd 1818 0bbd
000003d0: 111e 3f3d 57b5 e43d 9200 133e c026 f83d
000003e0: 6059 8fbd 43c0 0d3d baf6 32be f87b 88bc
000003f0: 3a06 06bd 6db8 853d 88b2 d0bd dbd0 953d

bias_ih f4 [256]
0.004698585 -0.013192656 0.099328294 0.11456612 -0.054591108 0.14748488 0.05976965 0.030899249
0.11618158 -0.09859994 0.021232637 -0.06522336 -0.026518986 0.14858447 0.08687934 0.005611764
0.07439307 -0.10386288 0.0049748374 -0.0015306708 -0.03729234 -0.07134578 -0.047218636 -0.003647959
0.12440361 -0.031278145 -0.084917665 -0.06388522 0.058490384 -0.044479534 -0.021495866 0.0124529945
0.14161712 0.016138235 0.0729337 0.0389212 0.098641224 0.008374131 0.05251439 -0.06640336
0.095480934 0.0618263 0.085101865 0.023462363 -0.055364113 0.028353387 -0.08609482 -0.001319179
0.032660585 0.078093275 -0.10154862 0.124609835 -0.0471867 0.04091672 -0.030884912 -0.0584169
0.13020961 -0.08130385 -0.07644913 0.10531278 0.15049179 -0.060909305 -0.04421268 -0.09209046
0.03500712 0.04376676 -0.08683794 -0.022449793 -0.0011958142 -0.06141728 0.030550793 0.017985603
0.12729323 -0.12613663 -0.03394674 0.06952573 0.015978042 0.13144238 0.12365664 0.10333124
-0.01044081 -0.08065158 -0.0031259328 -0.079948045 -0.05797639 -0.046641115 0.08316128 0.055190604
0.07472204 0.07208171 -0.08585016 0.036681376 -0.020417247 -0.012472545 -0.05166509 0.056392077
-0.056647606 0.09782758 -0.11149559 -0.13638015 0.113396466 0.019577421 0.08739678 -0.02776911
-0.0062157386 0.015473162 0.1120304 0.11951012 -0.025479296 -0.11952735 -0.085672505 -0.07473997
0.09219968 0.114841506 -0.056055434 -0.0013221467 -0.040496632 0.017977394 -0.032982226 0.043703467
0.037352186 -0.032212786 -0.06506391 -0.06752536 0.054401558 0.0025383844 0.0499396 0.09581535
0.11239152 0.08368719 -0.069889516 0.027477715 -0.01619205 0.032185484 -0.07053932 0.0999923
0.06664984 -0.0629279 -0.08175297 0.087741464 0.04980938 -0.13093206 0.07597291 0.018312957
-0.03230104 0.017472275 0.12237798 -0.023404151 0.097215936 -0.02935038 0.013079025 0.01931221
-0.052092213 -0.03609748 0.08959628 -0.13312174 0.03049646 -0.14624755 0.05919938 -0.009915932
0.060534984 0.118804626 0.13143973 0.099488854 0.05775729 -0.1102683 -0.09950861 0.09666215
-0.026590632 -0.023229863 0.010370953 0.07936261 0.07077802 0.051622376 0.11017314 -0.036223974
0.106324166 -0.093277566 -0.06040622 0.0062001403 0.05338037 0.085146114 0.10057184 -0.11634219
0.06813289 -0.06995667 0.03217877 -0.09191474 -0.01604862 0.018727211 0.06274394 0.03457669
0.095248826 -0.07916627 0.07365541 -0.054167982 0.0073826085 -0.0006047545 -0.02837371 0.08259212
0.032723803 -0.12355285 0.103308514 -0.023351477 -0.020313954 -0.031871647 -0.07153595 -0.07499661
0.005915804 0.13651858 0.09070815 0.027558161 -0.017867977 0.0411564 0.08659039 -0.10593186
0.02409519 -0.07973492 0.0509518 -0.022165569 0.113433465 0.057832602 0.026632441 0.07274559
0.05526141 -0.08259312 -0.10087893 -0.058060843 0.13214633 -0.057976823 0.0410438 -0.056885645
-0.07334011 0.080731824 0.068540335 -0.08939412 -0.02744809 -0.0445903 -0.01588869 -0.041878924
-0.063777514 -0.037744906 -0.03382453 0.12339804 -0.10770206 -0.07608997 0.026250543 0.12616333
0.07948264 0.031626742 -0.057314504 -0.083693266 0.006711863 -0.10691795 0.11668067 -0.08907563
00000000: 96f6 993b 0326 58bc a26c cb3d a4a1 ea3d
00000010: ed9a 5fbd 4706 173e 05d1 743d 6c20 fd3c
00000020: 9cf0 ed3d c4ee c9bd 11f0 ad3c d393 85bd
00000030: 583e d9bc 8726 183e cced b13d e3e2 b73b
00000040: 655b 983d 10b6 d4bd f603 a33b caa0 c8ba
00000050: dabf 18bd bc1d 92bd 5468 41bd 9912 6fbb
00000060: 52c7 fe3d 831d 00bd 50e9 adbd 41d6 82bd
00000070: 9d93 6f3d 2c30 36bd 1918 b0bc a507 4c3c
00000080: 1404 113e 5534 843c 445e 953d d66b 1f3d
00000090: 6904 ca3d a733 093c 5419 573d 7cfe 87bd
000000a0: 828b c33d 933d 7d3d e349 ae3d 2434 c03c
000000b0: 7bc5 62bd 5d45 e83c 7b52 b0bd 4de8 acba
000000c0: 1bc7 053d 5eef 9f3d b9f8 cfbd 7133 ff3d
000000d0: d746 41bd 4a98 273d 5b02 fdbc 8f46 6fbd
000000e0: ab55 053e a282 a6bd 5d91 9cbd 3aae d73d
000000f0: 851a 1a3e 097c 79bd 5b18 35bd ec99 bcbd
00000100: a063 0f3d c644 333d 17d8 b1bd a1e8 b7bc
00000110: debc 9cba b090 7bbd a845 fa3c 8b56 933c
00000120: 2859 023e f629 01be bd0b 0bbd 8263 8e3d
00000130: 62e4 823c d598 063e b13f fd3d 549f d33d
00000140: ee0f 2bbc a82c a5bd 73dc 4cbb cdbb a3bd
00000150: a778 6dbd c10a 3fbd 7650 aa3d 8b0f 623d
00000160: de07 993d 939f 933d 35d2 afbd 363f 163d
00000170: 1242 a7bc a559 4cbc c69e 53bd 61fb 663d
00000180: 5207 68bd d459 c83d cd57 e4bd 3da7 0bbe
00000190: 683c e83d d460 a03c 15fd b23d 0b7c e3bc
000001a0: 65ad cbbb 2583 7d3c 3270 e53d b9c1 f43d
000001b0: f5b9 d0bc c1ca f4bd 1175 afbd 4511 99bd
000001c0: 30d3 bc3d 0632 eb3d 629a 65bd e24b adba
000001d0: ccdf 25bd 5445 933c 5f18 07bd 6802 333d
000001e0: 9bfe 183d 8ef1 03bd 3a40 85bd bc4a 8abd
000001f0: 2bd4 5e3d 065b 263b 778d 4c3d d73a c43d
00000200: 862d e63d 3164 ab3d 3c22 8fbd f218 e13c
00000210: 31a5 84bc edd4 033d eb76 90bd c3c8 cc3d
00000220: b67f 883d 58e0 80bd 1a6e a7bd ccb1 b33d
00000230: ec04 4c3d 0e13 06be af97 9b3d 0e05 963c
00000240: 184e 04bd 0422 8f3c 4ea1 fa3d 10ba bfbc
00000250: 2619 c73d 3570 f0bc 6849 563c a434 9e3c
00000260: a55e 55bd f4da 13bd 417e b73d 1151 08be
00000270: b6d3 f93c ebc1 15be 0d7b 723d 6f76 22bc
00000280: 88f3 773d d74f f33d 2398 063e d0c0 cb3d
00000290: e892 6c3d 59d4 e1bd 2ccb cbbd cef6 c53d
000002a0: 99d4 d9bc 8e4c bebc eeea 293c dd88 a23d
000002b0: 11f4 903d fc71 533d 75a2 e13d 975f 14bd
000002c0: 7cc0 d93d 4f08 bfbd 836c 77bd 8c2a cb3b
000002d0: 60a5 5a3d 1661 ae3d 9cf8 cd3d d044 eebd
000002e0: 4289 8b3d 7145 8fbd e3cd 033d cc3d bcbd
000002f0: 6578 83bc cf69 993c e57f 803d 4aa0 0d3d
00000300: d111 c33d ed21 a2bd a6d8 963d 3fdf 5dbd
00000310: cfe9 f13b 6388 1eba fc6f e8bc 0f26 a93d
00000320: 6509 063d 4709 fdbd 6a93 d33d 994b bfbc
00000330: 7369 a6bc d88b 02bd 7181 92bd d397 99bd
00000340: 5cd9 c13b 87cb 0b3e 32c5 b93d a7c1 e13c
00000350: dd5f 92bc 9d93 283d 4d56 b13d cef2 d8bd
00000360: 4763 c53c 104c a3bd d6b2 503d 9194 b5bc
00000370: ce4f e83d e1e1 6c3d 472c da3c a4fb 943d
00000380: ca59 623d 9526 a9bd 9d99 cebd 35d1 6dbd
00000390: 5e51 073e 1b79 6dbd 8b1d 283d ec00 69bd
000003a0: 5733 96bd ba56 a53d e05e 8c3d 4414 b7bd
000003b0: d1da e0bc 52a4 36bd ff28 82bc 3c89 2bbd
000003c0: c99d 82bd 679a 1abd 978b 0abd 1db8 fc3d
000003d0: e692 dcbd 0fd5 9bbd 610b d73c f630 013e
000003e0: cbc7 a23d 0b8b 013d 9dc2 6abd 6067 abbd
000003f0: 30ef db3b ccf7 dabd 46f6 ee3d 496d b6bd

bias_hh f4 [256]
-0.016438436 0.027187778 -0.086114496 -0.04687219 -0.046331637 0.100932494 -0.0044913352 -0.088697344
-0.05410445 -0.0004206121 -0.03711997 0.005867106 0.11796942 0.13283329 0.046918258 0.04544998
-0.02329692 0.029822271 -0.010026838 0.11025148 -0.05139213 0.06071889 0.10988338 0.057015102
0.13142186 -0.018543521 -0.035091322 0.009877323 0.07444309 0.06849241 -0.058108304 0.08506336
0.13606879 -0.052448016 0.123416476 0.1131901 -0.055470563 0.049944058 0.105663165 0.045208078
0.0710791 -0.08815098 0.15186629 0.014119825 0.08854978 0.008226473 -0.0036270516 0.048983704
-0.090767 0.008032424 -0.008817073 -0.09105317 0.07689661 -0.09043436 0.15138634 0.11474564
-0.061060358 -0.096729055 0.03072866 -0.0828491 0.039305583 -0.1232963 -0.072146915 -0.0532243
0.06082296 -0.024035316 -0.07039467 0.10190684 -0.08971662 0.08529302 -0.0050949533 -0.12728459
-0.026818844 -0.08832563 0.053405773 -0.02495062 -0.08059243 0.008376882 0.098053135 -0.070433006
0.07016611 -0.028163921 -0.108173706 -0.065899394 0.0380452 -0.07473753 0.062046804 0.13425949
0.124570474 -0.02444136 -0.0752277 -0.03362191 -0.04977896 -0.04333826 0.03883161 0.0932177
-0.029950747 -0.09549011 -0.06938072 -0.06685369 0.14606656 0.026738696 0.0034937945 0.054296743
0.053109687 0.062046934 0.1206235 -0.07103155 0.016533742 0.0070169056 0.0039371094 0.06636862
0.043160666 0.015189903 0.09945048 -0.0042383643 0.08717686 0.10087957 0.06586586 -0.045366913
0.025331434 -0.08687349 0.0126682175 0.06874789 -0.047228348 0.05595548 0.0954851 0.0025450683
-0.121828206 0.08088763 -0.024520596 0.08043165 -0.08355719 -0.13056645 0.08006308 0.054894757
0.09496895 -0.12211584 0.0137193715 -0.12478656 0.067169376 -0.12745555 0.037941303 -0.042000365
-0.049721293 -0.08868829 -0.07879254 -0.037567955 0.04595051 -0.12418507 0.0916857 0.052058898
-0.13194376 -0.08991778 0.027507111 0.06666204 -0.100282006 -0.07110538 -0.05670571 -0.1099302
0.11354734 -0.023330117 0.12704957 -0.019790152 0.05557213 -0.13069354 0.08558239 0.011542054
0.04780045 0.098502636 -0.09465576 0.027894642 -0.014609245 0.051988333 -0.0077713504 0.115754105
0.134536 0.0902505 -0.13146959 0.093900554 -0.12758954 0.08003257 -0.067859925 -0.04654265
0.13397215 -0.011335306 0.08609621 0.07910201 0.0054547945 -0.1187372 -0.09050634 -0.077500746
0.058165435 -0.08156446 0.0018432321 0.10573076 0.045017358 -0.050317492 -0.098676205 0.117470734
0.076589234 -0.01995154 0.037830446 0.058319487 0.045891743 0.13712901 -0.09101052 0.005243092
0.055293486 -0.0035280427 0.008789711 -0.06506421 -0.06084026 0.1393891 0.019214537 -0.09163
0.010130486 -0.0051489314 0.09120812 -0.0016603586 -0.07049379 0.08505067 0.009853589 -0.02549801
-0.0266946 -0.06848005 0.0026013837 0.12327214 -0.020635342 -0.054540996 -0.06331519 0.011286623
0.00092972215 -0.09002116 0.116109155 0.0325104 0.104465105 0.06654993 0.015846707 -0.11479514
0.038402725 0.048127186 0.06526792 -0.074186854 0.06766255 -0.04089613 0.08306054 -0.009306808
-0.037420314 -0.122930475 0.111554466 -0.056906093 0.038819373 0.10417953 -0.024847526 -0.08430771
00000000: e6a9 86bc e7b8 de3c cc5c b0bd 0efd 3fbd
00000010: 3ec6 3dbd b2b5 ce3d 0d2c 93bb f4a6 b5bd
00000020: a19c 5dbd 9a85 dcb9 1c0b 18bd da40 c03b
00000030: f499 f13d 7305 083e 5c2d 403d c229 3a3d
00000040: 2fd9 bebc d64d f43c 9b47 24bc 87cb e13d
00000050: 8e80 52bd 5fb4 783d 8a0a e13d ab88 693d
00000060: 7493 063e 95e8 97bc ebbb 0fbd 7fd4 213c
00000070: 9e75 983d c045 8c3d f902 6ebd b335 ae3d
00000080: 9e55 0b3e bbd3 56bd c7c1 fc3d 36d0 e73d
00000090: 1a35 63bd 2492 4c3d ee65 d83d 1b2c 393d
000000a0: eb91 913d 8088 b4bd d682 1b3e d756 673c
000000b0: 9659 b53d 54c8 063c d4b3 6dbb 23a3 483d
000000c0: 0de4 b9bd 6e9a 033c 7c75 10bc 167a babd
000000d0: f87b 9d3d a635 b9bd 0505 1b3e c3ff ea3d
000000e0: 6d1a 7abd e219 c6bd acba fb3c caac a9bd
000000f0: e4fe 203d c582 fcbd c3c1 93bd b901 5abd
00000100: 7f21 793d b6e5 c4bc 152b 90bd 89b4 d03d
00000110: 59bd b7bd 1bae ae3d 91f3 a6bb e456 02be
00000120: 31b3 dbbc 11e4 b4bd 03c0 5a3d 3e65 ccbc
00000130: a50d a5bd 313f 093c 15d0 c83d 2e3f 90bd
00000140: 40b3 8f3d 06b8 e6bc 2d8a ddbd 43f6 86bd
00000150: 49d5 1b3d fd0f 99bd ca24 7e3d 527b 093e
00000160: ce1e ff3d 3f39 c8bc fb10 9abd 21b7 09bd
00000170: 06e5 4bbd 7683 31bd e50d 1f3d ece8 be3d
00000180: 455b f5bc 5290 c3bd 7b17 8ebd 96ea 88bd
00000190: 7992 153e 1c0b db3c 25f8 643b 4366 5e3d
000001a0: 8b89 593d ed24 7e3d 7409 f73d fd78 91bd
000001b0: c571 873c 12ee e53b de02 813b 45ec 873d
000001c0: 3dc9 303d 12df 783c b1ac cb3d fae1 8abb
000001d0: c889 b23d f399 ce3d aee4 863d a8d2 39bd
000001e0: de83 cf3c baea b1bd 5b8e 4f3c b2cb 8c3d
000001f0: 8372 41bd 9331 653d b18d c33d 29cb 263b
00000200: 1181 f9bd 6aa8 a53d 6bdf c8bc 59b9 a43d
00000210: 0820 abbd 36b3 05be 1df8 a33d 53d9 603d
00000220: 157f c23d df17 fabd 37c7 603c 1990 ffbd
00000230: 1990 893d b583 02be 5768 1b3d 9308 2cbd
00000240: 8ea8 4bbd 35a2 b5bd fc5d a1bd dbe0 19bd
00000250: 9a36 3c3d be54 febd b6c5 bb3d b63b 553d
00000260: 441c 07be d026 b8bd 9856 e13c 1c86 883d
00000270: a760 cdbd b39f 91bd 3f44 68bd 1623 e1bd
00000280: 828b e83d cd1e bfbc 4819 023e f51e a2bc
00000290: 9a9f 633d 87d4 05be d245 af3d e21a 3d3c
000002a0: 68ca 433d c0bb c93d e1da c1bd 4e83 e43c
000002b0: 9d5b 6fbc b8f1 543d d0a6 febb 7d10 ed3d
000002c0: cec3 093e 41d5 b83d f79f 06be ef4e c03d
000002d0: d5a6 02be 1ee8 a33d 25fa 8abd 81a3 3ebd
000002e0: ff2f 093e b8b7 39bc 3653 b03d 3c00 a23d
000002f0: 22be b23b 7d2c f3bd 635b b9bd b6b8 9ebd
00000300: e13e 6e3d 450b a7bd 9b98 f13a 5e89 d83d
00000310: 1f64 383d b719 4ebd c016 cabd 7f94 f03d
00000320: d1da 9c3d 6971 a3bc 19f4 1a3d 6ae0 6e3d
00000330: fbf8 3b3d 8c6b 0c3e b963 babd 3ece ab3b
00000340: 6c7b 623d bc36 67bb b802 103c 6240 85bd
00000350: a333 79bd 04bc 0e3e ce67 9d3c 82a8 bbbd
00000360: 57fa 253c 5eb8 a8bb 53cb ba3d 64a0 d9ba
00000370: 0c5f 90bd 0c2f ae3d f370 213c 34e1 d0bc
00000380: a2ae dabc 453f 8cbd fa7b 2a3b 1b76 fc3d
00000390: 730b a9bc 6166 5fbd 65ab 81bd 87eb 383c
000003a0: 99b8 733a 045d b8bd a3ca ed3d a029 053d
000003b0: cdf1 d53d 544b 883d f4d0 813c b719 ebbd
000003c0: 2d4c 1d3d 0321 453d 30ab 853d 47ef 97bd
000003d0: aa92 8a3d b382 27bd a51b aa3d 957b 18bc
000003e0: 0b46 19bd f9c2 fbbd ab76 e43d 5d16 69bd
000003f0: 1001 1f3d 145c d53d 0a8d cbbc 85a9 acbd

weight f4 [64, 128]
0.059869424 0.05980471 0.04198676 0.03312226 0.00053943275 0.062287737 -0.030884653 -0.053041313
0.021208474 -0.021997144 -0.06371115 -0.09730901 0.015101093 -0.119811885 0.09140867 -0.0430785
-0.044453256 -0.025770461 0.026708271 -0.046124637 -0.05838268 -0.010228921 -0.011560041 -0.071264565
0.043429654 -0.0906234 0.063663095 0.051728774 0.06209767 -0.0452291 -0.074499376 0.06721816
0.09635946 0.06492194 0.040116265 -0.08467793 0.014626593 -0.10518136 -0.08166828 -0.014700337
-0.07383184 -0.084861726 -0.0026187792 -0.003942371 -0.011821493 0.043024052 0.07654974 0.016192948
0.08220663 -0.06295347 -0.036972553 -0.03024344 0.032711916 -0.03799891 0.083882675 -0.035323165
-0.044182308 0.034276675 0.02897835 0.050591454 0.012627403 -0.09506004 0.021345748 0.066857845
-0.08115835 -0.038808264 -0.10563029 0.012300892 -0.114199795 -0.048434116 0.09638212 0.028676301
0.05957327 0.042533986 -0.03648556 -0.0006208173 0.081609376 -0.09058948 -0.008461024 -0.07351502
0.016317055 0.030474944 0.06418468 -0.0018077719 -0.06390726 0.013957193 -0.037178338 -0.03430211
-0.008871284 -0.08607838 -0.033279695 -0.10727362 -0.014289676 -0.07965164 -0.023452932 0.0030931646
0.07386101 -0.056382425 0.06624262 0.010997025 0.092152596 -0.044086363 -0.042528007 -0.01555548
0.030890675 0.02156121 -0.029961322 0.0069964887 -0.05896777 -0.036503244 0.090558216 -0.017246818
0.043780223 -0.048909325 -0.06036378 0.05188476 0.029062781 -0.06459406 0.0713604 0.0009319573
0.10349634 0.070946544 0.07234706 0.0008761793 0.03986138 -0.0029197298 -0.05931799 0.010233547
-0.0048227175 -0.011644477 0.059141804 -0.07552955 0.028074434 0.038337674 -0.08128969 -0.048208073
-0.085294425 0.061667483 0.0023728926 -0.026334086 0.01367748 0.08431307 0.0054703 -0.050050627
0.04798674 -0.04697816 0.093842745 0.00094756356 -0.05694003 0.100569725 -0.044265777 0.051010966
0.11599824 -0.034271516 -0.006883676 0.0021422892 -0.052192055 -0.03950021 -0.03523334 0.043282434
-0.05130805 0.005735384 -0.03738005 -0.014863402 -0.110646956 0.0998722 0.08258059 -0.05408681
-0.011904581 -0.016278645 -0.015059502 -0.012044546 0.0660758 -0.040045343 -0.052189805 -0.08711247
-0.068391025 0.08191418 -0.017224755 -0.07864617 -0.07198388 -0.06232774 0.042589005 0.0889732
-0.1054825 -0.06867434 0.101386264 0.07202618 0.039603025 0.055693682 0.09398423 0.056417897
-0.022924548 -0.08630041 0.04932811 -0.028509839 0.05555234 -0.04627798 -0.056399457 0.05287861
-0.021805877 0.04629474 -0.010710387 0.06403484 0.06185409 0.08424238 0.002693068 0.027087929
-0.030070709 0.08211417 -0.056571398 -0.07161934 -0.0057768608 -0.028974127 -0.07003061 -0.09222958
0.044494927 0.009851991 -0.0759421 0.115739584 -0.106277294 0.032368526 0.012172309 -0.056172725
-0.054828487 -0.052246086 0.003010476 -0.054982617 -0.068643816 0.09718569 -0.010683129 -0.100920826
0.10211243 0.10836973 0.10495887 -0.061106443 -0.055381 0.055968568 -0.024557076 -0.0861489
0.03159676 0.07534562 0.095311284 -0.086580195 0.01092942 0.063903056 0.009739897 -0.076795645
-0.1168527 0.049959317 -0.036709495 0.07982916 0.024558002 0.048505913 0.078150705 -0.074232146
00000000: a439 753d c9f5 743d 4ffa 2b3d 35ab 073d
00000010: b868 0d3a 6d21 7f3d d001 fdbc d941 59bd
00000020: 65bd ad3c 5b33 b4bc fe7a 82bd f249 c7bd
00000030: 936a 773c ef5f f5bd 7834 bb3d 1573 30bd
00000040: 9e14 36bd 931c d3bc 4ecb da3c 30ed 3cbd
00000050: ad22 6fbd 3497 27bc 5466 3dbc 28f3 91bd
00000060: 4be3 313d c398 b9bd cc61 823d 8de1 533d
00000070: 205a 7e3d 2642 39bd 2193 98bd ada9 893d
00000080: 1c58 c53d cbf5 843d f450 243d 9f6b adbd
00000090: 61a4 6f3c 5369 d7bd b341 a7bd afd9 70bc
000000a0: 2635 97bd fccb adbd d39f 2bbb 012f 81bb
000000b0: efae 41bc fd39 303d 1cc6 9c3d 13a7 843c
000000c0: f35b a83d c0ed 80bd 8870 17bd 17c1 f7bc
000000d0: eefc 053d bfa4 1bbd aeca ab3d 06af 10bd
000000e0: 82f8 34bd b365 0c3d 0164 ed3c fc38 4f3d
000000f0: 2be3 4e3c d7ae c2bd 47dd ae3c c4ec 883d
00000100: 5936 a6bd 6af5 1ebd b254 d8bd ae89 493c
00000110: 95e1 e9bd da62 46bd fd63 c53d 90ea ea3c
00000120: 1a03 743d 1e38 2e3d e271 15bd 58be 22ba
00000130: d122 a73d fa86 b9bd 1ba0 0abc 0b8f 96bd
00000140: 58ab 853c 97a6 f93c 4273 833d c2f2 ecba
00000150: cfe1 82bd b6ac 643c 5048 18bd 5f80 0cbd
00000160: dd58 11bc dd49 b0bd 4a50 08bd 46b2 dbbd
00000170: 3f1f 6abc 6620 a3bd 5d20 c0bc b1b6 4a3b
00000180: 7144 973d 42f1 66bd 36aa 873d de2c 343c
00000190: 80ba bc3d e793 34bd d931 2ebd 69dc 7ebc
000001a0: 710e fd3c 22a1 b03c 7271 f5bc cd42 e53b
000001b0: 3088 71bd 6d84 15bd 9676 b93d 3349 8dbc
000001c0: e452 333d 2555 48bd 0340 77bd 1d85 543d
000001d0: 1215 ee3c e449 84bd 6725 923d 984e 743a
000001e0: e4f5 d33d 6c4c 913d b22a 943d 66af 653a
000001f0: b045 233d f058 3fbb 6cf7 72bd 9baa 273c
00000200: e307 9ebb 7ac8 3ebc ad3e 723d 3daf 9abd
00000210: 5bfc e53c f707 1d3d 367b a6bd d475 45bd
00000220: d8ae aebd 0b97 7c3d 8882 1b3b 95ba d7bc
00000230: 8217 603c 55ac ac3d 3440 b33b e301 4dbd
00000240: be8d 443d 2c6c 40bd a030 c03d ea65 783a
00000250: f339 69bd 80f7 cd3d 0850 35bd e0f0 503d
00000260: 7c90 ed3d 4a60 0cbd 7690 e1bb a665 0c3b
00000270: 56c7 55bd f9ca 21bd d650 10bd ec48 313d
00000280: 6428 52bd e3ef bb3b d31b 19bd a085 73bc
00000290: df9a e2bd cc89 cc3d 0320 a93d 228a 5dbd
000002a0: 6f0b 43bc cb5a 85bc 21bc 76bc 7d56 45bc
000002b0: c052 873d 9606 24bd fac4 55bd 0668 b2bd
000002c0: 9810 8cbd 9fc2 a73d ee1a 8dbc 3e11 a1bd
000002d0: 496c 93bd 5f4b 7fbd cf71 2e3d 9537 b63d
000002e0: 3507 d8bd 22a5 8cbd 9aa3 cf3d 7682 933d
000002f0: c836 223d 0f1f 643d ce7a c03d 7416 673d
00000300: 43cc bbbc 45be b0bd 460c 4a3d 778d e9bc
00000310: da8a 633d fb8d 3dbd 1e03 67bd 3e97 583d
00000320: 3da2 b2bc 8e9f 3d3d 9e7a 2fbc b324 833d
00000330: b75a 7d3d 4587 ac3d 2f7e 303b 81e7 dd3c
00000340: d956 f6bc 792b a83d 69b7 67bd 29ad 92bd
00000350: d24b bdbb 265b edbc 356c 8fbd dde2 bcbd
00000360: 5040 363d 3f6a 213c 8887 9bbd e008 ed3d
00000370: e9a7 d9bd dc94 043d 5d6e 473c 5f15 66bd
00000380: d693 60bd feff 55bd 684b 453b 7435 61bd
00000390: 2195 8cbd 4b09 c73d 4a08 2fbc 94af cebd
000003a0: 5220 d13d f3f0 dd3d adf4 d63d c04a 7abd
000003b0: 30d7 62bd 4c3f 653d ec2b c9bc d66e b0bd
000003c0: 9b6b 013d ce4e 9a3d 9032 c33d f550 b1bd
000003d0: 4f11 333c 9bdf 823d 1794 1f3c 0947 9dbd
000003e0: 7850 efbd 24a2 4c3d b25c 16bd 787d a33d
000003f0: dd2d c93c 23ae 463d 7a0d a03d 0607 98bd

bias f4 [64]
0.012997394 -0.10557249 -0.020611571 0.013385176 -0.012110951 0.033830255 0.059336927 -0.051709313
0.08574583 0.032428686 -0.016109638 -0.065613404 0.0040894845 0.023953257 0.04574219 0.09576381
-0.026396023 0.0639851 -0.07092614 -0.054365348 -0.03872654 -0.025329804 -0.01977555 0.02659347
0.0010580956 -0.02830695 0.05326615 -0.06387822 -0.013240488 0.030948773 -0.0938529 0.083275124
-0.032272328 0.06960648 -0.068224356 -0.06373167 0.059141543 0.04237775 -0.009574025 0.06506747
-0.05506862 -0.04083121 0.06576761 -0.032194935 0.054077655 0.032138642 0.10091443 0.010517484
-0.011727364 0.09905584 -0.019519271 0.08979805 -0.052394006 -0.027373549 -0.02364868 0.0022893928
-0.071111694 -0.049379613 -0.10103473 0.017607765 -0.035489988 -0.0056588636 -0.090200506 -0.05250413
00000000: 06f3 543c 6436 d8bd 99d9 a8bc 7f4d 5b3c
00000010: 036d 46bc 9891 0a3d 470b 733d 25cd 53bd
00000020: 829b af3d f1d3 043d 5cf8 83bc 5260 86bd
00000030: 1501 863b 9f39 c43c 2a5c 3b3d d11f c43d
00000040: 793c d8bc 9f0a 833d b941 91bd 33ae 5ebd
00000050: b89f 1ebd 7380 cfbc 5600 a2bc 8cda d93c
00000060: ccaf 8a3a fae3 e7bc 9b2d 5a3d 96d2 82bd
00000070: a2ee 58bc 4888 fd3c f335 c0bd 268c aa3d
00000080: fd2f 04bd d88d 8e3d 36b9 8bbd c085 82bd
00000090: 673e 723d 4b94 2d3d 5fdc 1cbc 1842 853d
000000a0: a28f 61bd a03e 27bd 2bb1 863d d6de 03bd
000000b0: 8880 5d3d cfa3 033d 3aac ce3d 8651 2c3c
000000c0: 2124 40bc cadd ca3d e1e6 9fbc 0ae8 b73d
000000d0: 199b 56bd 7e3e e0bc e0ba c1bc a309 163b
000000e0: 02a3 91bd 4742 4abd 4ceb cebd 293e 903c
000000f0: f35d 11bd fd6d b9bb 0bbb b8bd 920e 57bd

weight f4 [3, 64]
-0.089785255 -0.046068095 -0.11495512 0.12254838 -0.063662566 0.118585624 -0.013432672 0.015091997
-0.13317904 -0.04756453 0.09895728 0.058225878 0.022802712 -0.14432022 0.0081106685 -0.12662481
-0.05413348 0.07176991 0.003538541 0.036420524 -0.13790452 -0.068785675 0.033024717 -0.070461154
0.08989929 -0.044101298 -0.085681595 -0.013693732 -0.13702132 0.02643621 -0.030131007 0.0910172
0.024773095 0.0999331 0.16413826 0.12964334 0.036887698 0.008363057 0.058021195 -0.046759263
-0.060831133 -0.06418389 0.07351986 0.04656786 -0.077408925 -0.03339801 0.07353627 0.011522006
0.0076595186 -0.09555884 -0.09623805 0.03438056 -0.069450475 -0.069283895 -0.12274968 0.05200372
-0.077063605 -0.022523588 -0.08894249 -0.022298554 -0.10688431 0.022091622 0.08331877 0.0034112334
0.022653578 -0.08441048 0.036021296 -0.05542086 0.08602085 0.06861973 0.041230395 0.11263448
0.12151985 0.07195264 -0.07097227 0.020210925 -0.054086275 0.03761326 -0.1368173 0.10659838
0.11609818 -0.11310723 -0.16121827 0.032209966 0.080454215 0.07387844 -0.014727148 0.029984526
0.052383948 -0.0077854767 0.07924609 -0.07068587 0.030272892 -0.10023105 -0.09237542 0.12667564
-0.08954672 0.09430381 -0.09382195 0.077096716 0.038472723 0.016760869 -0.024374312 0.06728242
0.12478759 -0.030281061 -0.08310233 0.00070475595 0.035289034 0.052237518 0.086149625 0.02021029
-0.066896334 0.00084170373 0.0467982 0.0078463 0.10431045 0.018691743 -0.12066243 0.12163679
-0.07884315 -0.10423106 -0.08069777 0.12811919 -0.040312517 0.061228026 -0.12628643 0.008253262
-0.11056803 0.11320997 0.048125464 -0.02670417 -0.12088737 -0.020500133 0.10282455 0.026740406
-0.005115434 0.11427726 -0.05111112 0.08272864 0.07797574 -0.020949818 -0.03656863 -0.10688073
-0.07231886 0.11566156 -0.09452657 -0.019891068 0.087134466 -0.011757543 0.07508326 -0.089860365
0.08512136 0.049505323 0.06033874 0.1030802 -0.04360959 -0.0019234397 -0.05286468 -0.122300856
0.005304104 -0.1098194 -0.09666078 -0.058512982 -0.1456074 0.07653487 0.10829821 0.03643974
0.054220244 0.021432286 0.034022287 0.11998253 -0.121039525 0.03755835 -0.11050405 -0.025432268
0.148922 -0.06830189 -0.015351331 -0.10010011 -0.11682928 0.11447053 0.112554274 0.11071414
0.10508773 -0.016587581 0.035073005 0.0361261 -0.001437302 0.054211687 0.066566646 -0.09519999
00000000: 55e1 b7bd e6b1 3cbd 976d ebbd a5fa fa3d
00000010: 8561 82bd 05dd f23d b614 5cbc 6c44 773c
00000020: 1660 08be 06d3 42bd 1daa ca3d 427e 6e3d
00000030: c1cc ba3c aec8 13be 9ce2 043c efa9 01be
00000040: 11bb 5dbd 1afc 923d dee6 673b b02d 153d
00000050: d836 0dbe 81df 8cbd ed44 073d f04d 90bd
00000060: 1e1d b83d 90a3 34bd d579 afbd ad5b 60bc
00000070: 514f 0cbe c090 d83c 4dd5 f6bc 3a67 ba3d
00000080: f2f0 ca3c baa9 cc3d dc13 283e 39c1 043e
00000090: 8e17 173d 3405 093c a2a7 6d3d a486 3fbd
000000a0: 112a 79bd d872 83bd 9591 963d f1bd 3e3d
000000b0: 9288 9ebd 5acc 08bd 2f9a 963d ccc6 3c3c
000000c0: b3fc fa3b 5ab4 c3bd 7418 c5bd a1d2 0c3d
000000d0: 0d3c 8ebd b7e4 8dbd 2f64 fbbd da01 553d
000000e0: 86d3 9dbd 6383 b8bc 7b27 b6bd 75ab b6bc
000000f0: 29e6 dabd 7df9 b43c 08a3 aa3d 008f 5f3b
00000100: ff93 b93c 67df acbd 118b 133d fc00 63bd
00000110: b32b b03d 8088 8c3d 34e1 283d e8ac e63d
00000120: 66df f83d e85b 933d e959 91bd 6291 a53c
00000130: 9289 5dbd 5d10 1a3d d619 0cbe 4050 da3d
00000140: e2c4 ed3d c3a4 e7bd 6716 25be 99ee 033d
00000150: 2ec5 a43d 944d 973d 234a 71bc 1ca2 f53c
00000160: 8d90 563d 501d ffbb c64b a23d c1c3 90bd
00000170: dbfe f73c f045 cdbd 532f bdbd 42b7 013e
00000180: 4564 b7bd 5b22 c13d b925 c0bd e2e4 9d3d
00000190: 9395 1d3d 174e 893c a3ac c7bc 5ecb 893d
000001a0: a390 ff3d fd0f f8bc 8e31 aabd 5fbf 383a
000001b0: 3c8b 103d 02f7 553d 376f b03d 0d90 a53c
000001c0: f200 89bd c8a5 5c3a 78af 3f3d c48d 003c
000001d0: b8a0 d53d 6d1f 993c dd1d f7bd b61c f93d
000001e0: 8478 a1bd 1877 d5bd df44 a5bd ad31 033e
000001f0: bd1e 25bd 3dca 7a3d 3b51 01be b138 073c
00000200: 7e71 e2bd a1da e73d 351f 453d b4c2 dabc
00000210: cc93 f7bd e5ef a7bc ad95 d23d b20e db3c
00000220: 5f9f a7bb 320a ea3d e559 51bd a26d a93d
00000230: bfb1 9f3d f49e abbc fdc8 15bd 49e4 dabd
00000240: e91b 94bd f8df ec3d 2597 c1bd 98f2 a2bc
00000250: 8e73 b23d b6a2 40bc 41c5 993d b608 b8bd
00000260: 1c54 ae3d 18c6 4a3d c125 773d b61b d33d
00000270: f89f 32bd ed1b fcba a288 58bd df78 fabd
00000280: 0dce ad3b fee8 e0bd 16f6 c5bd 4fab 6fbd
00000290: 1b1a 15be 50be 9c3d 74cb dd3d d641 153d
000002a0: 0c16 5e3d c392 af3c f45a 0b3d 67b9 f53d
000002b0: 92e3 f7bd c9d6 193d f34f e2bd 5557 d0bc
000002c0: 027f 183e dce1 8bbd 2684 7bbc 4901 cdbd
000002d0: 3144 efbd 866f ea3d db82 e63d 18be e23d
000002e0: 3c38 d73d aee2 87bc b6a8 0f3d f6f8 133d
000002f0: da63 bcba 130d 5e3d 1854 883d 36f8 c2bd

bias f4 [3]
-0.08388852 0.059497364 -0.023509692
00000000: bfcd abbd 82b3 733d 6697 c0bc
