nvidia_lstm_0.pth (torch, 840906 bytes, 9 tensors)

weight f4 [2611, 64]
00000000: 9d89 2ebf 96d2 a73e 3cbf 28bf a592 d7bf
00000010: 0d25 ff3e 5c84 e9bf 581a 19bf ce12 e83b
00000020: 349f 68bf b975 2d3f 4b34 17bf 2c99 c53e
00000030: 7099 61bf c642 5bbf 65a6 35bf bad1 a3bf
00000040: c0af 8c3e 2d03 43bf a47a 3a3e 4e3a eabe
00000050: a3fb 343e 32c9 8fbf 2d8e 5a3e df0d 0bbf
00000060: 8e89 60be 0bf8 c0bf 026b 06bf 7ba6 7cbf
00000070: 9ccc 84bf c97e 49bf 4a58 f93f fe14 18c0
00000080: ce8d c1be fdae e7bf a670 d13f 0f9b 7fbf
00000090: 6617 49be 848f a4be 0945 c73f 2e83 a23e
000000a0: 9690 ffbe 7d45 cebe 1b20 6cbf 8e1e 3fbe
000000b0: c403 99bf 8c4e ecbe 953c 19bf 399f 463e
000000c0: f3cf 41be 700a febe 68e2 d9be 21a7 6cbf
000000d0: 3575 313d 822a dcbe 1ce4 253e 68eb 803e
000000e0: 8bed 5cbe f5ca 2540 4bd8 54bf 110e 463f
000000f0: 28d9 50bf 2471 6bbe 57a1 c7bf 470a 843e
00000100: 2157 28bf 216c bebe 3ce5 763e 874d 983f
00000110: 064c 973e 5e11 c23f fecc ba3f 1c7b 3c3e
00000120: a771 e63e 794a d03f f0e3 033d 5892 a43e
00000130: 798b 9dbf 1ef8 efbf 25b1 b93f 68d4 8abe
00000140: be76 85bf a14e d3bf f16d 853f 73ff f63e
00000150: fc06 16bf 1a41 e93e 9aa4 bfbf af1c 10c0
00000160: 3225 06c0 5ddc 463f dca4 f4be 1aa0 033d
00000170: b59f 82bf 0d18 11bf c537 413f 3024 6dbe
00000180: 43d7 21be 6052 14bf 0721 d43e a6af 3e3f
00000190: a2ee 23be 1632 00bf a911 a43f d74c c4bf
000001a0: 95a1 113e 05b9 23bf 8e74 ea3e 0b82 2e3f
000001b0: be5a a63f 4cb4 6cbf 4ead 4c3d 43df cd3f
000001c0: 812f c2bf 0ff3 cf3e c745 bbbe a332 b3bd
000001d0: a329 c03f cfbc 253e f00e ddbd adc2 e63f
000001e0: f2b9 a93f 08ce 37be 8d3d 68bc 5781 70bf
000001f0: f72d b63f fc06 033f 5297 17be 88f7 ac3f
00000200: c293 98bf fc43 703d 9960 263f 9d2a 683f
00000210: a721 b2bd 04e1 123f 44db 44be 0ac4 4b3f
00000220: 5bb5 d0be ed35 a6bf 47a8 233f d8cc 97bf
00000230: cda3 76bf 95d5 8f3e ddf3 bbbd 27ba a23f
00000240: 51f5 f8bf eea6 bdbf cc1b d03f d757 933f
00000250: b7d5 a33f 025e 3f3f 6c8a 7a3f f13f b2bf
00000260: b1fe e53d fd24 70bc 2d8e 8d3c f251 a8bf
00000270: 1188 c9bf 197a a73e 5d28 7f3e 7a28 7abf
00000280: 31aa 8f3f 55be 8cbf b3a6 0cbf 40bf 2a3e
00000290: 3fcc 00bf 48d1 95bf 2ebf 7bbe 101f 363f
000002a0: 256d c13f 7da3 da3e f8ff 95be fba9 7e3f
000002b0: 09cd ea3e 8e4e 4f3f e36a 1e3e 75a5 f33f
000002c0: 754d 4fbf baee 92be ff46 6d3e dd9d 743e
000002d0: 7ae3 e1bf c21e 5abe 5739 bcbf 7452 c5bf
000002e0: 4f93 ac3f 4232 6f3e f0c5 46be d603 d9be
000002f0: 92ef 8e3d 1466 b1be 7048 0140 766c 043f
00000300: 2daa 2cbf 4b52 2fbf 8bf1 93bf 9953 eb3f
00000310: bad1 043e 5d07 733f d601 9dbf 1a25 0d40
00000320: c290 01bf 4e44 a1be 7a6f 82be d59a 3a3f
00000330: 4b35 23bf 66b8 6abf 76c8 073f abbd 6e3f
00000340: 08e6 143f e575 d9be 1fd9 893e 6030 3ebf
00000350: a626 043f 2ceb b4bf ffae 4c3f 4633 9d3e
00000360: b682 8e3f ccd5 11c0 82ea 373f 536e d5be
00000370: 215a 9a3e b5ef ffbe e750 8bbf 3079 64bf
00000380: 73cd d03f 6e62 39bf e719 1abf f904 9ebe
00000390: ef1a 55bd b27b 45bf c4b0 f9be f910 99bd
000003a0: 9380 81bd 6f26 f2bf 2af4 e2be b57f 5ebf
000003b0: f08f d23f c957 a9be bcf0 7f3f ec1d 85bf
000003c0: 20c7 02be 492d cd3e 441d f43e 4613 d23f
000003d0: 7a06 2eba 33e2 43bf 2aa9 8ebe f5e3 443e
000003e0: 763a e93c 60a9 4e3f b907 43bf 0266 393f
000003f0: 7aec a5be e676 9dbe bc65 86bf 9ebd 843f
-0.6817873 0.32777852 -0.659168 -1.6841627 0.49832955 -1.8243518 -0.5980582 0.00708232
-0.90867925 0.67757756 -0.5906417 0.38593423 -0.8812475 -0.85648763 -0.7095702 -1.2798378
0.27477837 -0.7617672 0.18210846 -0.45747608 0.17674117 -1.1233275 0.21343298 -0.5431804
-0.21927473 -1.5075697 -0.5250703 -0.9869153 -1.0374942 -0.78709084 1.9480069 -2.3762813
-0.378035 -1.8100277 1.6362503 -0.99845976 -0.19637832 -0.32140744 1.5567943 0.31740707
-0.49914998 -0.4028739 -0.9223649 -0.18664 -1.1954274 -0.46153677 -0.59858066 0.19396676
-0.18926983 -0.49617338 -0.42555547 -0.9244252 0.043324668 -0.4300118 0.16200298 0.251796
-0.2157499 2.5905125 -0.83142537 0.77365214 -0.81581354 -0.22992378 -1.5596112 0.2578909
-0.6575795 -0.3719187 0.24110883 1.189866 0.2955019 1.516155 1.4593809 0.18406337
0.45008585 1.6272727 0.0321998 0.321429 -1.2308189 -1.8747594 1.4507185 -0.27115178
-1.0426862 -1.6508371 1.0424176 0.48241767 -0.5860441 0.4555748 -1.4972107 -2.2517507
-2.0960202 0.7768 -0.47782028 0.032135107 -1.0204989 -0.56677324 0.7547572 -0.23158336
-0.15804772 -0.57938194 0.41431448 0.7448677 -0.16009 -0.50076425 1.281789 -1.533595
0.14221795 -0.6395419 0.4579205 0.6816718 1.2996442 -0.9246261 0.049969964 1.6083759
-1.5170747 0.40615126 -0.36576673 -0.087498926 1.5012707 0.16185306 -0.10793865 1.802816
1.3259871 -0.17949688 -0.014174831 -0.93947357 1.4232777 0.5118253 -0.14803818 1.351304
-1.1920092 0.058658585 0.64991146 0.9069002 -0.08697825 0.57374597 -0.19224268 0.79596007
-0.40763363 -1.2985207 0.63928646 -1.1859388 -0.9634369 0.28092638 -0.091773726 1.2713059
-1.9449865 -1.4816568 1.6258483 1.1511182 1.2799596 0.7475282 0.97867465 -1.3925763
0.11230219 -0.014657256 0.017279709 -1.3150008 -1.5744649 0.3271034 0.24917741 -0.9771801
1.1223813 -1.0995585 -0.5494186 0.16674519 -0.50311655 -1.1704493 -0.24584648 0.7114115
1.5111433 0.42702857 -0.2929685 0.9947812 0.45859554 0.8097924 0.15470462 1.9034868
-0.80977565 -0.2869776 0.23171614 0.23888345 -1.7647545 -0.21300796 -1.4704999 -1.5415788
1.3482455 0.23359016 -0.19411445 -0.4238574 0.06979288 -0.34648192 2.0200462 0.51728
-0.6744717 -0.68484944 -1.1558088 1.8384887 0.1297063 0.9493311 -1.2266185 2.2053895
-0.5061151 -0.31497425 -0.25475675 0.72892505 -0.63753194 -0.9168762 0.53040254 0.9325816
0.581635 -0.4247276 0.26923463 -0.74292564 0.5162147 -1.4134269 0.7995452 0.3070318
1.113364 -2.2786741 0.71842206 -0.41685733 0.30146888 -0.4998757 -1.0884064 -0.8924742
1.6312698 -0.72415817 -0.60195774 -0.3086317 -0.05202764 -0.7714187 -0.48767674 -0.074739404
-0.06323352 -1.8917979 -0.44326907 -0.86913615 1.6450176 -0.33074787 0.99976707 -1.0399756
-0.12771273 0.40073612 0.47678578 1.6412132 -0.00066385383 -0.7651703 -0.27863437 0.19227584
0.02847026 0.80727196 -0.7618366 0.72421277 -0.3240698 -0.30754775 -1.0499797 1.0370367

weight_ih f4 [256, 64]
00000000: be0e 6fbd 1fca 70bc 7346 fa3d 3b8b f83d
00000010: db60 ad3d 4cb2 e43d 773c a83d 1d61 e33d
00000020: 3d2a 3dbd dfaf 38bd cd5b fd3c 188d 293d
00000030: 6034 86bd f0d2 9cbd 0ca9 853d f701 2cbd
00000040: 6c4e 3cbd b896 29bc e47a 80bd e752 933d
00000050: 7076 853c 574e 6b3d 99a4 2ebc 4d7c c3bd
00000060: 6c71 77bd c0ed abbd ab35 c9bd d382 6f3d
00000070: 6e11 413d a72a a6bc 6ed5 8b3d 58f0 81bd
00000080: 1a02 48bd 75ff ad3d 76f7 223d dda4 4cbd
00000090: 9333 82bd a271 273b fd6e 9fbd 3b8d c13d
000000a0: 2d87 34bc 6b76 443d dbca febc 6bc3 c03d
000000b0: db7e 2b3e 23f2 8abd 19b3 853b ee8b 08bd
000000c0: 93fc 803d 9cc5 1d3e ba6f 9fbd 0b6a 7a3c
000000d0: 24a1 20bd f964 e83d 269e 0ebe df52 823c
000000e0: 67ac 753d be73 b63d 2c17 00be 72fb 88bc
000000f0: f02b 903d 1f21 4dbd c911 af3b a9ba c5bd
00000100: f3ac 85bc 409a ef3d bb57 e1bd a86d 03bc
00000110: de26 fb3d d590 e13d 095c 30bc 40b9 b63d
00000120: 65ef e6bd f833 1abc c614 533c c154 cebb
00000130: aa90 f63d d0a6 03bb 1a3d 063e 7340 983c
00000140: 089b 123d b808 d33d f3ea 8a3d 29c3 90bd
00000150: 3486 24be 65b4 debd c52f de3d 8893 b3bb
00000160: da41 b23d 4867 9abd d73e 8f3d 82b1 34bc
00000170: 8b2c 3b3d d0ee ecbd ced4 0c3d 001f 0d3d
00000180: aaf2 023e 9032 58bd 18dc 483c b122 cbbb
00000190: 4e3a 32bd 476f babc 2988 50bc 00e5 ad3d
000001a0: 8c2a 823d 4258 563a a969 56bd c86e d3bc
000001b0: 8171 af3d a3e0 f2bc f417 f0bc 8301 df3d
000001c0: 76c3 a43d 1b64 f9bd 4412 c8bb eca7 debd
000001d0: a7af b13d 1e8e b9bd bb6c 1c3e 756d ce3d
000001e0: 86dd a93b f66a a0bd 28c2 f4bc b246 693c
000001f0: fa0f 3e3d 10a2 173e 0942 9d3d f9b1 283d
00000200: 7faa 1ebd 0291 28bc 9a9f d2bd d0a2 363d
00000210: af34 263d 0918 733d 228c 08be cc71 07bd
00000220: 31ae d5bd ee57 2e3d 7b13 21bc de3a aa3b
00000230: 2ec3 91bd 1931 26bd 3c61 123e bb46 003e
00000240: a3ae 023e c7a9 153e 23d7 eabd 4404 793d
00000250: 4ac5 e13a 00b8 22be b4bf 0fbe dd4a 8dbd
00000260: 4f2a a43d d314 1c3d 785a 1f3d 0856 563d
00000270: 0c86 133d 7fa1 983d 5a28 583d 3883 a0bd
00000280: 47bc f13a af84 d7bc ed44 6b3d 51f0 9fbd
00000290: 469d 46bd cc81 a63d 0ef0 c13d a5ad ed3c
000002a0: 269c 4c3d 7b9a 92bd dbcc 92bc 658d 053e
000002b0: 225c b8bb fb61 58bd 641d bd3d ebb4 153d
000002c0: b0c4 983d 113c e1bd 6d72 d33d 481d 123d
000002d0: 7e3d 65bd af33 6c3d 5626 07be d561 34bd
000002e0: ed2b c8bc cc66 69bd 379a dbbd d66a ed3c
000002f0: b0a9 c7bd 2fa4 f1bd 3573 46bb f4b4 1d3d
00000300: 2525 d4bd 8c64 d3bc 376b 9c3c ccab 6c3d
00000310: f5de 60bd 637b 053e 1f5a e5bd 650f 0c3d
00000320: 1cb9 f23d 00fe 763d abe0 5e3d 3e8d 433d
00000330: d305 01bc 6350 babb 45b9 23bd 8f3e 26bd
00000340: eb20 353d 8ba3 b53d a18a debd a206 0c3d
00000350: 30a5 d9bb d972 b83d 7ae2 0bbd 974a 03be
00000360: 7156 0d3d 1b49 183d 3d38 803d e47d e1bc
00000370: 3aa3 a7bd abb2 6ebd 0fa9 eabd 104d bbbc
00000380: c15a a03d 64a7 d5bd 5de2 393c d277 dcb9
00000390: 97a4 1a3c 8d48 8c3b e7b9 20bd 3ce5 e5bc
000003a0: 2b2f 8fbd 7c17 07bd b740 34bd 9f78 79bd
000003b0: ae00 d2bd 313c a1bd 3465 893d 9e01 273d
000003c0: c717 e7bd aa5d a73d aa20 203d 842f b9bd
000003d0: 8a32 023d 2d71 1c3c 4a94 e7bd f6a1 efbd
000003e0: 6464 cabd 2645 703d f430 bcbd d4e1 22bd
000003f0: 3cd6 b23d 009d cabc c419 9a3d 83dc 053d
-0.05836367 -0.014696627 0.12220468 0.12135931 0.08465739 0.1116682 0.08214658 0.11102507
-0.04618286 -0.0450896 0.030927563 0.041394323 -0.065529585 -0.07657421 0.06526384 -0.04199406
-0.045973226 -0.010350876 -0.062734395 0.07193547 0.016291827 0.057447758 -0.01065936 -0.09545193
-0.060410902 -0.083949566 -0.098246895 0.058474373 0.047135763 -0.02028401 0.06827818 -0.0634467
-0.04883013 0.0849599 0.03978678 -0.049961913 -0.06357493 0.0025549908 -0.07784841 0.09450766
-0.011018557 0.047964495 -0.031102588 0.09412273 0.1674761 -0.06784465 0.004080188 -0.033336572
0.06298175 0.15407413 -0.07784982 0.015284072 -0.039216176 0.11347384 -0.13927516 0.015908657
0.05997887 0.08908795 -0.1250884 -0.016721461 0.070396304 -0.050080415 0.0053426963 -0.09654743
-0.01631782 0.11699343 -0.110030614 -0.00802175 0.12263273 0.11013953 -0.01076413 0.089220524
-0.1127613 -0.009411804 0.012883371 -0.0062967245 0.12039311 -0.0020088442 0.13109246 0.01858542
0.03579238 0.10304397 0.06783094 -0.07068474 -0.1606682 -0.10874251 0.10848955 -0.0054802336
0.087039664 -0.075392306 0.069944076 -0.011028649 0.045696776 -0.11568987 0.034382634 0.034453392
0.12787881 -0.052782595 0.012259506 -0.006199204 -0.043512635 -0.02275814 -0.012727776 0.08490944
0.063557714 0.00081766036 -0.05234686 -0.02580966 0.08566571 -0.02964813 -0.029308297 0.1088896
0.08045094 -0.12177297 -0.006105693 -0.10871872 0.08676081 -0.0906031 0.15275852 0.10079471
0.0051838784 -0.07832901 -0.029877737 0.0142380465 0.046401955 0.14807916 0.07678611 0.041185353
-0.038736816 -0.010288479 -0.10284348 0.044588864 0.040577587 0.059349094 -0.13334706 -0.03306751
-0.10433615 0.042564325 -0.009831305 0.005195006 -0.07117306 -0.040574167 0.14294904 0.12526982
0.12761931 0.14615546 -0.11466815 0.060795084 0.0017224934 -0.15890503 -0.14037973 -0.06899045
0.08015882 0.038105797 0.038904637 0.05232814 0.03601651 0.07452678 0.052772857 -0.07837528
0.0018442952 -0.026308386 0.05743878 -0.078095086 -0.04848983 0.081302255 0.09469615 0.029013464
0.049953602 -0.07158371 -0.017919948 0.13042219 -0.0056262175 -0.052827816 0.092341214 0.03654949
0.0745939 -0.10997785 0.10324559 0.035672456 -0.055966847 0.057666477 -0.13198218 -0.044038612
-0.024435008 -0.0569828 -0.107227735 0.028981607 -0.09749162 -0.11798894 -0.003028107 0.03850265
-0.10358647 -0.02580478 0.019094093 0.057781026 -0.05490013 0.1303535 -0.1119883 0.03419437
0.11851713 0.060300827 0.05441348 0.04774212 -0.007874924 -0.0056858524 -0.03997161 -0.040587004
0.044220846 0.08869084 -0.10866285 0.034186013 -0.0066420063 0.090062805 -0.03415153 -0.12821423
0.034506265 0.037179094 0.062607266 -0.02752585 -0.0818543 -0.05827586 -0.114580266 -0.022863895
0.0782981 -0.10432318 0.011345473 -0.00042050943 0.009438655 0.0042811097 -0.03923979 -0.028063409
-0.069914185 -0.03298138 -0.04400703 -0.06090605 -0.10254036 -0.07872809 0.06708756 0.040773027
-0.11283832 0.08172162 0.03909365 -0.09042266 0.03178648 0.009548468 -0.11307581 -0.117008135
-0.09882429 0.058659695 -0.091890246 -0.039766148 0.08732268 -0.024733067 0.07524446 0.032681

weight_hh f4 [256, 64]
00000000: 6287 ebbd 2a40 cf3b 25a7 083e d1ed 2abd
00000010: 14d9 47bd 1c02 843d 85c7 7c3c 79a5 953d
00000020: c904 81bd 0bb3 dcbb f0b7 c5bd 6f1b 6d3d
00000030: b564 493c e12d 91bd 4c69 5d3d 9924 0aba
00000040: ae4f 863d 9647 11be 4c97 95bd 9670 c7bb
00000050: 6036 41bb b06a 2a3d 7ded 1abd e602 5d3d
00000060: c840 ad3d ce5e bd3d 2bac f9bc ec89 bebc
00000070: 7fd0 ac3c be67 f93c 05ef c2bd 7237 da3c
00000080: a68e f13c 6ce5 843d a888 48bd 929e 03be
00000090: c2e4 e33d 8a05 ba3d 5b31 143e 56bd 023e
000000a0: c88c ccba 2dfe 403d fdf4 7c3b 347e 37bd
000000b0: 1584 c63d a89e 0f3e 0ee2 6ebd 336e f3bd
000000c0: 0109 94b9 a9c6 ab3c 6e3b a83d 8963 81bb
000000d0: 249a 69bd 906e 873d e3a0 073e 91eb 153d
000000e0: 342f 1fbe 5566 be3d ca7f ae3d 6850 e2bc
000000f0: 77e6 0a3e 0d05 593d d230 92bc 1642 883c
00000100: e396 f5bd 59fe 10bd 8884 c3bd 824f 88bd
00000110: 5f2e 9ebd 2a8e 34bd d3dc 0dbd a0b4 163d
00000120: 5609 ca3d 8ddf ab3d 6083 e53d 3dfd edbc
00000130: d3c8 273d 1b07 88bc 76fc c93d dc8d f03d
00000140: 6cc2 c1bd 6a39 febd fe6f 4ebd 5230 f8b9
00000150: defa 843d 5aa6 47bc 696a 703d 4e93 403d
00000160: 0717 9d3c cf5d 2ebd 5f95 02be d643 9dbd
00000170: 6576 a43d b1b9 d2bd 908d 9dbd 7a77 d83c
00000180: 6cf0 d7bd 830a 24bd ad4e 9f3d 7e14 d2bc
00000190: 125a d0bc 10d8 f93d 0d5e c8bc 76ac debd
000001a0: 0cad 47bd 9114 b23c e875 2f3c 112e 903c
000001b0: 45fe c93d 9288 a83d 1751 a4bc cb55 973d
000001c0: 5033 e73d 1a52 2c3d 4dd6 a4bc 90dd 043c
000001d0: 7c7b 85bd 5e10 c0bc 8423 87bd 2d80 943d
000001e0: 5fbf f0bd aa77 843d 7fc9 8bbd dfcb d6bd
000001f0: 40f1 ddbd c8cd c53d 8224 fb3b 25d5 11be
00000200: 84c2 993d 6979 ad3d 6026 3cbd cab2 f63d
00000210: 71dd 13be bf97 d43b 938d 8e3d 4408 96bd
00000220: f5d1 cdbd 1c18 c6bd 874c aebd b8d8 e3bd
00000230: aa84 13bd 7ef8 b63c 92de a73d 9653 8f3d
00000240: 13b2 1dbd 2f80 9dbc 43a3 e2bd 6ecf 7c3d
00000250: a483 093d 33ef 15bd e8a2 4d3d 41ff 8fbd
00000260: 9ef0 26bd 58e8 623c 9f0c 293d f104 263b
00000270: 0362 293d e8cc 6a3d 91d0 413d 815a 003c
00000280: 7942 7cbd 8134 f53d 8708 dbbd 2d7a d4bd
00000290: 90c7 76bd 0bbd c5bd 67c9 b53c e8a1 43bd
000002a0: 35d4 cf3d df72 c43d 24f4 e9bc 1278 623d
000002b0: 5306 27bd 3116 3cbd 2eb8 a6bc c18e 643d
000002c0: 7fee 55bd e017 0b3e aaa1 cc3d 2d13 8abd
000002d0: fd4b cf3d 8c27 f63c 6e03 a0bd 449f 88bd
000002e0: 7623 b4bd f764 703d b84f 47bd b308 743c
000002f0: c474 adbb afe6 823d e5df ba3c 6cfa 2abd
00000300: b920 483c ef39 8ebc d526 2a3d 452a c63d
00000310: cee1 ddbb 6386 973c face 03bc 4741 febc
00000320: cdbc 7e3d 7dfb 68bd 28eb ff3c a337 ea3d
00000330: 39d3 a5ba 84a2 16bd cc0d 94bc 03ee 893c
00000340: 5f1c d9bd 3b08 483d 418a 793d 7a0b bc3d
00000350: 15b5 34bc 48fe 34bd 4752 25bd 1a61 ed3d
00000360: ffce 5a3b a7f9 a1bb 5e5f 06be e9e3 86bd
00000370: 0b25 fe3d ac6d aabd 4b71 54bd f0fe 1cbd
00000380: e033 f43d ecf5 ee3d cb6c bebd 4fa7 eebc
00000390: 6dd8 153d ef5e 6b3c 865b 1a3e 1ade e7bd
000003a0: cd74 043e 6999 96bd af29 17bd 1ccc 2abd
000003b0: c052 c03d 592d 8a3d 4c13 07be bab4 fc3c
000003c0: 3b03 2c3d 91ed 32bd 73fd 0b3e 58b1 fbbd
000003d0: 7ac3 b6bc dd9b 743c ac4d a0bd c34d 9a3d
000003e0: 3b04 f9bb 6656 4e3d 9e61 f4bd d964 c0bd
000003f0: 24aa f13d 5c6c ee3d 8feb 743d 3ad8 f3bd
-0.115004316 0.0063247876 0.1334501 -0.041730706 -0.048791006 0.06445715 0.015428429 0.07306952
-0.06299741 -0.006735211 -0.09654224 0.05788749 0.012292077 -0.07088829 0.054055497 -0.00052697357
0.065581664 -0.14187464 -0.07304248 -0.0060864193 -0.0029481873 0.04160565 -0.037824143 0.053957842
0.08459622 0.09246598 -0.030477604 -0.023259126 0.021095512 0.030444976 -0.095182456 0.026637767
0.029486965 0.06489071 -0.04895845 -0.12853459 0.111276165 0.09083088 0.14471953 0.12767538
-0.0015605921 0.0471174 0.0038598173 -0.04479809 0.096931614 0.14025366 -0.05832105 -0.11886253
-0.00028235468 0.020968752 0.0821446 -0.003948633 -0.057031766 0.06612885 0.13244967 0.036601607
-0.1554535 0.09296862 0.085204676 -0.027626231 0.13564478 0.052983332 -0.017845545 0.016633075
-0.1199167 -0.035398815 -0.09546763 -0.0665579 -0.07723688 -0.04408089 -0.034634423 0.03679335
0.09865062 0.08392248 0.112066984 -0.029051417 0.040963005 -0.01660495 0.09862606 0.117458075
-0.09460911 -0.124132946 -0.050399773 -0.00047338248 0.064931616 -0.012185657 0.05869523 0.04701548
0.01917602 -0.04256993 -0.12752293 -0.07678954 0.080303945 -0.10289324 -0.076930165 0.026424158
-0.10543904 -0.040049087 0.07778678 -0.025644537 -0.025433574 0.12199414 -0.02445891 -0.10872738
-0.048749015 0.021738322 0.010709263 0.017600091 0.09862951 0.08229174 -0.020058198 0.073894106
0.11289084 0.042070486 -0.020121718 0.008109465 -0.065176934 -0.023445304 -0.06598571 0.0725101
-0.11755251 0.064681366 -0.06825542 -0.10488104 -0.108370304 0.0965839 0.007664264 -0.14241464
0.07507804 0.08470423 -0.045935035 0.1204582 -0.14439942 0.006487816 0.06960597 -0.07325795
-0.10049812 -0.09672567 -0.0851069 -0.1112532 -0.03601519 0.022335287 0.08196749 0.069983646
-0.038499903 -0.019226162 -0.11066296 0.061721258 0.033572808 -0.03660507 0.050204188 -0.07031108
-0.040756814 0.01384934 0.041271802 0.0025332535 0.041353237 0.05732432 0.047318045 0.007834078
-0.06158683 0.11972905 -0.10694986 -0.10374866 -0.06024891 -0.09655198 0.022190763 -0.047761828
0.10147897 0.095922224 -0.028558798 0.05529029 -0.040777516 -0.0459196 -0.020351496 0.055800203
-0.0522294 0.13583326 0.099917725 -0.06741939 0.101219155 0.030048154 -0.07813154 -0.066710025
-0.08795826 0.058690038 -0.04866001 0.014894652 -0.0052934606 0.06391656 0.02281184 -0.041742727
0.012214833 -0.01736161 0.04154094 0.09676031 -0.006771303 0.018496698 -0.0080449525 -0.031036986
0.062191773 -0.056880463 0.03124006 0.11436393 -0.001265145 -0.03677608 -0.018072985 0.016837126
-0.106011145 0.048835974 0.060922865 0.091818765 -0.011029501 -0.044187814 -0.04036167 0.11590786
0.003338754 -0.004943091 -0.13122317 -0.06586439 0.12409409 -0.083216995 -0.051865857 -0.038329065
0.11923957 0.116679996 -0.09298094 -0.029132513 0.036583353 0.014365896 0.15073976 -0.113216594
0.12935181 -0.073534794 -0.036904987 -0.04169856 0.09390783 0.06746931 -0.13190955 0.030847896
0.04199527 -0.043683592 0.13670902 -0.12289685 -0.022310007 0.014929739 -0.07827315 0.07534363
-0.0075993813 0.050375365 -0.119326815 -0.09394235 0.1180003 0.11641762 0.05979496 -0.11906476

bias_ih f4 [256]
00000000: afeb cf3d b43a 9c3c ec54 f83d 35da 0c3e
00000010: 4f3a c43d 6ed4 823d 7424 8ebd b5e6 46bd
00000020: 3642 bdbb c740 093d f41d 023d a429 6dbd
00000030: 8e2c 093e 917d 9ebd c120 aa3d 2355 6abd
00000040: 4719 263e 386a 42bd ab0f 063e bd12 d73d
00000050: ed48 3fbd 3ed4 d53d c13d a9bd 554a c93b
00000060: d8f8 733d c5ad 21bd b052 e33d 68df a73c
00000070: 504b 003c 1738 fb3d 1fa0 5f3c 1f37 013d
00000080: 28c9 aabd f10f 53bd faaa f3bc 77f4 62bc
00000090: cdf7 b53d 1763 a8bd 8bcd 693d c792 a3bd
000000a0: 99ea d23d ab70 6f3d e901 00be 65c2 a43d
000000b0: 3beb d83d 16ea bf3d f891 99bc 4332 c83d
000000c0: 2665 ac3d 78a3 e53d 1107 933d 8e61 77bd
000000d0: aef6 053d 91b4 6ebd 5d48 39bd 91e3 95bd
000000e0: e7fb d53d b8a3 11bc 5f87 fa3d 0acc d73d
000000f0: b7ec 973d b7b2 8fba fbd7 9f3d b386 ad3a
00000100: 299c d93d 81df e23d 8b33 c4bc 091a 2b3d
00000110: 9d7b 933d 6237 703d b26c 0cbd b6ff 67bd
00000120: bdd9 e83c dbef 693d 0ec7 903d c5b8 b1bd
00000130: 25ed b1bc 1c9c 49bc 4340 1bbd 0abd abbc
00000140: 2d47 8fbd 2d06 e33c ef81 06bd 71aa c53d
00000150: 38b3 aa3d c042 4abd 30ab 953d a87b 6cbd
00000160: 0fb0 a63d 64f5 f63d e938 c3bb 237f c2bd
00000170: e92d 513d e0d8 2e3d bed1 eebc 3501 9fbc
00000180: d834 083e 3151 783d 0c4a cb3b ee01 f9bc
00000190: c48c 403c 160d 1a3b ede2 ae3a 7f6b a83b
000001a0: 1d7b ef3d 5f67 703d 0582 103d ac53 f63b
000001b0: 0ea1 013e f170 983c e887 a43d d7f4 733d
000001c0: 7d97 cd3d af57 023e f807 6abd 42cd 91bd
000001d0: ef6e 60bd f971 b9bd f526 183e 06ea 093e
000001e0: 901c 6f3c edb0 1c3d e3ff 223d 1cca 83bd
000001f0: 8357 17bd 262c 0fbe 2627 893d 2cc2 d1bd
00000200: 86c6 a2bc f92d 06be a51f 0e3e 4ef4 c03d
00000210: bd0a 483d 0117 95bd db9d e03d 9166 253d
00000220: 0950 b43c ae11 b4bc 4298 d3bd 707b a13d
00000230: e3c7 e73c 20d4 043d 1732 9cbc fd5c b7bd
00000240: e975 03be 2ded 38bd 975b b6bc 1df9 ce3d
00000250: 9956 8a3d 2d34 2c3b efc6 053e d50c da3d
00000260: 80ca 01bb a83b cb3c 9e45 bbbc 2858 8f3d
00000270: f049 813d e20b 8e3d e3d6 abbd 9f16 ac3c
00000280: 0c2f ec3a 8531 403d 2d9d a3bd d931 0ebe
00000290: eb86 d43d d91b 043e e0ca 063e 471f 7c3d
000002a0: bb6c bebd c707 06be 45c7 bebd 937c 70bc
000002b0: 22ff c6bd a049 243d 5fc1 35bd 1298 04be
000002c0: 7c39 943d f209 e63d 9608 da3c a196 0e3d
000002d0: c92a 3b3d 5113 a73d 8c6b da3d 6003 053e
000002e0: e2cb e7bd b469 1bbe 9313 ddbc 01fe 3d3d
000002f0: 410d b4bc ab07 2fbd d026 02bd abce eebd
00000300: d41b 5b3d b559 d43c a8e7 33bc b28c 8abd
00000310: 1c9c fdbc 35a9 babc 4e0d 1e3e 8512 8f3c
00000320: 056d 52bc fe60 0e3e bd7e 5abd ab6a b93d
00000330: 8f66 abbc b317 93bd 499c e83d ed7a 7ebd
00000340: 6832 3f3d 03ca b73d e924 a5bd e668 e0bc
00000350: e027 46bd 9d93 673c 6c89 9ebd 0404 1cbb
00000360: 4adf 1a3d 7049 a83d 5b3a 02bd 29de 20bd
00000370: 30f7 003c 5451 3fbd 66e4 293c 0d2c 10bd
00000380: 9706 e13d 92ba fc3d 95c9 cd3d d09b 063e
00000390: 01de 2dbd 29a1 ed3d 7904 dc3d 1eae 8bbd
000003a0: c65f 023e b5d2 8f3d 1a8c 8b3d 1a1a e43d
000003b0: bb9a 1a3e eebc 11ba 69c0 0c3d 2bdd 48bd
000003c0: 198d 5e3d 652b 2bbd 8842 f43d 601c ce3d
000003d0: dda0 87bd 7473 043e 9164 f33d ee2f d4bc
000003e0: 28cd 1abd 7088 903c 96de 143e e933 96bd
000003f0: 021f 293d ecfd 523d 3497 003e 6374 b13c
0.10152375 0.01907096 0.121255726 0.13755114 0.09581434 0.06388174 -0.06940547 -0.048559863
-0.005775715 0.033509042 0.031766847 -0.05790104 0.13395903 -0.07738794 0.083070286 -0.0572101
0.1622058 -0.04746458 0.13091914 0.10501621 -0.046700407 0.104408726 -0.08263732 0.0061428943
0.059563488 -0.03947236 0.11099756 0.02049227 0.007830456 0.12266558 0.013649016 0.03154671
-0.08339149 -0.051528875 -0.029744614 -0.01385223 0.08885155 -0.08222025 0.057080787 -0.0798698
0.10298652 0.058457058 -0.12500729 0.0804489 0.10591742 0.0937082 -0.018746361 0.09775212
0.0841773 0.1121282 0.07179082 -0.06039577 0.032705955 -0.05827767 -0.045235027 -0.073187955
0.10448437 -0.008889131 0.12232851 0.10536964 0.07418197 -0.0010963295 0.07804867 0.0013238996
0.10625488 0.11077786 -0.023950359 0.041772876 0.07201312 0.058646567 -0.034283347 -0.05664035
0.028424138 0.05711351 0.07069217 -0.0867782 -0.021719525 -0.012305286 -0.03790308 -0.020964164
-0.069959976 0.027712906 -0.032838758 0.0965165 0.083349645 -0.049380064 0.07308042 -0.057735115
0.08139049 0.12058523 -0.005957712 -0.09496906 0.051069174 0.042687297 -0.029152747 -0.019409755
0.13301408 0.060624305 0.0062038954 -0.030396428 0.011752311 0.0023506335 0.0013342776 0.0051397677
0.11693404 0.058692332 0.035280246 0.0075172987 0.12659094 0.018608542 0.080337346 0.05955967
0.1003866 0.12728761 -0.057136506 -0.07119228 -0.054793295 -0.09054942 0.14858611 0.13468179
0.014594212 0.038254667 0.039794814 -0.06435034 -0.036948692 -0.13981685 0.0669692 -0.102421135
-0.019870054 -0.13103475 0.13879259 0.094215974 0.048838366 -0.07279778 0.109676085 0.040381018
0.02201082 -0.021981087 -0.10331775 0.07884872 0.028293556 0.03242886 -0.019066853 -0.08953283
-0.12837948 -0.045148063 -0.02226047 0.10106108 0.067547984 0.0026276216 0.13064168 0.10646979
-0.0019804537 0.02480872 -0.022860344 0.06999236 0.063129306 0.0693586 -0.08390596 0.02100688
0.0018019392 0.046922226 -0.07988963 -0.13886203 0.10377296 0.12901248 0.13163328 0.061553266
-0.092980824 -0.13088904 -0.093153514 -0.014678138 -0.097166315 0.040109277 -0.044373866 -0.12948635
0.07237527 0.11232366 0.026615422 0.03481162 0.0456951 0.08157981 0.10665044 0.12989569
-0.113181844 -0.15177041 -0.026986873 0.046384815 -0.021978976 -0.042731922 -0.031775296 -0.116605125
0.053493336 0.025921682 -0.010980524 -0.06765117 -0.030958228 -0.022785762 0.15434763 0.017464885
-0.012843375 0.13904187 -0.053343523 0.090535484 -0.020922927 -0.07182255 0.11357934 -0.06212895
0.04667893 0.089740776 -0.08063681 -0.02739377 -0.04837787 0.014134315 -0.07741055 -0.0023806104
0.0378106 0.08217132 -0.031793933 -0.03927437 0.007871434 -0.04670842 0.010369396 -0.03519826
0.10987585 0.12340273 0.10048214 0.13145375 -0.042448048 0.116030045 0.107430406 -0.068203196
0.12731847 0.07022611 0.068138316 0.11137791 0.15098087 -0.0005559464 0.034363184 -0.049039047
0.05433378 -0.04178943 0.11926752 0.10064006 -0.06622479 0.12934667 0.11884416 -0.02590176
-0.03779331 0.017643183 0.14538035 -0.0733412 0.041289337 0.05151169 0.1255768 0.021661943

bias_hh f4 [256]
00000000: 312e 563d 3f32 bfbd 1220 3b3d 2099 0b3e
00000010: 61fa a03c b8b1 f43d d6b2 cf3d 69ff 713d
00000020: f7cb 8d3d 67f9 37bd 39ec c33c 8caf f53d
00000030: d7f7 9cbd b334 983d 6cae e93d 3e1a 643c
00000040: f5ae b23d bda7 d53a 66e2 073e 0b97 d13d
00000050: 4c0f aabd 8edb a53c 4fbd 943d 5b3a 04bb
00000060: d07e 1c3d ead4 493d e221 973d 4569 833d
00000070: 35b7 023e d6c9 fd3d b4f9 b8bb 494b 8fbd
00000080: bfc5 493d db40 9abd 6658 943d 99f2 333d
00000090: 5b88 843d 25d4 f83d eb66 f9bc 3339 afbd
000000a0: 485f 6c3d b593 02bd 8377 45bd 2b49 c73d
000000b0: c599 9cbd 708e 9a3d fd6e 82bd 1409 083e
000000c0: 924d d8bd 0609 083e d23e 15bc 14ec 413d
000000d0: 7f53 35bc 699d e43d c936 3bbd 6f28 ab3d
000000e0: f54a b23d 50c3 d0bd 585e b23d 9bf4 4fbd
000000f0: edcc bf3d fd44 5fbd efde 6cbc e526 043e
00000100: 05d1 303e 579f b2bd 23e8 c83c 5077 24bc
00000110: e7a3 dd3d 8159 173e 3367 e53c eed8 80bd
00000120: ad9a 7d3d 7ce7 edbd 7109 5e3d 6ac5 30bd
00000130: 41ab a6bd 1a8d 90bc ca1f 113b 4b8b 243d
00000140: 6f1e 7fbd 110e 553d f9ee 72bb 7fa1 c53d
00000150: ba59 f53d 95c4 2abc e242 81bb 7e56 74bd
00000160: e5b8 e7bc 2b38 923d 9b39 843d 5309 2bbd
00000170: cb39 89bd 00d0 f73d f073 41bd d9ea 8f3d
00000180: 62b5 813d 23c1 243d d7cf e73d 6963 223e
00000190: f2cf b5bd 1640 023e dea5 033e 5fe9 8cbd
000001a0: 51eb bdbc 3b3c 3e3d 1ba6 8cbd 6074 f23d
000001b0: 9f0f ef3d a932 ad3d 2977 323d 6f47 e9bc
000001c0: 1d2f 2fbd 5d46 35bd 6b5f 5bbd 58b6 5c3d
000001d0: f6a5 1d3d d54e e03d fbcb 97bc eabf b63d
000001e0: cc1c 43bd 50d6 cebd 8c67 2f3c d6a5 4e3d
000001f0: c1af 483d 0c95 783d 6ac4 f8bc 47b5 883b
00000200: df1d 4abd a1b2 eabd f9a2 d9bc 40da c53d
00000210: 3e31 a0bd cb28 d13d d3b9 f8bc 6300 e53c
00000220: 4e50 b73d 98d8 843d d26e 8d3c ebee 07bd
00000230: c36a 783d ab4f 57bc c797 bf3c d981 dd3d
00000240: fa3f b9bc 8e4d 2cbc 6ed7 a9bd 27e9 e4bc
00000250: 02a2 0fbe cfe5 0abe e13f 79bd 67f2 bc3b
00000260: 2845 05be c310 9a3d a6fe a2bc 9770 a43d
00000270: d632 453c 507f eebd c962 aa3d 4fa5 c13d
00000280: 9692 9ebc 59c6 8f3d 4f6b d13d 749f 5dbd
00000290: dc22 a23d d705 ef3b a6ab 113e 493b 2ebd
000002a0: f518 e33d 78fa 173c e4ca 11be 4773 bebd
000002b0: 8451 9e3d 67e3 80bc db65 19bd e77b 853d
000002c0: e76d 873d b28e 0a3e 0152 f03d a4ee f8bd
000002d0: 77cb b4bd 9ee0 cd3b 6045 e93d 5756 2b3d
000002e0: 6680 3bbd df47 f13c 6333 793d eec8 84bd
000002f0: 2d16 a63d 9415 dfbd 54a1 15be 870f dfbd
00000300: f90a 2f3d 7cd7 e33c 7105 a0bd 2a8e 28bd
00000310: 8648 433c b39f 39bd f2eb 3abc 6e36 b63b
00000320: 3bfe 003e 009d aabc 101d 9a3c ea85 4e3d
00000330: bf9f 9cbc 51ad b43d 42fa c8bc 83df 8dbd
00000340: 21fe 143e e150 8d3d 430f 6c3d c6d3 85bd
00000350: c77d da3d 5bc4 3a3d fc75 e03d b0d7 abbd
00000360: e008 6a3d 53dd 0bbc 5abe 08be 106e 883d
00000370: 0ff3 b8bd 1b64 0f3e 8256 b13c 2eca b73d
00000380: d2d6 eabc 8ab8 71bd 8ede 123d 987e e83d
00000390: f777 ed3d 5b79 82bd 5ac2 a43d a691 aebd
000003a0: fe21 1abd 1678 123e d9f4 e03d 0676 a33d
000003b0: bb59 053e a4c3 c23d 61dd 843d 7c37 c73d
000003c0: fd3a 2b3c b978 e23d cd06 ad3c b04d 033b
000003d0: 57c4 a1bc cf80 d4bb 7ac5 3ebc d439 7abd
000003e0: 0c02 cb3d 8277 e4bd 85d9 923d 8a08 0d3e
000003f0: 864f be3d 0934 893c 16e5 97bd 93f0 8bbd
0.052290145 -0.093357556 0.04568488 0.13632631 0.01965064 0.1194796 0.10141532 0.05908147
0.06923669 -0.044915583 0.02391635 0.119963735 -0.07664459 0.074319266 0.114102215 0.013922272
0.08724777 0.00163006 0.13269958 0.10233887 -0.08303699 0.020246293 0.0726267 -0.0020176384
0.038206875 0.049275316 0.073795095 0.06416563 0.127652 0.12392013 -0.0056450013 -0.069967814
0.04926085 -0.075319014 0.07243423 0.04393253 0.0647132 0.12149838 -0.030444583 -0.08555832
0.057708055 -0.031879146 -0.04820968 0.097307526 -0.07646517 0.07546699 -0.063688256 0.13284713
-0.1056167 0.13284692 -0.009109216 0.047344282 -0.01106727 0.11162836 -0.045706544 0.083573215
0.08705703 -0.10193503 0.08709401 -0.050770383 0.09365258 -0.05450915 -0.014457448 0.12905462
0.17267235 -0.08721798 0.024524754 -0.010038212 0.108222775 0.14780237 0.02800331 -0.06291376
0.06191509 -0.11616418 0.054208223 -0.04315702 -0.08138133 -0.017645407 0.0022144192 0.040171903
-0.062284883 0.052015368 -0.0037068708 0.096499436 0.119800046 -0.010422845 -0.0039447406 -0.059652798
-0.028286407 0.071396194 0.064563 -0.04175694 -0.06700476 0.1210022 -0.047229707 0.070272155
0.06333424 0.040223252 0.11318939 0.15858234 -0.08877553 0.1271976 0.12856242 -0.068804495
-0.023183497 0.04644416 -0.068676196 0.11838603 0.11672901 0.08456928 0.04357067 -0.028476445
-0.04276954 -0.044256557 -0.053557795 0.053884834 0.03848835 0.10952536 -0.018529883 0.089233235
-0.047634885 -0.100994706 0.01070584 0.050451122 0.048995737 0.060689017 -0.030367095 0.0041720006
-0.049344894 -0.11459852 -0.02656697 0.096607685 -0.07821892 0.10212859 -0.030362045 0.027954286
0.08950864 0.064866245 0.017264757 -0.033186834 0.06064869 -0.013141553 0.023387803 0.10815782
-0.022613514 -0.010516537 -0.08293043 -0.027943207 -0.14026645 -0.13564228 -0.060851935 0.0057662013
-0.13014662 0.07522728 -0.019896816 0.08029287 0.012036046 -0.11645377 0.08319623 0.09455358
-0.019357007 0.07020254 0.102255456 -0.054107144 0.07916805 0.0072943973 0.14225635 -0.042537007
0.110887446 0.009276025 -0.14237553 -0.09299331 0.077303916 -0.015733434 -0.037450653 0.06517773
0.06612759 0.13530996 0.11734391 -0.12154892 -0.0882787 0.00628288 0.11390185 0.041830387
-0.045776747 0.029453216 0.06084002 -0.06483637 0.081096984 -0.108927876 -0.14612323 -0.108916335
0.042735074 0.027812712 -0.07813538 -0.041151203 0.011919146 -0.045318317 -0.011408793 0.0055606877
0.12596981 -0.020826817 0.018812686 0.05042068 -0.019119142 0.0882212 -0.024533395 -0.06927397
0.14550067 0.06900192 0.057631742 -0.06534533 0.106685214 0.045597415 0.10960004 -0.083907485
0.05713737 -0.0085366545 -0.13353863 0.06661618 -0.09030735 0.14003031 0.021647695 0.089741096
-0.028666887 -0.05901388 0.035856776 0.11352271 0.11595147 -0.06370803 0.08044882 -0.08523874
-0.037630074 0.14303622 0.10984201 0.079814956 0.1302251 0.09509972 0.06487537 0.0972738
0.010451076 0.11058182 0.021121407 0.002003532 -0.019746942 -0.0064850817 -0.011643762 -0.061090305
0.099125 -0.11155607 0.07170395 0.13772789 0.09292512 0.016748445 -0.074167415 -0.06832995

weight f4 [64, 128]
00000000: 8897 b6bd 0bfa 1dbc 621e 99bd 24f4 ce3b
00000010: 2ae2 81bd 26a1 d9bd 524d be3c 5666 66bd
00000020: e449 e53b 8eb7 a5bd 12c5 4bbd 876b c33c
00000030: 0f63 44bd e376 a73b a2ab 783c 60d0 38bd
00000040: 92be 6cbc 60ad 0e3e 6864 86bc aa05 debc
00000050: 0687 393d e522 78bd d60b 9ebc 2a3b 453d
00000060: b092 38bb 8cda edbb dc53 80bd aadd 993c
00000070: 5951 a7bd dc08 4cbd a534 c9bc d61f 1bbd
00000080: fc2f dcbd ea30 3cbd 4410 54bd 48fc deba
00000090: 3f8b 843b b515 943d 8ddc aabd ccd9 8e3d
000000a0: 564c a93d 409e 9e3d a56b 71bd a970 1ebd
000000b0: 2840 c1bd 4159 dbbd effc 443c 9319 73bc
000000c0: f25b 8e3b d084 a7bd e100 08be db41 b2bd
000000d0: 47b3 f8bd b5c0 60bd 40a9 c03b 8f5f 4ebd
000000e0: a2a8 213d 92ac a2bd d532 f83c 13c4 5dbd
000000f0: 179e 70bd cb80 32bb eabe a5bc a9b0 ff3d
00000100: 88e1 76bd 9c8f fbbc a781 8dbd 7e93 53bd
00000110: 2e1e 583d c6d5 90bd 862e 03bd 50bd cbbc
00000120: 37ce c3bd 4c08 97bd 2da7 8abd d395 113d
00000130: 51a0 9bbd b501 aabd 97fe 843d fd85 d3bb
00000140: 51dc 4a3c d77e 0e3d 1e04 a9bd 5fd2 82bd
00000150: 23ce 7c3d 5a7e 0c3d 586d 4a3d fc1d 243d
00000160: 2d94 9c3d 2ffe 9d3c 8b90 6dbb f793 863d
00000170: ae67 3abd 138c b03c dde8 68bd e46e acbc
00000180: d89b 7bbc c6cc 86bd 093b d53c fa22 d83c
00000190: a6ce 4cbc 7eba bf3c fefb c5bd 4418 213d
000001a0: e764 853d d0ca bd3d a536 0bbd 88fb 5fbd
000001b0: 1d59 74bc 1ec6 803d d53a 2b3d 3dad 1bbd
000001c0: 6100 843d fad4 a2bd ce71 e73c 10cb 0fbd
000001d0: 6a53 493d 3e0b 903d ca43 c2bd 2c35 c4bd
000001e0: c5f9 92bc 7f52 a7bc b329 8fbd 0f1f 98bc
000001f0: 45c7 b23d 4b6e cc3c 469d 35bd d959 f83c
00000200: 5ced 503c a3d5 21bd ae94 2ebd d677 36bd
00000210: bccc b9bd ee2f 413c d067 aabc 6503 883c
00000220: a17d 52bd a986 86bd 1f02 5f3d c468 00bc
00000230: c0f6 403b 8535 c43d e031 96bb bbcb 0cbd
00000240: c567 e4bd 50fe 9c3c db82 53bd 1f80 90bd
00000250: 9791 34bd 74e2 a73c 4a34 20bd 1781 8f3d
00000260: afe1 a9bd 8d89 cabc cf70 4fbd 696f 64bd
00000270: 9ae7 0cbd e7fa 8d3d aefd ba3d e6a2 95bd
00000280: 6c39 f539 b662 563d ed69 e1bc 2a39 6cbc
00000290: 40af 91bd aee8 373c d2bd e83d 0afe a23d
000002a0: a525 4fbd 3cfe 9fbc 5b3d 90bd e5ee 6bbc
000002b0: 499b 363d d6ff 333d 7163 29bd 25ee 04bc
000002c0: 9865 623d 9edc 133e 5edb 263d 02d5 b23d
000002d0: d843 e73d 94b7 4cbd c48d d0bb 0235 1e3c
000002e0: 1388 06bd cdb2 86bc f26d 86bd 509d 04bd
000002f0: b37b fc3c 937b 9bbd dadd 55bd f9bf a2bd
00000300: 5843 55bd cacd b6bd c4d6 ec3a 6621 d23d
00000310: b5c2 60bd 5fb8 81bd b87a f4bc 7b9a 923d
00000320: 6bef 82bc c6a1 bd3d e427 413a 4020 d73d
00000330: 5988 d83d fb93 d73d 9ebe 363d 1356 37bc
00000340: 6ff9 ccbd fa48 03be 3c6b a03d 8cae 8d3d
00000350: ccd6 c4bc ec87 273d 0ee3 893c e312 c93d
00000360: bee2 cdbd ac8e 0e3d dce3 4a3b 28f8 743d
00000370: 2ba2 a83b c771 98bd d326 b5bc 43b8 bbbc
00000380: 0718 303d b1bf f9bb d116 fe3c 97f8 6fbd
00000390: 6f0b 26bd 9529 81bd 000f be3d 3f71 77bd
000003a0: 378a 99bd 7a37 e93c 60b1 913d 2bd8 873d
000003b0: e077 32ba d47d efbc 7b6f 3cbd 40aa c9bc
000003c0: 7912 85bd fd8b 993d 84b9 093e fe5c acbc
000003d0: bebb b93c e548 25bd afbd 7ebd 3dcd 733b
000003e0: c4d3 103d 1ca9 5bbb 9ae1 2e3d b014 debd
000003f0: ad88 66bd c994 b7bc 4240 75bd 007b 2bbd
-0.08915621 -0.009642134 -0.07476498 0.006315725 -0.063419655 -0.1062644 0.023230229 -0.05624994
0.006997334 -0.08091651 -0.049748488 0.023854984 -0.047946032 0.005110608 0.015177639 -0.045120597
-0.014449732 0.13933325 -0.0164053 -0.02710231 0.045294784 -0.060580153 -0.019292753 0.048152126
-0.0028163604 -0.007258719 -0.06265995 0.018782455 -0.08169813 -0.049813136 -0.024561236 -0.037872158
-0.1075134 -0.045945086 -0.051773325 -0.0017012442 0.0040449197 0.07230703 -0.08342848 0.06975135
0.08266513 0.077450275 -0.05894055 -0.03868166 -0.09436065 -0.10710383 0.012023195 -0.01483764
0.004344457 -0.08179629 -0.13281585 -0.08703967 -0.121435694 -0.05487128 0.005879551 -0.0503841
0.03946746 -0.079430714 0.030297676 -0.05414207 -0.058744516 -0.002723741 -0.020232636 0.12484867
-0.060273677 -0.030708127 -0.06909495 -0.05165433 0.052763157 -0.07072024 -0.03202679 -0.024870545
-0.09560817 -0.073746294 -0.067701675 0.035543274 -0.07598937 -0.08301107 0.06493872 -0.0064551816
0.012381629 0.034788933 -0.082527384 -0.06387781 0.061720025 0.034300186 0.049420685 0.040067658
0.0764545 0.019286243 -0.0036249484 0.06571191 -0.045509033 0.021551168 -0.0568627 -0.02104897
-0.01535698 -0.06582026 0.026029127 0.026383866 -0.012500441 0.023404356 -0.09667204 0.039329782
0.06513386 0.09267199 -0.03398766 -0.05468324 -0.014913824 0.06287788 0.041804153 -0.03800701
0.06445385 -0.07950778 0.028252508 -0.035105765 0.049151815 0.07033394 -0.09485586 -0.09580454
-0.017941365 -0.02042508 -0.06990375 -0.018569497 0.08729414 0.024954936 -0.04433944 0.03031628
0.012751903 -0.03951038 -0.04262226 -0.04454788 -0.09072253 0.0117912125 -0.020801455 0.016603181
-0.05138934 -0.06568653 0.054445382 -0.007837478 0.002944395 0.095805205 -0.0045835823 -0.03437398
-0.11152605 0.019164234 -0.051638465 -0.07055687 -0.044084158 0.020493723 -0.039112367 0.07007044
-0.08294999 -0.024723792 -0.050644692 -0.05577031 -0.03440056 0.069326214 0.09130417 -0.07306461
0.00046772824 0.05234023 -0.02751633 -0.014417926 -0.071135044 0.011224909 0.1136433 0.0795861
-0.05057301 -0.019530408 -0.070429526 -0.014400219 0.044581685 0.043945156 -0.0413546 -0.008113419
0.05527267 0.14439628 0.04073655 0.08732034 0.11292237 -0.04997976 -0.006364556 0.009656193
-0.032844614 -0.01644268 -0.06563939 -0.032376587 0.030820703 -0.07591929 -0.052213527 -0.07946772
-0.052066177 -0.0892597 0.0018069376 0.102602765 -0.054873187 -0.06333994 -0.029843673 0.07158371
-0.015983304 0.092593715 0.000736831 0.10504198 0.10572881 0.10526272 0.04461538 -0.011189955
-0.10008513 -0.12820807 0.07832953 0.06918058 -0.024028204 0.04090111 0.0168319 0.098180555
-0.10053013 0.03480403 0.0030958569 0.059806973 0.005146285 -0.07443576 -0.02211324 -0.022915011
0.042991664 -0.0076217283 0.03101674 -0.058586683 -0.040538248 -0.06306759 0.09280205 -0.060410734
-0.074970655 0.028468836 0.0711391 0.06633028 -0.0006808024 -0.029234804 -0.046004754 -0.024617314
-0.06497664 0.07497404 0.13449675 -0.021040436 0.02267253 -0.04035272 -0.062192615 0.003720119
0.035358205 -0.0033517545 0.04269562 -0.108437896 -0.056282688 -0.022409813 -0.059875734 -0.04186535

bias f4 [64]
00000000: 0b9d a1bd a8d6 b03d 0880 b3bd a21e 7c3c
00000010: 5bcb 2bbc 334d 24bd 1681 923d d469 66bd
00000020: 28d2 b43c 1ff1 22bd a5be c73d 392d d5bc
00000030: b20b 833c e2dc 59bd 03ec b9bc c381 453d
00000040: b799 a73d b398 f63c ee5a a33d 5821 c2bd
00000050: fd83 f33c 399a 743d e7c7 453d 3160 8e3d
00000060: bf36 ba3d 8bb4 fd3b ebf3 08bd 39fa a7bd
00000070: ad93 96bd e390 023d 57fa 253b a1f6 cf3d
00000080: 22df 6039 fd35 93bd 290b ccbc d424 873d
00000090: db5b 453d 03df 76bd 6c99 4bbd b89f b43d
000000a0: 066c a3ba f7ae 893d 179c d9bb abd5 55bc
000000b0: 0c91 23bc c473 47bc 4fea ccbc 98e1 6f3c
000000c0: 4d1b 023c 28c0 75bd 152e 573c 0b59 5b3d
000000d0: 5500 443d 6e41 983c 7ce9 a4bc 8c41 8a3c
000000e0: 00dc 603a f840 90bd 0181 c1bd 25ef b23d
000000f0: beae 583b 7bb0 bfbd 7406 613d e318 9bbc
-0.07891282 0.086346924 -0.087646544 0.015388163 -0.010485495 -0.040112685 0.071535274 -0.05625327
0.022072867 -0.039780732 0.097531594 -0.02602254 0.015996788 -0.053189166 -0.022695547 0.048219454
0.08183616 0.03010211 0.07976328 -0.09479016 0.029726023 0.05971739 0.048286345 0.06951941
0.09092473 0.0077424697 -0.033435743 -0.08202023 -0.07352386 0.031876456 0.0025326216 0.101544626
0.00021445428 -0.07188032 -0.024907665 0.06598821 0.048183303 -0.060271274 -0.04970686 0.088195264
-0.0012468107 0.06722825 -0.006640922 -0.013051431 -0.009983312 -0.012173597 -0.02501407 0.014641188
0.007941079 -0.059997708 0.013133545 0.053551715 0.04785188 0.018585887 -0.020130865 0.016876958
0.00085777044 -0.07043642 -0.09448434 0.087370194 0.0033063139 -0.09359833 0.054937795 -0.018932765

weight f4 [3, 64]
00000000: 70ce bc3d 5741 21be a81e d9bc e2f5 e63d
00000010: fef6 713d 127a 16be c91f e1bc 767b c93d
00000020: 5fa4 003e a7f7 2abd 56b4 ba3b b367 bb3d
00000030: 98f1 d7bc 1dfd 95bd 1652 853d 61e2 b53d
00000040: 67ee e3bb 3bd1 963d a1f0 9d3d cae3 d3bd
00000050: 89d4 d03d 77b4 7b3d 5d32 9a3d 16f4 733d
00000060: 59cd 6dbd ae75 243d ec9c 22bc d54e 263d
00000070: 1c13 e0bb f9d8 b9bd 723e 5a3d d321 d1bd
00000080: 4335 b33c 37da 96bd eeb4 b0bd 95f7 15be
00000090: 4f62 b7bd 910a c73b 60c0 a239 53d9 99bd
000000a0: 37cd d03c 6a79 80bd adbd f9bd 51b4 983a
000000b0: 078e a33c 0897 f93d c7d8 923d 406f a4bd
000000c0: bfc5 e33d b05a bfbd d71e 503c 4767 0cbe
000000d0: 5569 eebd 31ef 95bd 4931 c5bd 57de f03d
000000e0: bac5 d4bd ff96 c63d e317 393d 94f9 d83d
000000f0: 958c a3bc fc08 88bc 6c0a bc3d fa7d f93d
00000100: c1e4 3fbd 898a 963d 04af 07be 9337 efbc
00000110: 1db7 993c 4cf0 183e 4442 5f3c eb2a a9bd
00000120: 50f9 4c3d 16d0 603d b318 f43d b332 853d
00000130: fb6e cebd 9d4b 4abd 88b5 123d 254f f5bd
00000140: 46a9 a63d 3a63 d3bd 2390 8b3d afb8 f5bd
00000150: eab5 5dbd 33e5 b7bd 989c 07be 7f9c 42bb
00000160: adaf 433d e4ff 01be e627 d1bd d10c 81bd
00000170: 8e52 413d 7bbf fb3b bb8d f9bd 9c02 103e
00000180: 2d96 9d3d dd8a 9abd e1d2 d63d 9ce7 b4bd
00000190: 1b05 943d 7fb7 c03b 0da6 ee3d 35b4 b53d
000001a0: 6424 fc3d 7838 e5bd bd6f b7bd ef94 5e3d
000001b0: 5b55 ebbd 6ae1 29bc 5c06 26bd 1e3f 3abd
000001c0: a89c e3bd 99d9 aabb ed83 09be 26c2 c63d
000001d0: d9d0 b8bd 159a 7fbd 0202 a6bc 7537 f6bc
000001e0: 70be a23d c77c 04be 6683 0fbe 877f d73d
000001f0: c535 d1bd ad61 a6bd 247f d6bc cde2 793d
00000200: ac7d 05bd e383 713c e99b fb3d 00fd ddbd
00000210: 570a dcbd 49dc adbc 2351 f43d d7cf 96bd
00000220: f28c 33bd 5505 cd3d f53a 7ebd 77cb 7a3a
00000230: d975 013e c390 8bbc b239 0bbe 59ad e4bb
00000240: 62a1 16be b558 26bd 417f d2bd 3833 f73d
00000250: 015c f5bd 8cdb 10be 0176 4cbd d18e c7bd
00000260: 97dd 8fbd 60bf b5bd 8365 04bd 15ce d2bb
00000270: d19c 073e c4f4 06be ab3b 073e c840 1fb9
00000280: c04c c1bc e6a4 983d 74e6 e6bb 68f7 603d
00000290: da89 1c3c d2e1 0d3d 8083 52bb 19f6 cbbd
000002a0: cc83 fbbd d86e 7b3d aeed 1bbd 9558 e7bd
000002b0: ec6d e13d 0d4b 663d d995 173b 8880 a3bd
000002c0: a836 8b3d 08fb ba3c 7d1b 8d3d dee9 723d
000002d0: 5da8 b23d f626 e13d 62b9 323d cd02 ea3d
000002e0: 208c 0d3d dc30 b63c 8b80 c33d 86c9 83bd
000002f0: c09f 1a3d 8ba8 e0bd c245 19bd 321b 983c
0.09219062 -0.15747581 -0.026503876 0.11277367 0.05907344 -0.14695004 -0.027480977 0.098380014
0.12562703 -0.041740086 0.0056977673 0.091506384 -0.026360318 -0.07323668 0.06509797 0.08881069
-0.00695591 0.07364126 0.07711912 -0.10346182 0.10196788 0.0614514 0.07529137 0.05955895
-0.058057163 0.04015129 -0.009925108 0.040602524 -0.0068382155 -0.090745874 0.05328221 -0.102115296
0.021875983 -0.0736584 -0.086282596 -0.14645226 -0.08954298 0.0060742577 0.00031042378 -0.075121544
0.025488479 -0.06273158 -0.12194381 0.0011650418 0.019965185 0.1218701 0.07170253 -0.08029032
0.111217014 -0.09343469 0.012702665 -0.13711272 -0.11641184 -0.07321013 -0.09628541 0.11761158
-0.10389276 0.09696769 0.045188796 0.10594478 -0.019964496 -0.016605847 0.09181675 0.12182231
-0.046849016 0.07350642 -0.13250357 -0.029201305 0.018764073 0.14935416 0.013626639 -0.08260139
0.05004245 0.054885946 0.119187735 0.06503811 -0.100797616 -0.049388517 0.035817653 -0.11977986
0.08137755 -0.1032166 0.06814601 -0.11998116 -0.054128565 -0.08979263 -0.1324333 -0.002969533
0.04777496 -0.12695271 -0.10212688 -0.06301273 0.04719787 0.0076827384 -0.12185236 0.14063495
0.076946594 -0.07546017 0.10489441 -0.088332385 0.07227536 0.0058812494 0.116527654 0.088722624
0.123116285 -0.11192411 -0.08956859 0.054341253 -0.1149089 -0.010368684 -0.04053341 -0.04547035
-0.11113864 -0.005213928 -0.13429232 0.097049996 -0.090242095 -0.062402803 -0.02026463 -0.03005574
0.07946479 -0.12938224 -0.14014968 0.10522371 -0.10215334 -0.08124099 -0.026183672 0.06100731
-0.032590553 0.014740917 0.12285597 -0.108392715 -0.1074416 -0.021223204 0.11929538 -0.07363861
-0.043835588 0.10010783 -0.062067945 0.0009567062 0.12642612 -0.017036801 -0.13596228 -0.0069786725
-0.1471 -0.04061194 -0.10278178 0.12070316 -0.11980439 -0.1414625 -0.049917225 -0.09744037
-0.07024687 -0.088743925 -0.03232337 -0.0064332583 0.13243414 -0.13179308 0.13206355 -0.00015187555
-0.023596168 0.07453327 -0.007046515 0.054923445 0.009554351 0.034639187 -0.0032121837 -0.09959049
-0.12280998 0.061385006 -0.038068466 -0.112961926 0.11007294 0.056223918 0.0023130088 -0.079835
0.06797534 0.02282478 0.068900086 0.059305064 0.08723519 0.10993759 0.043633826 0.114263155
0.03455746 0.022240095 0.09546002 -0.06434922 0.037750006 -0.10969647 -0.03742004 0.018567655

bias f4 [3]
00000000: d2e0 cb3d 7e75 c23d 8125 8d3d
0.099549904 0.09495066 0.06891919
