nvidia_lstm_0.pth (torch, 840906 bytes, 9 tensors)

weight f4 [2611, 64]
000000 c4 8f 04 3f f0 3d 94 bf 91 c2 17 3f e8 61 4a 3f
       0.5178187 -1.1581402 0.5928126 0.79055643
000010 78 4e 63 3f ea cb 14 3f 11 b0 4c be fb 11 2f 3f
       0.8879161 0.5812365 -0.19989039 0.6838681
000020 e2 bf 85 3f 51 bb 01 c0 f2 98 a4 be ab eb ca 3f
       1.0449183 -2.027058 -0.32147938 1.585317
000030 34 1a cc 3e cd 4e 91 bf ef d2 2d 3e a3 fe 82 bf
       0.3986374 -1.1352173 0.16974996 -1.0233959
000040 f1 ef d5 3f db 8d 80 be 68 3c 9f bf c1 8f e1 3d
       1.6713849 -0.25108227 -1.244031 0.11013747
000050 86 20 b7 bf 6a cb 7e 3e f7 f9 2f bf 38 32 33 3f
       -1.43068 0.24882284 -0.6874079 0.699985
000060 d2 0d 98 3f 7f 2d f8 3f 19 47 41 3e 15 d7 5d bf
       1.1879218 1.9388884 0.18874778 -0.86656314
000070 71 ca 2a be 25 c0 04 40 f2 51 84 bf 04 f8 53 3f
       -0.16678788 2.0742276 -1.0337508 0.82800317
000080 e9 80 ca be 54 d8 73 be c3 7c d4 be f3 8f 8e bf
       -0.39551476 -0.23812991 -0.41501436 -1.113768
000090 59 77 aa 3f 27 bc 33 bf 3c 55 94 bf f9 6e d7 be
       1.3317672 -0.7020897 -1.1588511 -0.42076853
0000a0 9f 6d 96 be 8c 09 05 40 a4 9a 1c bf 86 a4 42 bf
       -0.2938051 2.0787077 -0.6117346 -0.7603229
0000b0 f4 4b 13 3f 97 66 16 3e 44 5c 8c be dd 22 62 3f
       0.5753777 0.14687572 -0.27414143 0.8833445
0000c0 b9 33 cd 3c 71 57 e5 3f cc d5 73 3f 8a fb be 3f
       0.025049077 1.791731 0.95248103 1.4920514
0000d0 0c bd d9 3f e1 96 47 3f f1 48 0d c0 8f 9f 43 bd
       1.7010818 0.779646 -2.207577 -0.04775959
0000e0 3c 31 e7 3f cb a5 dc bd a9 0b 62 3f ec e5 72 be
       1.80619 -0.1077381 0.8829904 -0.2372052
0000f0 7c 98 0d bb ff 20 4a bf 62 e9 11 3f 8f c8 ef be
       -0.002160578 -0.789566 0.5699674 -0.46832702
000100 56 a0 0e 3e 1a 5d c8 bf c8 5f 73 3e 13 98 af 3f
       0.13928351 -1.5653412 0.23767006 1.3718284
000110 ca 38 e7 3f f0 cd 8e be 1a a2 4c 3f 71 b7 0a bf
       1.8064206 -0.27891493 0.7993485 -0.5418616
000120 50 63 30 bf 65 d1 23 be db 9d 2b 3c 50 95 94 bf
       -0.6890154 -0.15997846 0.010474647 -1.1608067
000130 4d 78 ad be da 29 86 bf 11 2d 80 3f d4 5e 39 3f
       -0.33880845 -1.0481522 1.0013753 0.7241032
000140 8a 6c d2 bf 78 46 84 bf 38 50 71 3f 95 a1 83 3f
       -1.6439373 -1.0334005 0.9426303 1.0283686
000150 94 d5 21 3f 03 f1 0e bf 5d 8c 33 3f 21 d2 cd bf
       0.6321652 -0.55836505 0.7013605 -1.6079751
000160 91 e1 c2 3f f1 84 90 bf f3 3f be bf ac fc 1e c0
       1.5225087 -1.129057 -1.4863266 -2.4841719
000170 d2 57 d0 3e 92 b7 0d 3f 58 7d 66 c0 68 f8 5e bf
       0.40692002 0.5535823 -3.6014004 -0.8709779
000180 dc b2 27 3f ac 5a c1 be 0d 41 24 3d 04 10 49 3e
       0.6550729 -0.3776449 0.0401011 0.19635016
000190 fe 2f 5a bf 96 ca d2 3f 65 9f f5 be 49 7f 1f c0
       -0.8522948 1.6468074 -0.4797317 -2.4921439
0001a0 0b 91 51 bf 80 43 c7 3e 7d e6 ce 3e a9 5b 09 3f
       -0.81861943 0.38918686 0.40410224 0.5365549
0001b0 27 1e dd 3d 17 45 7f 3f 04 1c 56 3f 7d 23 67 3d
       0.10796767 0.997148 0.836365 0.05643033
0001c0 57 a3 c5 3d 3e cd d0 be 59 f5 bb 3f e5 be 03 bf
       0.09650295 -0.40781587 1.4684249 -0.51463157
0001d0 53 36 91 be aa 8c d0 bf 9b 98 b4 3f 73 4e c8 3f
       -0.2836176 -1.6292927 1.4109071 1.5648941
0001e0 76 16 b4 bc 7b 5d 20 c0 aa 42 8d bf 37 cb 47 3e
       -0.021983366 -2.5057056 -1.1035969 0.19511114
0001f0 ef 7f 57 3f b8 bf 84 3d 8e 62 ea be 58 d0 8e 3f
       0.84179586 0.0648188 -0.45778316 1.1157331
000200 99 26 b6 bf 4b ee d1 be e6 cf e9 3d 83 31 12 bf
       -1.4230529 -0.41002116 0.114166066 -0.571068
000210 03 5d 0b 3f 8c 02 38 c0 4f e9 97 bf e8 67 8e bf
       0.544388 -2.8751554 -1.1868075 -1.112546
000220 f6 c7 28 3e 09 28 b7 3f 75 aa e6 3e 7d e0 be be
       0.16482529 1.4309093 0.45051923 -0.37280646
000230 74 44 25 bf 7d 25 94 bf 21 63 01 bf b3 98 81 be
       -0.64557576 -1.157394 -0.50541884 -0.25311813
000240 cb 53 67 3f 89 e3 44 3e 92 f6 be 3f 47 51 8e 3e
       0.9036223 0.19227423 1.4918997 0.27796385
000250 8a d0 e6 3e cf e4 39 bf 67 2e c3 3f de 6f 9d 3f
       0.45080978 -0.7261476 1.5248536 1.2299764
000260 a2 c7 9c 3f 3e 63 93 3f 1d ab 47 3f ab 39 84 3f
       1.2248423 1.1514661 0.77995473 1.0330099
000270 95 d7 fd bf ef d0 87 be 6e 70 79 3e 26 57 35 bf
       -1.9831415 -0.2652659 0.24359295 -0.708361
000280 9c ec cd 3f d8 79 07 40 4a 57 62 bf 2f 42 60 be
       1.6087832 2.1168118 -0.8841444 -0.21900247
000290 d4 78 b2 bf 16 71 2b bf 7e c7 ca bd e1 a8 3d 3f
       -1.3943124 -0.6696943 -0.09901331 0.74085814
0002a0 b5 7d 11 be 45 be 47 be fd 25 a6 be 4f de eb bc
       -0.1420811 -0.19506176 -0.32450858 -0.028792528
0002b0 9b 76 8b 3f 18 dd b7 bf a2 81 62 bf 2e 49 2b 3f
       1.089557 -1.4364347 -0.88479054 0.6690854
0002c0 94 1e de bf 31 6f d5 3f 14 e1 8c bf 79 86 97 bf
       -1.7353082 1.6674558 -1.1006188 -1.1837913
0002d0 35 66 c3 3e c6 e8 7f 3f af c6 3e 3f 06 e5 ac 3e
       0.38163915 0.9996456 0.7452192 0.3376848
0002e0 ca 2f 5a 3f 66 01 ec 3e e7 62 a5 bf 5c 18 8f bd
       0.8522917 0.46094817 -1.2920808 -0.06987068
0002f0 8f 7c 48 3e 4c e5 f3 be be bf 93 be 7e b9 06 3e
       0.19578765 -0.47635877 -0.28857225 0.13156697
000300 8a 1e 95 3e 26 3d be be db b7 63 3e 50 2d 91 bf
       0.29124862 -0.37156028 0.22238104 -1.1341953
000310 15 32 8e bf 34 ad d3 3e fd 3b 2d bf 89 1e 78 3f
       -1.1109034 0.4134308 -0.6766966 0.9692159
000320 bb eb a3 be aa 7d 77 bf 6d 60 45 bf 5d df e9 3f
       -0.32015786 -0.96676123 -0.7710026 1.827129
000330 f4 2f 85 be f0 a8 31 be 85 c1 8c bc db e2 46 3e
       -0.26013148 -0.17349601 -0.017182121 0.19422476
000340 59 9e db bf 1f 1e 62 3f be e6 85 3f c1 79 2c bf
       -1.7157699 0.8832721 1.0461042 -0.6737328
000350 c4 b0 38 bf fb 1d b6 3f 00 79 11 3d e5 d8 e6 3f
       -0.7214472 1.4227899 0.035515785 1.8034941
000360 53 56 f2 3e 9b 5b 88 be 40 22 9b 3f 64 24 5e bf
       0.47331485 -0.2663239 1.2119827 -0.8677428
000370 ff 94 48 bf 3a 64 4c bf 74 0c d7 be 4b 57 a1 3f
       -0.7835235 -0.79840434 -0.42001688 1.2604765
000380 88 41 9f bf a0 74 8a 3e 01 77 87 bf c8 83 b2 3f
       -1.2441874 0.27042103 -1.0583192 1.3946466
000390 ad 25 c8 3e a8 be 14 3f df 51 dc bf 72 da 63 3f
       0.39091244 0.5810342 -1.7212485 0.89005196
0003a0 67 b6 85 be 80 f3 24 3f 3d 9c 50 bf df 3a f8 3d
       -0.26115724 0.6443405 -0.814884 0.12120604
0003b0 69 dc a0 3f f1 14 c6 3e f1 d8 19 bf b3 39 c6 be
       1.2567264 0.38687852 -0.6009665 -0.38715896
0003c0 cd e5 5e 3f d6 e6 95 3f ae 1c 0a bf 56 bb ea 3e
       0.870694 1.171107 -0.5395001 0.4584605
0003d0 eb e0 6e be ae cf 3c 3f 95 2b 42 3e e1 69 2c 3f
       -0.23327987 0.73754394 0.18961938 0.6734906
0003e0 b8 4a cd 3f ee 7e 4f 3f 88 48 cb bd 14 00 1f bf
       1.6038427 0.81053054 -0.099259436 -0.62109494
0003f0 79 6c 07 c0 73 17 dd be 06 97 b4 bc ad 65 e1 be
       -2.1159956 -0.43181953 -0.02204467 -0.44022885

weight_ih f4 [256, 64]
000000 3b 92 bf 3d 75 c0 61 bd 61 de 63 3d a7 80 c0 bd
       0.09354063 -0.055115182 0.055632 -0.093995385
000010 7e 25 84 bc ec 13 03 be a2 79 d8 bc 3f 58 d2 ba
       -0.016131159 -0.12800568 -0.026425187 -0.0016048028
000020 c5 3b b0 bd 69 50 8b 3d 37 e7 6d 3d 3b c5 f6 3d
       -0.0860515 0.068024464 0.05808183 0.120493375
000030 be 95 f8 3d 49 b3 b3 3c 89 8f 9a bd 2b 18 8b bd
       0.12137936 0.021936076 -0.075469084 -0.06791719
000040 b9 e1 cd 3d 74 4f bc 3b 8d de a2 3d 9b a6 96 3d
       0.10052819 0.0057467762 0.079526044 0.07355996
000050 3e fe d1 bd e9 2f 68 bd 91 a7 87 3d f2 21 7e bd
       -0.10253571 -0.056686316 0.06623758 -0.06204409
000060 69 32 09 bd 7c 2d aa 3d 25 6e 8b bd a9 fa a0 3c
       -0.03349534 0.08309457 -0.06808118 0.019650774
000070 e3 0b e3 3d 67 d1 ff bc 00 a8 be 3d 79 cd 3d 3d
       0.110862516 -0.03122778 0.09309387 0.046338532
000080 17 56 1c 3d 5a 58 c6 bd 29 93 2f 3d 00 d2 08 bd
       0.03816804 -0.096848205 0.042864952 -0.033403397
000090 d1 9f 0f 3d 7d 66 65 3c 3b a7 b9 bc 61 79 6d bd
       0.035064522 0.014001486 -0.02266275 -0.057977084
0000a0 f0 00 94 3d d8 3a d4 3c 9d 22 bc 3d 35 1f 00 3e
       0.07226741 0.025906965 0.091862895 0.12511905
0000b0 ce 0e 83 3d 36 95 ca 3d 38 87 95 bc ca e7 8e 3c
       0.06399308 0.09891741 -0.018252954 0.01744451
0000c0 05 fb 06 bc c9 c8 d8 bd cf 70 8b bd 07 5a e1 3d
       -0.008238559 -0.10585172 -0.06808626 0.110034995
0000d0 eb 10 cc bc c8 e5 94 bc d8 58 4a 3d 66 c1 69 3a
       -0.02491041 -0.018175974 0.049401134 0.0008917063
0000e0 fb 67 2b 3d c4 83 d3 3d 45 e2 12 3b a6 3e 0f bd
       0.04184721 0.10327867 0.00224127 -0.034971856
0000f0 ff cc 16 be 24 9c 1e be 2d 7f aa 3d a2 31 0c 3d
       -0.14726637 -0.1548925 0.08325038 0.03422702
000100 b7 1c c9 bd 85 5d c0 bd 88 60 fb bd 5a d1 40 bc
       -0.0981993 -0.093928374 -0.12274271 -0.011768663
000110 27 04 14 3d 47 db e9 3c 31 50 03 be 5e ab c5 bd
       0.036136772 0.028546942 -0.1282356 -0.09651826
000120 f1 f8 b7 3b 33 e8 54 bd d5 65 51 bd 8f 7d 96 3d
       0.005614393 -0.051979255 -0.051122505 0.07348167
000130 03 0b 0b 3d 12 9d 4c 3c 47 0c 79 bb a1 89 38 3d
       0.03394605 0.01248862 -0.0038001703 0.04505313
000140 b8 13 80 3c 31 bc 88 3d 60 46 ff 3d 7e b0 af bc
       0.015634403 0.0667652 0.12464595 -0.021446463
000150 d4 da d6 bc 28 16 df 3d 75 e1 36 bd 15 4a a6 3d
       -0.026227392 0.10892898 -0.044648606 0.08119599
000160 00 4f 94 3d fc 21 6c 3d af f9 83 bb 52 00 b4 bc
       0.072416306 0.057649598 -0.0040275673 -0.021972809
000170 6d 12 a3 bd c2 53 eb 3d 3c 97 98 3d 8a 19 3e bd
       -0.07962499 0.11490585 0.07450721 -0.046411075
000180 73 9a dc bc 81 8a ad 3c 8b be b2 3c 5c 5a b6 bd
       -0.026929116 0.021184208 0.021819374 -0.089039534
000190 7c 73 3a 3d 79 88 4d 3d 6b 20 e7 3d 4f de 0d 3e
       0.04552029 0.05017898 0.1128548 0.13854335
0001a0 cd 13 b7 3d 2d 23 ba bd 33 6a 40 3d 26 e4 f2 3d
       0.089393236 -0.090887405 0.04697628 0.11859922
0001b0 db f2 75 bc 63 87 0c 3c b4 e3 28 3d 28 9d 46 3d
       -0.015011515 0.008577201 0.04123278 0.04848972
0001c0 8f bc 97 3d 38 7c 93 bd bd 36 26 3d 1b 4b 04 be
       0.074090116 -0.07201427 0.040579546 -0.12919275
0001d0 0a cc d5 ba 96 79 db 3d 9d 3f 71 3c 27 49 fb 3c
       -0.0016311419 0.1071655 0.014724639 0.03067453
0001e0 74 97 f3 3d 17 b2 cf 3d 1a cc 3e bd a8 bf 0a 3e
       0.11894122 0.1014139 -0.046581365 0.13549674
0001f0 4e 7e 8d 3d 86 a6 cd 3b 90 5c 76 3a bb ab 82 3c
       0.06908856 0.0062759547 0.0009397948 0.015951028
000200 84 b5 b1 bc fb fa 85 bd 05 4d 80 3d 51 ac 88 3d
       -0.021692999 -0.06542011 0.0626469 0.06673492
000210 13 f2 21 3d 02 01 c8 bc 96 8c d9 bd 8d 99 e5 bd
       0.0395375 -0.024414543 -0.10622518 -0.11210928
000220 e1 81 18 be 97 4f 69 bd ce ca 9b bd d3 e5 c1 bd
       -0.14893295 -0.05696067 -0.07607041 -0.094676636
000230 15 4f 1a bd 51 5f 0c bd 99 ab ea bd 26 46 48 bd
       -0.037673075 -0.03427059 -0.11458511 -0.048895024
000240 3b e5 81 3d 5d df fc bd 84 b7 11 3b e9 f7 1f 3e
       0.0634255 -0.12347291 0.0022234628 0.15621914
000250 14 51 c6 3d 83 55 2d be 73 4c 6f bd df 8f ee 3d
       0.09683433 -0.16927151 -0.058422517 0.11648535
000260 2f 19 ad 3c 8b 32 f7 3d 4f c0 55 3b fa c4 79 3d
       0.021130173 0.12070187 0.0032615846 0.060978867
000270 f3 86 da bd 6b c1 75 3d 9c 5b 94 3d 05 f1 b7 3d
       -0.10670271 0.05999891 0.072440356 0.08981518
000280 94 1a f3 3c 61 78 fe 3c d4 04 62 3d 99 6b 9c 3d
       0.02967576 0.03106326 0.055180386 0.0763771
000290 da 0b b5 bd b2 ef 63 3d 38 89 1f 3d 81 7a 8c 3d
       -0.08840151 0.055648513 0.03894922 0.06859303
0002a0 ee 5a a3 bd 6d 14 7e bd a4 4b c1 3a de 5c 9e bd
       -0.07976328 -0.0620312 0.0014747274 -0.07732557
0002b0 18 9d dd bc c1 14 ec 3c 0a 3d a3 3d 0e c2 9e 3b
       -0.027052447 0.02881849 0.07970627 0.0048449105
0002c0 2a 6f 9c 3c 16 95 8f 3d fc b8 19 3e b6 ef 6c bd
       0.019095976 0.07010858 0.15011972 -0.057845794
0002d0 7a 9d 2f 3d 31 24 17 3d 41 cf 09 be e6 ca d5 bc
       0.04287479 0.03689975 -0.13457967 -0.026097726
0002e0 89 37 ff 3c d2 2a 9b 3d 3b 3d d8 bd 6d 6f 3b 3c
       0.03115441 0.07576527 -0.10558554 0.01144014
0002f0 ff ab 13 bd 9c 52 81 bc b6 a6 a7 bb 28 74 27 bd
       -0.0360527 -0.015786462 -0.005116309 -0.04088226
000300 36 c5 5e bd d8 6a 4b 3d 3c 5e 8a 3b e6 82 a6 3d
       -0.054387294 0.04966244 0.0042226594 0.08130436
000310 d7 b2 f0 3d 97 8c 9d 3d de f3 96 bc 11 8e 87 bc
       0.11752861 0.07692831 -0.018426832 -0.016547235
000320 30 13 46 3d 06 3e c5 3d f6 60 06 ba ae f4 a0 3d
       0.048358142 0.09630971 -0.00051261426 0.07859169
000330 9b 59 5e 3d b9 d3 d1 bd 8b 01 75 bd 99 4a d8 3d
       0.054284673 -0.10245461 -0.059815925 0.105611034
000340 c6 01 0a bd da fe 0a be 18 5e 95 3c 67 3c 02 bc
       -0.033693098 -0.1357378 0.018233344 -0.007948971
000350 3b 61 41 3c a1 67 e9 3c 7b e2 7a bd b5 a5 25 bd
       0.011802967 0.028491797 -0.061251145 -0.040441234
000360 c7 b4 02 3e 11 0f b0 bd 0b b7 ee 3d 7f f2 08 3c
       0.12764274 -0.08596624 0.116560064 0.008358597
000370 f3 00 b4 3d 3c 80 bf bd 84 c3 b3 bd b6 ff 77 bd
       0.087892435 -0.09350631 -0.08777526 -0.0605466
000380 9f 2c cb 3d 9f 2c c1 3d a0 8d 21 bc b0 d5 d6 bd
       0.0992062 0.09432339 -0.009860426 -0.104899764
000390 60 a4 b4 bd ea f4 9a bd 68 8e f6 3d cb 6d 4e 3d
       -0.088204145 -0.07566245 0.120388806 0.050397675
0003a0 a9 3f 0a be e7 85 c2 bd 14 0b 8b bc eb 5b f4 bd
       -0.13500847 -0.09498196 -0.016973056 -0.119315945
0003b0 c2 d0 07 3d 87 32 f8 bd 5b 85 d0 3c 29 80 6b bd
       0.03315807 -0.12119012 0.025454214 -0.05749527
0003c0 6f 12 cd bd 8a 5f e7 3c 60 1a db bb 2a 0d 73 3d
       -0.100132816 0.028243799 -0.0066864938 0.059338726
0003d0 de 10 16 3d 01 e7 be 3d 66 09 e2 3d a7 1a 0a 3d
       0.03663718 0.09321404 0.11036949 0.033716824
0003e0 d4 01 e7 3d f5 c3 50 3d 55 94 4f 3c 9b 9c 09 3d
       0.112796456 0.05096813 0.012669642 0.033596616
0003f0 ec f4 14 be 29 c5 94 bd d7 08 8f 3d 3e f4 fd 3c
       -0.14546555 -0.07264168 0.06984108 0.031000253

weight_hh f4 [256, 64]
000000 c1 6d 54 3d e8 2e 10 3e 56 8a c3 bc 49 f0 f7 3b
       0.051862482 0.14080393 -0.023869675 0.007566486
000010 d0 e2 a7 bc 17 b0 9f 3c 4e 71 8f bd 84 a9 4e bd
       -0.020493895 0.019493146 -0.07004033 -0.05045463
000020 59 de 25 3c d0 64 a5 bd 5e 59 ce bd a8 c2 e0 3d
       0.010123813 -0.08075869 -0.10075639 0.10974628
000030 69 90 90 bd fc 84 32 3d bb 53 21 3d 56 8f 6c 3d
       -0.07058794 0.043583855 0.039386492 0.057753883
000040 e7 f5 af 3d 55 42 ac bc 66 8e 8d bd 15 4e 17 3e
       0.08591824 -0.021027723 -0.06911926 0.1477588
000050 b0 56 0b 3d c5 f5 e9 3d a4 62 ba 3d 0f 81 6d bd
       0.03401822 0.1142383 0.091008455 -0.057984408
000060 1f ae cd bd 5a b7 0f 3e e3 b0 8c 3d 2a d5 a4 bc
       -0.100429766 0.14034787 0.06869676 -0.020121176
000070 f9 58 81 bd 6e d7 c8 bd ac 56 23 3e 41 1e 29 3d
       -0.06315798 -0.09806715 0.15951031 0.041288618
000080 89 b3 b5 bb 7a e7 71 3d 4f e6 32 bd b7 33 86 3d
       -0.005545084 0.059058644 -0.04367667 0.065528326
000090 f9 78 b0 bc da 2d cb bd b4 1a 2c be 15 48 8c bd
       -0.02154206 -0.09920855 -0.16807061 -0.06849686
0000a0 9b 2d d7 3a 07 65 d0 3d b7 0a c7 bd ee 44 43 bb
       0.001641679 0.101755194 -0.097188406 -0.0029795724
0000b0 e8 75 06 3c 79 d0 a6 3d d1 cc 3a 3d 6f 97 81 bd
       0.008206822 0.08145232 0.045605484 -0.06327712
0000c0 4e 32 d6 bc 3a f3 10 3e c1 46 8a bc 96 c0 e1 bd
       -0.026147034 0.14155284 -0.016879441 -0.11023061
0000d0 6f 53 22 3d 63 b3 03 bd e0 d1 e4 bb c2 57 a5 3d
       0.03963035 -0.0321535 -0.006983027 0.08073379
0000e0 13 5d 5c 3c aa 7d e2 bd 77 de a6 bd 35 34 f9 bd
       0.013449925 -0.11059125 -0.081479006 -0.12168161
0000f0 13 ff 18 3e 86 3a bb bc 54 62 d5 3d 6c 3c 0f be
       0.14941053 -0.022855055 0.10419145 -0.13987893
000100 d5 65 c9 bd 9c a0 90 3d b1 98 ca bd 90 35 91 3d
       -0.09833876 0.07061884 -0.09892405 0.07090294
000110 a0 1e 10 bd 35 af 31 bd eb 6d fe bc 17 7b 90 3d
       -0.035185456 -0.04337998 -0.031058272 0.070547275
000120 06 9c b2 bd fe 30 95 3d ad 2d a5 bd fd 38 94 bd
       -0.08721165 0.07284735 -0.080653526 -0.07237432
000130 a7 d4 e8 bd 8c 23 80 3d 6a 34 fb 3d 09 81 4e bd
       -0.11368685 0.0625678 0.122658566 -0.050416026
000140 02 7f 0e 3e b7 b6 40 3d 5c 83 71 bc 70 b6 96 bd
       0.13915637 0.04704925 -0.014740791 -0.07359016
000150 c8 ea c0 3c af 57 ba bd 37 cf 33 be 9b ee 7b 3d
       0.023549452 -0.090987556 -0.17559515 0.06150685
000160 3d df ce 3d 8e 15 c7 bd 63 9f c6 3d ab 1d cf 3d
       0.10101173 -0.09720908 0.09698369 0.101130806
000170 49 bc 16 be c1 e3 79 3d d8 2e 7e 3d 50 48 d2 bd
       -0.14720263 0.06100822 0.062056392 -0.10267699
000180 53 3c 9e 3d f6 6b c3 bb 74 73 6c 3c b4 d1 18 3b
       0.0772635 -0.0059637977 0.014431823 0.0023318352
000190 fd c8 10 3e 6f a4 85 bb cd 7a a5 bd b5 f1 fa 3d
       0.14139171 -0.00407844 -0.08080063 0.12253133
0001a0 a6 9e 44 3d a4 67 60 bd 35 46 7a bc b8 9b 34 be
       0.04800286 -0.05478634 -0.015275528 -0.17637527
0001b0 e3 ce b6 3d ab ab 1f 3d 36 28 6d bd 6a e8 a4 39
       0.08926179 0.038982075 -0.057899676 0.0003145368
0001c0 c3 8e 05 be 9f 70 ba bc 99 87 e1 bc 37 4f f3 3c
       -0.1304274 -0.02275878 -0.027530478 0.029700859
0001d0 87 50 0a 3c 52 bb 10 3b 08 c7 e7 bd d6 3e a9 bd
       0.008442051 0.0022084308 -0.11317259 -0.08263938
0001e0 34 1d 86 3d 0d e0 87 3d ac 4e af bd 62 4e bc bd
       0.06548539 0.06634531 -0.08559927 -0.09194638
0001f0 0f e5 ab 3d 31 9f b6 bd 94 10 57 3d 03 51 08 3d
       0.08393299 -0.08917082 0.052506045 0.033280384
000200 0f 09 8d bd 32 b7 f8 3d 9a 6b f2 bc 82 bc 12 3e
       -0.068864934 0.12144317 -0.029592324 0.14329723
000210 a4 c6 b3 3d 19 a4 58 3d 6f b4 07 be 1a 22 c0 bd
       0.08778122 0.05289087 -0.13252424 -0.09381504
000220 4d 39 12 3e 27 56 da bd 7e 2b d8 bc 44 d8 03 3e
       0.14279671 -0.106609635 -0.026387926 0.12875468
000230 d0 02 25 3e 48 95 5a 3c 1d 36 8c bd 51 c8 08 3d
       0.16114354 0.0133412555 -0.06846259 0.03339416
000240 71 b9 e2 bc b6 bf 3b bd c2 cb 89 3d a1 9b 82 bd
       -0.027676316 -0.045837127 0.06728317 -0.0637734
000250 b3 24 8e bb f5 f1 58 3d b2 d7 c9 3d b4 56 82 bc
       -0.004337871 0.052965123 0.09855594 -0.015910484
000260 5a 96 77 bd d8 09 80 3d 65 f7 ce bd 4d ca 19 3c
       -0.06044612 0.062518775 -0.101057805 0.009386611
000270 79 4e 1f be 95 c3 06 bd df 9a 81 bc 25 a6 23 3e
       -0.15557279 -0.032901365 -0.015820919 0.15981348
000280 59 ea bc bd 49 86 5e bd 94 20 ae 3d 15 ed 32 3e
       -0.09224386 -0.054327283 0.085023075 0.17473252
000290 10 13 2d bd 4f c9 b3 bd d4 b6 1d be 8c 3e 82 bd
       -0.042254508 -0.08778631 -0.15401775 -0.06359586
0002a0 37 f9 d6 3b e0 d7 a1 3c b0 52 25 3d 76 cc f7 3c
       0.0065604704 0.019756258 0.04036206 0.030248862
0002b0 4a b4 c3 bd a6 57 fc 3d 02 d4 9f 3c fd df af bd
       -0.09555872 0.12321405 0.019510273 -0.08587644
0002c0 80 b3 09 bd 0e 33 03 bd 8f 58 35 bc fc 81 a3 bd
       -0.03361845 -0.03203111 -0.011068477 -0.07983777
0002d0 6e 73 ef 3c 5f c8 a9 3d c7 50 02 3e 1c f1 01 bd
       0.029229846 0.08290171 0.12726127 -0.03172408
0002e0 7e 64 0e 3d d2 65 ce 3c 31 dc c5 3d 99 7f 3d 3e
       0.034763806 0.025195036 0.09661139 0.18505706
0002f0 0f df 01 3e c3 db 4b bd 05 a2 76 3d dc 58 57 b9
       0.12682746 -0.049770128 0.060213108 -0.000205371
000300 ee 78 61 bb f2 a7 b6 3a 50 af 3e bd 1d d4 b7 3d
       -0.0034404355 0.001393555 -0.04655391 0.08976004
000310 2e 97 02 3e bf 33 04 bd a1 bb ca 3b 26 6b 88 bd
       0.12752983 -0.03227591 0.006186918 -0.06661062
000320 d9 16 9f bc ed 47 80 bd 0e 7a ba 3c 13 80 ac bd
       -0.019420074 -0.06263719 0.022763278 -0.08422866
000330 c6 6a 44 3d aa 85 84 bd ca 34 96 bd f1 11 b8 3d
       0.04795339 -0.06470807 -0.073342875 0.08987797
000340 fe 20 55 bd 10 d7 16 3d 6c 7b 98 3c 20 89 17 bd
       -0.052033417 0.036826193 0.01861354 -0.036996007
000350 8a c8 ac bd 7c 27 6e bd 3d c0 2f bd 30 27 49 3d
       -0.08436687 -0.058143124 -0.042907942 0.049109638
000360 dc af ab 3b 53 47 d0 bd 7d 9d 5c 3d 81 f5 87 bd
       0.00523947 -0.10169854 0.05386113 -0.06638623
000370 c2 f1 d3 bc ca 5c a8 3d d4 32 16 3e 6d fb 6a bd
       -0.025872115 0.08220823 0.14667827 -0.057368685
000380 0c 90 a8 bd 0d 3c 45 3c d3 c6 1c 3d 92 3e 7d bd
       -0.082306 0.012038243 0.03827555 -0.06182725
000390 1b 32 a6 bd 52 24 8e bd d6 13 71 bd db 26 4d 3d
       -0.081150256 -0.06940521 -0.058856808 0.050085884
0003a0 1b d8 06 3d 4c 6a 62 bd f4 27 0f be 0d a2 75 3d
       0.032920938 -0.055277154 -0.13980085 0.059968997
0003b0 b1 8a d4 bd d7 8f d7 3d ea 9f 00 3e 25 46 04 be
       -0.10378016 0.10525482 0.12561002 -0.12917383
0003c0 b1 a0 16 bd 26 fb 5c 3d b4 b0 08 be 8a e9 0e 3d
       -0.03677434 0.05395045 -0.13348657 0.03489069
0003d0 1d 00 17 3d ea 5a 8f 39 66 a8 db bc b2 59 09 be
       0.036865342 0.00027342822 -0.026813697 -0.13413122
0003e0 d1 1a 1a 3e 48 84 d2 bd b7 a5 0e bd e8 79 da 3d
       0.15049292 -0.10279137 -0.034826007 0.10667783
0003f0 a7 fe 25 3d ab fd e0 3d a7 99 05 be b8 66 89 3d
       0.04052606 0.10985883 -0.13046895 0.06709045

bias_ih f4 [256]
000000 27 4e a1 3d 19 10 bc 3d e5 91 c2 3d 56 79 1d bb
       0.078762345 0.09182758 0.095004834 -0.002402862
000010 a2 77 cf 3d f8 12 71 bc 21 b7 e6 3d 6c c7 dd bd
       0.1013024 -0.014713995 0.11265398 -0.10829052
000020 4d 4e 63 bd 8e 75 69 bd a8 05 88 3c 63 68 15 3d
       -0.055494595 -0.056996875 0.01660426 0.036476504
000030 50 7a 44 3d 98 4e b3 bc 75 5b c1 3b 2b 2f ac 3d
       0.04796821 -0.021888062 0.005900795 0.08407434
000040 50 4f a6 3d 73 32 51 3d e4 c4 44 3d a2 e2 84 bd
       0.081205964 0.051073503 0.048039332 -0.06488539
000050 29 e8 8c 3d 60 d1 8a bd d1 7b c1 3d 96 89 de bd
       0.068802185 -0.06778216 0.09447444 -0.10866086
000060 a2 7b 5a bd 61 e5 f5 3b 46 b5 d4 bd a3 1f 4d bc
       -0.05334056 0.0075041507 -0.10386138 -0.01251975
000070 cf 90 a1 bd bb d2 91 bb 3c 8c 0a bd 8b f7 ad 3d
       -0.07888948 -0.00445017 -0.033825144 0.08494481
000080 e4 8a 01 be d9 05 bc 3d 55 cb 6f 3c 94 78 de 3d
       -0.12650639 0.09180803 0.0146358805 0.10862842
000090 2b 80 fe bd 53 f9 e9 3d f6 22 a4 3d 58 cc c6 3d
       -0.1242679 0.11424508 0.08014481 0.09706944
0000a0 64 01 07 3d 06 a1 99 bd 3f fa c5 3c df fc 8f bd
       0.03296031 -0.07501416 0.024167178 -0.07030653
0000b0 f7 0b c4 3d 86 81 97 3d 37 52 24 bc c6 c0 d0 3c
       0.095725946 0.073977515 -0.010029367 0.025482547
0000c0 a1 3e c0 b9 fe 8a 41 3d e8 01 e3 3d b6 f0 7f 3d
       -0.00036667756 0.047251694 0.11084348 0.06248542
0000d0 0f 52 b5 3c 3c fd 82 3d 0a 88 89 3d 70 1b e3 bc
       0.022133855 0.06395957 0.067154005 -0.027723044
0000e0 8a ef 1a 3e 1a e8 2b 3e 1a bf b7 3d 70 05 cd 3a
       0.1513044 0.16787758 0.089719966 0.0015641879
0000f0 e4 42 80 bc 86 53 b4 bd 53 ef e3 3c d2 8d cb bb
       -0.015656896 -0.08804993 0.02782408 -0.0062119747
000100 50 58 05 3e cc da 14 3e e2 bb 12 3e ee eb 6e bd
       0.1302197 0.1453659 0.14329484 -0.05833047
000110 2f 89 84 3d 04 63 f0 3d cb 64 19 3d b4 89 f4 3d
       0.06471478 0.11737636 0.03744964 0.11940327
000120 97 fa a7 bd 50 81 b8 bd 2f dd 13 3d 8c 19 b4 3d
       -0.08202093 -0.090090394 0.03609961 0.08793935
000130 04 46 fc bd 41 38 2f 3d a4 7d 03 3e c0 97 0f 3d
       -0.12318042 0.042778257 0.12840897 0.03505683
000140 d7 26 35 3d 2a 00 ea 3d 35 07 cf 3d f1 be 58 bd
       0.044226494 0.114258125 0.101087965 -0.05291647
000150 d8 fd a9 bd 5b d6 e5 3d 6d 06 9c 3d a9 23 c4 3d
       -0.0830037 0.11222526 0.07618413 0.09577114
000160 04 94 be 3d 14 0f 8c bc ce 83 d4 bc a0 9a 61 bd
       0.093055755 -0.017097034 -0.025941756 -0.055079103
000170 22 c6 04 bc 4f 62 e8 3d b6 46 81 3d cd 80 18 3e
       -0.008103879 0.11346876 0.06312315 0.14892884
000180 9c f2 02 3e 42 96 c1 3a a8 4b 04 bc 89 96 38 3c
       0.1278786 0.0014769512 -0.0080746785 0.011266359
000190 36 f2 95 3d 90 cb 9a 3d 96 20 90 3d 15 a3 1c 3e
       0.07321589 0.07558358 0.07037465 0.15296586
0001a0 9d 1a c9 3d 51 74 18 3e cd b1 08 3e 8a 62 4b 3d
       0.09819529 0.14888121 0.13349076 0.04965452
0001b0 1b 40 17 3d b1 5a d9 3d 5d 69 99 bc fa 32 3b bd
       0.03692637 0.10613001 -0.018726999 -0.045702912
0001c0 41 0d a5 bd bd 71 7c 3d d3 8e aa 3d 45 11 9d 3d
       -0.080591686 0.061631907 0.08328023 0.076693095
0001d0 3a 2c 80 3c 0a e5 8c 3d 05 64 88 bd dc 8e 28 bd
       0.015646089 0.06879623 -0.06659702 -0.041151866
0001e0 83 74 a6 bd 24 b0 09 3e 14 b2 6e bd b4 9d ae 3d
       -0.081276916 0.13446099 -0.058275297 0.08526173
0001f0 5f e9 81 3d 67 31 85 3d 56 a4 b6 bd 05 33 26 3e
       0.0634334 0.065035634 -0.08918063 0.162304
000200 f8 85 d4 ba 89 b1 07 3e 54 73 cd 3d 59 ce b1 3d
       -0.0016214242 0.13251318 0.10031763 0.08681936
000210 59 a9 d4 3c c9 55 fb 3d 2a 3d cf 3d b4 5c a3 bd
       0.025959658 0.122722216 0.10119088 -0.07976666
000220 99 9c 4b 3d 83 0c d7 bc 7b 59 e3 3d db 20 aa 3d
       0.04970989 -0.026251083 0.111010514 0.08307048
000230 32 4c c0 3d 8a c7 2d bd d0 35 66 bd a0 c7 95 bc
       0.09389533 -0.042426623 -0.056203663 -0.018283665
000240 29 72 0d 3e 43 ed 00 be fe d2 bf bb 08 d8 14 3d
       0.1381308 -0.12590508 -0.0058540097 0.036338836
000250 e0 d6 03 bc 7f a9 d7 3c 87 33 22 3d 26 85 ee bd
       -0.008046836 0.02632594 0.03959992 -0.1164649
000260 e4 9b d5 bd 29 c4 58 bd a4 ae 5d bd e5 b5 1e 3c
       -0.104301244 -0.052921448 -0.05412163 0.009686922
000270 3f df 6d bc 95 ed a6 bd 0d e7 a7 bc a0 e5 fa 3d
       -0.014518558 -0.08150784 -0.020495916 0.12250829
000280 37 85 cf bd 4d 2b eb 3d c1 a6 69 bd 56 86 41 3d
       -0.101328306 0.11482868 -0.057043795 0.047247253
000290 69 88 72 3d f5 82 d9 bd 36 56 0a be db 5d 80 3d
       0.059212122 -0.10620681 -0.1350945 0.062679015
0002a0 28 26 bc bc 99 88 7e 3c 0b b3 d3 bc 58 3f f8 bd
       -0.022967413 0.015535497 -0.02584221 -0.12121457
0002b0 61 81 ed bc 4f c3 9b bd 52 5f 24 3d 7e c8 6d bc
       -0.028992357 -0.076056115 0.040129967 -0.014513133
0002c0 5b 9c 9a bc 04 15 1f bd 63 29 76 bd 41 32 ee ba
       -0.018873384 -0.0388384 -0.060098063 -0.0018172936
0002d0 08 40 ef 3c 86 b1 a3 bd 06 30 b8 bc 48 c1 8e 3d
       0.029205337 -0.07992844 -0.022483837 0.06970459
0002e0 c8 a6 fa 3d 86 2d a0 bd 55 fe 08 3d c7 e8 8c bd
       0.12238842 -0.07821183 0.033445675 -0.06880336
0002f0 4d 7a b2 bd 34 28 ce bc bc 8a 42 bd 0f 6a e3 3c
       -0.08714733 -0.025165655 -0.04749559 0.027760534
000300 ae c2 80 3d b6 38 8b 3a df 87 05 bd 2c 8f 04 3e
       0.06287132 0.001062176 -0.03260028 0.1294524
000310 9f 2a ef 3d 4b ae 86 bc 63 18 8b bd 1b fc 36 bd
       0.11678051 -0.016440531 -0.06791761 -0.04467402
000320 72 5e 95 3d 49 ce e6 3d 82 cf b3 3c 3b fe 8f 3d
       0.07293405 0.112698145 0.021949533 0.070309125
000330 c1 f9 c3 bd 1c 26 ab bd 6e 11 20 3d 70 d5 8a 3d
       -0.09569121 -0.08356878 0.039079122 0.06778991
000340 d9 95 ca 3d 67 78 27 bc f5 5d b9 3d b3 66 87 3d
       0.098918624 -0.010221577 0.09051124 0.06611385
000350 19 9f 84 bd f6 73 ca 3d fb 99 55 3d e3 2f 76 3b
       -0.06475658 0.09885399 0.0521488 0.0037565164
000360 44 7b 0b 3c 40 00 ec bd e2 f5 2f bc 00 6a d4 3c
       0.0085132755 -0.11523485 -0.010739775 0.025929451
000370 33 98 ca bd f1 a5 dc bc b1 8c 82 bd 7a d4 98 bc
       -0.09892311 -0.026934596 -0.06374491 -0.018656004
000380 14 c3 e9 bd 8a df d4 3b bb 06 82 3d eb 9f 03 bd
       -0.11414161 0.0064963745 0.0634894 -0.03213493
000390 19 b7 65 bc 73 9d 48 bd 6f 32 0f 3e 61 2d 00 3e
       -0.014020705 -0.04897828 0.13984083 0.1251731
0003a0 a7 5e 4b bc 81 0b 13 bd 1f f4 b4 bd f7 ba 53 3d
       -0.012412704 -0.035899643 -0.08835625 0.051691975
0003b0 71 9e c4 3c 97 52 ff 3d ef 64 80 bd 45 8a 41 bb
       0.024001332 0.12466925 -0.062692516 -0.0029531878
0003c0 2c 38 b8 3d 80 78 a1 3b 25 52 db bd 3b ff 80 3d
       0.08995089 0.004927695 -0.10709027 0.06298681
0003d0 a3 17 3a 3d 7e 9f f2 3d 8e b2 b8 3d ec 88 ac 39
       0.045432698 0.11846827 0.090184316 0.0003290841
0003e0 6e 9a 18 bd dd a8 95 3d b5 92 bd 3c 94 2c df 3d
       -0.03725665 0.07307599 0.023141244 0.108971745
0003f0 69 34 9e 3d 2b 08 90 bc 7d 6b 90 3c f1 5d 5e bd
       0.0772484 -0.01758202 0.01762938 -0.05428881

bias_hh f4 [256]
000000 a3 50 a0 3d 80 38 ae 3d 22 79 6f bd 94 11 b5 bd
       0.0782788 0.0850687 -0.05846513 -0.088412434
000010 c6 b7 05 3b a0 f5 9e 3d 87 58 7f bd 96 53 85 3d
       0.0020403727 0.07761693 -0.062340286 0.065100834
000020 9e 6d db 3d 89 60 a3 bd ab 32 f5 3d 8e 8d d2 3d
       0.10714267 -0.07977397 0.11972555 0.10280906
000030 4c 67 6b bd 31 d9 09 3d 54 8b 0d bd 51 26 dd 3d
       -0.05747156 0.033654395 -0.0345567 0.10798324
000040 d1 4f 1e 3d 6e a9 cc 3d c4 d7 c1 3d 50 41 ef 3d
       0.038650338 0.09993254 0.09464982 0.11682379
000050 1e fd 1a 3d 08 3f 8c 3d 57 dc 00 3e 14 ff 86 3d
       0.037839048 0.0684796 0.12584053 0.06591621
000060 6f d7 03 3e 2c 6f dd 3c e4 a7 ce 3d 4c 86 fe bc
       0.1287515 0.02703055 0.10090616 -0.031069897
000070 44 5d 0f bd 58 6a 63 3c c7 0a fb bc 4e 62 40 3d
       -0.035001054 0.013880335 -0.030644787 0.04696875
000080 cc 1d 93 bd 91 7e c6 3d df 44 ea 3d fb 62 92 3d
       -0.07183418 0.096921094 0.11438917 0.07147785
000090 18 de 14 3d 3d 35 1a bd e9 dc 0e 3e ff bb 87 3d
       0.036344618 -0.03764843 0.13951458 0.06627654
0000a0 ad c2 80 bd e3 18 3e bd fb 03 88 bd 7f 31 85 3d
       -0.062871315 -0.046410453 -0.06641384 0.06503581
0000b0 71 b0 3e 3d 71 04 d2 bc 9b 4f a3 3d 27 89 23 3c
       0.046554986 -0.025636883 0.07974168 0.00998143
0000c0 a9 b6 98 bd 96 78 a1 3c 0a bb c8 bd 4d 16 6e bd
       -0.07456715 0.01971082 -0.098013 -0.058126736
0000d0 19 f0 db 3d 40 97 ec 3d a3 99 9a bd 2f 1a b6 3d
       0.10739154 0.11552286 -0.07548835 0.08891713
0000e0 a4 b6 1e bd cb 8f f1 3c 0b 96 c1 3d 2d 51 f0 3c
       -0.0387484 0.029487511 0.094524466 0.029335583
0000f0 c2 4a d6 3d f3 35 c0 bc 42 09 04 bd 1c 56 98 3d
       0.10463478 -0.023463225 -0.03223539 0.07438299
000100 48 31 2b bb bc 58 ba bd e5 1c 6c bd fa 7b 20 3e
       -0.0026121903 -0.09098956 -0.057644743 0.15672293
000110 44 66 96 bd 58 05 a5 3c 69 2a 98 3d f1 ee 18 bc
       -0.07343724 0.02014415 0.07429964 -0.009334312
000120 27 cc 2e 3d 64 87 cc 3d b3 3a df bb c2 a9 8d 3d
       0.042675164 0.09986761 -0.0068124174 0.06917144
000130 11 4a 67 bd c7 e3 9e ba cd 62 5c 3c 8a 62 cc 3d
       -0.05646712 -0.0012122326 0.01345129 0.09979732
000140 69 88 1c 3e f7 43 a6 3d 97 34 ef 3d 38 9b 96 bd
       0.15286411 0.08118432 0.116799526 -0.073538244
000150 14 be 91 bd b3 de 9c bd 3d 4b a7 bd 49 76 93 bd
       -0.07116333 -0.07659664 -0.081686474 -0.072002955
000160 82 bc 17 bd 5b ef 0a be 7a 20 8a 3c 43 84 a3 bd
       -0.03704501 -0.1356787 0.01686119 -0.07984211
000170 1f 23 8c 3d 8f 80 6f 3c 95 18 88 bd 60 58 fa 3d
       0.06842636 0.014618053 -0.06645314 0.122238874
000180 ff 81 d0 3d a1 2f 78 bd 2d cf f7 3d 45 13 0b 3d
       0.10181045 -0.060592297 0.121000625 0.033953924
000190 57 6b 57 3d c5 c8 45 bd e5 93 03 3c c5 47 65 bd
       0.0525926 -0.048287172 0.008030866 -0.055976648
0001a0 a2 46 b0 bc 74 95 45 bd 3a 25 17 3d f2 38 ba 3d
       -0.021518055 -0.048238233 0.036900736 0.09092893
0001b0 27 f3 84 bb 81 2d 25 3b 7a 4e 07 3e 66 34 b6 bd
       -0.0040573063 0.0025204124 0.1321353 -0.08896713
0001c0 48 d2 b4 bb eb 07 45 3c 4b 6d b7 3d 81 3c 24 bd
       -0.0055182315 0.012025814 0.08956393 -0.040096764
0001d0 25 7c d3 3d 0b 62 53 bd 1f 6c fd 3d a3 8b 0f 3e
       0.10326413 -0.051607173 0.12374138 0.14018111
0001e0 8f 0b 1c bd 8c 9c 87 3c d3 16 4e 3c 34 d5 db 3c
       -0.03809696 0.01655414 0.012578684 0.026835062
0001f0 3f bc 6f bc ec ea e5 3c e6 81 2b ba f2 8a ef 3d
       -0.014632284 0.028066121 -0.00065424887 0.116964236
000200 44 c9 35 3d 68 07 03 bd 2a 15 c4 3d b6 ae ff 38
       0.044381395 -0.031989485 0.09574349 0.0001219189
000210 7a a5 38 3d a6 55 ff 3d 21 96 08 be a1 4d 5a 3d
       0.045079686 0.12467508 -0.1333852 0.05329669
000220 c5 78 69 bd 28 4e 86 3d 98 d1 8a bd 4f f5 0f bc
       -0.05699994 0.06557876 -0.06778258 -0.0087865135
000230 70 f0 a9 bc 4e f4 22 bd 75 72 f2 bc b7 1f cb 3d
       -0.020744532 -0.03978377 -0.029595593 0.099181585
000240 9b 39 f9 3d 3e a9 ea 3d 73 5f 28 bd 06 29 ba bd
       0.121691905 0.11458062 -0.041106652 -0.09089856
000250 c0 52 b0 3d d5 82 9a 3d e9 2e 00 be 28 e1 d8 bd
       0.08609533 0.075444855 -0.12517895 -0.1058982
000260 95 e1 2c bd b8 87 9d bd 5c 2c 3b 3d 40 a4 d8 bc
       -0.04220732 -0.07691902 0.0456966 -0.026445508
000270 7b 39 ec bd 8b 96 cc 3d 05 c9 b8 3c b7 b3 c3 bd
       -0.11534401 0.09989651 0.022556791 -0.09555762
000280 c8 c2 f2 bc 73 11 b0 3c 3d d2 a9 3d 11 69 84 3c
       -0.029633895 0.021492695 0.08292053 0.01616338
000290 c2 22 8b bd b1 40 cd 3d b7 55 95 3d ff 35 8e 3d
       -0.06793739 0.100221045 0.072917394 0.06943893
0002a0 73 35 13 bc 1e 81 a1 3c b8 ca f6 bd b5 92 aa bc
       -0.008984911 0.019714888 -0.12050384 -0.020821908
0002b0 ac a1 6d 3d 58 4b 21 bd 36 22 d4 3d 8f f4 56 bd
       0.05801551 -0.039378494 0.10358088 -0.052479323
0002c0 bd 73 a9 bd 07 20 ba bd 5b af 04 3d f4 fb c7 3d
       -0.082740285 -0.0908814 0.032393795 0.09764853
0002d0 19 73 57 bd 5e 23 b2 3d 57 99 83 bd 5a 46 9a bd
       -0.0526 0.08698152 -0.06425732 -0.0753295
0002e0 c1 e5 86 bd 66 1c 08 be 18 a6 ff bc 6d a7 3b 3d
       -0.06586791 -0.13292083 -0.03120713 0.045813967
0002f0 47 96 90 3c 61 df 85 3d fc fc ed 3b 77 17 be bc
       0.017649783 0.06536747 0.007262824 -0.023204548
000300 c0 54 77 3d 6b 8c 9f bd b3 93 33 3d e3 86 52 bd
       0.06038356 -0.077904545 0.04384203 -0.05139817
000310 4d 8b 59 bc 6c cc f8 3d 35 5e da 3d df e4 26 bd
       -0.013277841 0.121483654 0.106625 -0.040745612
000320 4c 61 9e 3d 7a af 84 3c 5b b1 fa bb 8f e6 f1 3d
       0.07733402 0.016196955 -0.007650537 0.11811554
000330 62 c2 44 3b 9f f3 2b bd 82 29 40 bd 5c df 98 3d
       0.0030023088 -0.041980382 -0.046914585 0.074644774
000340 15 9d b7 3d f6 3b 8c 3d b3 cc c3 bd 12 97 cf bd
       0.08965508 0.06847374 -0.09560528 -0.10136236
000350 31 dd c2 bd 5c 0b 4b bd 42 8d a7 bd cf 1a a5 bd
       -0.09514845 -0.04957138 -0.0818124 -0.08061754
000360 83 4e 94 3c 62 a4 94 bd 3c 2f 8f bd e6 0f 81 3d
       0.018103844 -0.07257916 -0.06991431 0.063018605
000370 8a eb 35 3d 79 8a c0 bb 85 07 b3 bd af a1 8e 3d
       0.04441408 -0.005875882 -0.087416686 0.069644324
000380 9a 1d a5 3d 92 ea cf bd 9b a0 85 3c d4 cf d5 3d
       0.08062287 -0.101521626 0.016311934 0.10440031
000390 68 54 f6 3d dd 94 f1 3d 91 8f 0d 3d 5e 2a 38 3d
       0.12027818 0.117959715 0.034560744 0.04496228
0003a0 38 38 0a 3d 8b 0d 38 bd 59 36 c3 bd 8d 5f 90 bd
       0.03374502 -0.04493479 -0.0953185 -0.07049475
0003b0 67 11 10 3e 19 cf ed 3d 8e 92 b8 3d 67 c7 a1 bd
       0.14069138 0.11611766 0.09012328 -0.07899361
0003c0 87 b5 e9 bc ba 1a 7a 3c 31 58 e0 bd d9 6a aa 3d
       -0.028528942 0.015265161 -0.10954321 0.08321161
0003d0 17 23 81 3d aa a5 14 3e 32 70 a9 3d 3e 19 fe 3d
       0.06305521 0.14516321 0.08273353 0.12407158
0003e0 6e 4c 1e 3d 74 b8 a9 3d c7 fd 83 bd 9c 5b f7 bd
       0.038647108 0.08287135 -0.064448886 -0.1207802
0003f0 0c 70 b4 3a 19 fd 0f 3d e9 23 30 3d 94 f5 82 bd
       0.0013766303 0.035153482 0.043002997 -0.063944966

weight f4 [64, 128]
000000 11 1b 6c 3c 0e 1c 4d bd 2d e2 f0 3d dd 00 14 bd
       0.01441075 -0.050075583 0.117618896 -0.036133636
000010 81 2f 7a bb 2a 5f 83 3d 00 8b bd bd d4 ed cc bc
       -0.0038175287 0.064146355 -0.09255028 -0.025015749
000020 3c f5 96 3d cd 8b 1c 3d 18 d7 dd 3c 23 d1 c8 3d
       0.073709935 0.038219262 0.027080104 0.09805515
000030 18 67 54 3d ae 8d 56 bd 77 97 4d 3d 74 5e ea 3c
       0.05185613 -0.05238121 0.050193276 0.028609492
000040 07 80 33 bd f8 90 6f bd 83 1e ba bd 8c b4 7c bb
       -0.04382327 -0.058487862 -0.09087851 -0.0038559763
000050 48 3b 4e 3d 0d a2 99 bc b3 1a 1d 3d b1 2d 82 bc
       0.050349504 -0.01875403 0.03835554 -0.015890928
000060 a7 2c d4 3b 4f 5e ab 3c a2 b8 bf bd 0a ba 8b bd
       0.0064750495 0.020918993 -0.09361388 -0.068225935
000070 ba 50 ea bd 7f f5 c8 3d b6 4e 6c 3d 5d 79 b1 bb
       -0.114411786 0.0981245 0.057692252 -0.005416079
000080 aa 27 92 bd 5e f7 aa 3c ab 5a c8 bc 60 cc 97 3d
       -0.071364716 0.020869907 -0.024457296 0.07412028
000090 10 f2 8a bd fa f4 c5 3c 93 a2 6b 3b 7d 48 16 3c
       -0.06784451 0.024164665 0.0035955056 0.009172556
0000a0 75 4f 2b bd f2 7a 7d bd 94 77 7c bd 5f a6 eb bc
       -0.041823823 -0.061884828 -0.061637476 -0.028765855
0000b0 19 20 65 bd 8e 96 aa bd 4e c1 b5 3d b8 53 fa 3b
       -0.055938814 -0.08329497 0.088747606 0.0076393746
0000c0 c2 23 79 bd f9 bc ab 3c b7 cb 24 3c aa 46 5b 3d
       -0.060825117 0.020964133 0.010058335 0.053534187
0000d0 be 25 af bd dd e2 a7 bd 12 04 75 bd af 78 bc 3d
       -0.085521206 -0.081975676 -0.059818335 0.09202706
0000e0 f2 fd 0d 3d 2d 48 88 bd c7 34 28 3d 94 0a 76 3d
       0.03466601 -0.066543914 0.041065957 0.06006868
0000f0 6d 5a 4f bd a9 37 a9 bc e3 e3 63 3d e4 82 c5 bc
       -0.050623346 -0.020656424 0.05563725 -0.024110265
000100 19 7f f6 3d 8d d5 c3 3d a0 f0 85 3d 4b 4a 4b 3c
       0.12035961 0.09562216 0.06540036 0.01240785
000110 39 3e dc 3d 7e 15 9f ba 26 fc 63 bd 82 32 98 bd
       0.107540555 -0.0012137142 -0.05566039 -0.074315086
000120 e1 0e c8 3d 1d ea ec bb 1b e9 85 3d 40 05 0e bd
       0.09768463 -0.007230057 0.06538602 -0.034672976
000130 7a 09 73 3d 97 75 5d 3d 40 35 80 3d 99 88 ef 3c
       0.05933521 0.05406722 0.06260157 0.02923994
000140 30 0b e2 3c dc b3 0f 3c ca 70 6f bd 5e 41 af 3d
       0.027593225 0.008770909 -0.058457173 0.0855739
000150 6c 41 16 3c 46 70 a8 bb 11 d5 9c bd 2a fd 31 bd
       0.009170871 -0.005140337 -0.07657827 -0.043454327
000160 4c 55 e2 bd 25 cb 97 bb 23 37 7a bd fb d0 8f bd
       -0.11051425 -0.004632371 -0.06108774 -0.07022282
000170 3b de a1 bd 1f f4 ff bc 49 55 31 bc fe ff 7d 3d
       -0.07903715 -0.031244336 -0.010823556 0.06201171
000180 34 c7 a3 bd d6 24 97 3d 4b 68 89 bb f4 cf b0 bb
       -0.07996979 0.07380073 -0.004193341 -0.0053958837
000190 da 18 6b bd 7d 43 0f bd 2f 7c 05 3d 37 99 9f bd
       -0.057396747 -0.03497647 0.032589134 -0.07792895
0001a0 6c e6 f3 bc 39 06 8a bd 6e 33 6f bd 55 3e 95 bd
       -0.02977296 -0.06739468 -0.058398657 -0.072872795
0001b0 6b 81 83 3d 55 e6 c4 3c b6 1b 7c bd 1a 99 6b 3d
       0.06421169 0.024035612 -0.061549865 0.057519056
0001c0 8e 38 4e 3d 85 3a 65 3b 31 39 16 bb 59 cd 9e 3d
       0.050346904 0.0034977507 -0.0022922272 0.07754011
0001d0 8d c0 22 bc bd fa 85 3d b2 8d 21 bc b7 af 48 bc
       -0.009933603 0.06541965 -0.009860443 -0.012248925
0001e0 cd 6d 06 bd 05 1f d9 3c 17 01 4d bd 78 6b ad bd
       -0.032819558 0.02650405 -0.050049867 -0.08467764
0001f0 c1 dc d6 3d d6 66 7f bc c5 98 51 3d 54 e8 16 bd
       0.10491324 -0.015588483 0.051171083 -0.03684266
000200 b9 db d1 3c 5a 56 b5 bd 85 11 f5 bd bf f5 09 3d
       0.025617467 -0.08854361 -0.11966232 0.033681627
000210 23 0e a5 3c dc 5e 94 bc 10 42 74 3d 86 01 f8 3c
       0.020148342 -0.018111639 0.059633315 0.030274164
000220 51 64 e0 bd 97 3a 9e 3d 89 74 fb bb c4 c2 64 bd
       -0.10956634 0.07726019 -0.007673804 -0.055849805
000230 dd 54 4e 3c 6f f6 a2 3a f9 7e 34 bd f2 8e 06 bd
       0.012593475 0.0012433062 -0.044066403 -0.032851167
000240 90 5b 1a 3c 98 f9 6d 3b 14 6a 70 3d 4a e3 88 3d
       0.009421244 0.00363121 0.058694914 0.06683977
000250 02 4b b6 bc 42 c8 cd bd 75 46 17 bd 9d 62 04 3d
       -0.022252563 -0.10047962 -0.036932427 0.032320607
000260 6b 9f d3 3b d0 8b c8 bc a4 cf cc 3b 97 91 84 3d
       0.006458213 -0.02448073 0.0062503386 0.064730816
000270 19 f8 0c bb e6 a3 c0 bd 9a aa 1b bd 05 30 4c bd
       -0.0021510182 -0.09406261 -0.038004495 -0.049850482
000280 71 a3 7b 3d 0b c6 dd bd 6e d7 59 3c 3a de b5 bc
       0.061435167 -0.10828789 0.013295991 -0.022200692
000290 cb 05 d0 3d 01 20 a0 3d 27 63 04 3d 36 dc 0b bd
       0.10157355 0.07818604 0.03232112 -0.034145556
0002a0 3e 0a 43 3d c9 ea 8f bd db 46 7d 3c 5d 19 22 bd
       0.04761719 -0.070272036 0.015458788 -0.03957497
0002b0 91 d6 b8 3d 04 d8 5a 3d 6d de 84 bd 3c 5b 93 bc
       0.090253 0.053428665 -0.06487737 -0.01798784
0002c0 df 85 b1 bd b1 cd a2 3b 9f 0f 60 3c af 53 df bb
       -0.08668112 0.004968368 0.013675599 -0.006815396
0002d0 b7 1d 92 3d 15 d1 93 3d 5c c5 8b bc b2 0f 8f bc
       0.07134574 0.072176136 -0.017061882 -0.017463539
0002e0 6e 21 cf bb 5c 45 36 3d 3a ff 44 3d b5 8b 49 3d
       -0.006321124 0.04449974 0.048094966 0.0492055
0002f0 48 72 c3 bd 32 58 50 3d dd 51 43 bd f7 b4 08 bd
       -0.09543282 0.05086536 -0.047685493 -0.033375707
000300 13 13 1e bd ab 0b 81 bd c8 26 da 3c 0e 95 53 bd
       -0.03859241 -0.063010536 0.02662982 -0.05165582
000310 33 c1 b6 bd 62 1a 00 bd b4 6f 7e bc 1b b9 04 bd
       -0.089235686 -0.03127516 -0.015529562 -0.032403093
000320 00 b6 dc bd f7 ee 5e 3d df aa 84 bd c4 a0 76 bd
       -0.10776901 0.054427113 -0.064779036 -0.06021191
000330 4c 6c 3c 3d 37 45 6d 3c 9f 0e 08 bd ad be 48 bd
       0.046001717 0.014481834 -0.03321707 -0.049009968
000340 41 14 59 b9 ed e9 9e 3d 82 85 aa bd 2e a8 fc bb
       -0.00020702278 0.077594616 -0.08326246 -0.0077104783
000350 27 ac 19 bc c8 47 38 3d ff 04 41 3c 53 9b b2 3d
       -0.009379423 0.04499033 0.011780976 0.08721032
000360 c0 0a 01 bd b9 ef 97 3c 5f e3 90 3a aa 91 a0 bd
       -0.031504393 0.018546926 0.001105409 -0.07840283
000370 ff 5b b3 3d d1 08 8a bd 9a 85 6e bd 53 11 87 bc
       0.08757781 -0.06739963 -0.05823288 -0.016487753
000380 76 a9 0c 3d c9 cc 97 bd 38 3e d5 bc 82 cd cc 3c
       0.034341298 -0.074121065 -0.026030645 0.025000338
000390 65 ec 43 bd 99 25 70 bc ba 98 94 3d 58 0e 95 3d
       -0.047832865 -0.0146574015 0.07255693 0.072781265
0003a0 e3 84 01 3d 7f 3f f6 bc d6 ce dd 3c d5 1b 1c 3d
       0.03162087 -0.030059574 0.027076166 0.03811248
0003b0 d2 d8 77 3d c6 64 60 bd 51 01 17 bd ac 4d 81 3b
       0.06050951 -0.054783605 -0.03686649 0.003946027
0003c0 e4 60 26 3b 34 ff a3 3d 2b be 1e 3d c8 e9 d8 bc
       0.002538734 0.080076605 0.038755577 -0.026478663
0003d0 7d b3 83 bd c6 5f 8b bd 94 a6 20 bd fc 58 55 3b
       -0.06430719 -0.06805377 -0.03922136 0.003255426
0003e0 ee e1 80 3d 61 67 ce 3d 62 cb 5a bd 73 f4 f2 bc
       0.06293093 0.10078312 -0.053416617 -0.029657578
0003f0 52 f1 27 bd 3b ec 3b 3c 83 1e 26 3d 02 f6 50 bd
       -0.041001625 0.011469896 0.040556442 -0.05101586

bias f4 [64]
000000 73 5c 9e ba da d3 63 bd 83 fb 3e bd 3a d8 a3 3d
       -0.0012081995 -0.05562196 -0.04662658 0.08000226
000010 e6 74 8c 3c 4d 01 8c 3d ec 72 29 3d 69 a2 df 3c
       0.017145585 0.068361856 0.041369364 0.027299123
000020 da 26 bc bd b3 53 93 bd 68 ec ac bd b8 6f 28 3d
       -0.09187098 -0.07193699 -0.084435284 0.04112217
000030 97 7b 45 bd 49 a3 09 3c d4 7d 14 3d 18 bf 89 bd
       -0.048213568 0.008400747 0.03625281 -0.06725901
000040 97 cf 59 bd ea 5b 68 bd b8 6e 9f bc ef 3a 7c 3d
       -0.05317649 -0.05672828 -0.019461975 0.06157964
000050 53 0e 09 bd 9e 19 93 3d 3e a0 8e 3d 5d 6f ff 3c
       -0.033460926 0.071826205 0.069641575 0.031181032
000060 69 b1 83 3d 9d f3 69 bd e4 d1 a2 3d 17 a7 e5 3c
       0.06430323 -0.057117093 0.0795019 0.028033776
000070 85 bf 56 bd 60 87 8b bd 22 d7 aa 3d 11 a7 63 bd
       -0.05242874 -0.0681293 0.083418146 -0.05557925
000080 8a 99 12 bd e9 ea e1 bc 18 06 8c bd 60 46 2a 3d
       -0.035790958 -0.027577834 -0.068371 0.04157102
000090 07 c8 50 3c de 52 bd 3d 47 d0 60 3d ef c1 04 bd
       0.012743003 0.09244321 0.05488613 -0.032411512
0000a0 ed 3f 4f 3d 8a af 8e 3c 47 13 ce bc 93 45 bf 3d
       0.050598074 0.017417688 -0.025155677 0.09339442
0000b0 06 71 5b bd 60 f0 89 bc d4 f2 b1 3d a1 29 9b 3d
       -0.053574584 -0.016838253 0.08688894 0.075762995
0000c0 14 95 c1 bb fb dd b5 3d 09 0a 9b bc ae 2e c5 3d
       -0.005907664 0.0888023 -0.018925684 0.09628044
0000d0 eb f0 8b bd 74 38 59 bd 40 d8 f8 bb 10 d0 8b 3d
       -0.06833061 -0.053032354 -0.0075941384 0.06826794
0000e0 61 b3 a5 3d c7 62 99 bc 91 ef 32 bd 4e d7 64 bd
       0.080908544 -0.018723859 -0.0436855 -0.055869393
0000f0 0a e2 42 bd c8 0a 43 bd 32 a1 f1 3c 4d d1 43 bd
       -0.04757885 -0.047617704 0.02949581 -0.047807027

weight f4 [3, 64]
000000 49 57 09 3d 4e c6 99 3d ec 08 c7 3c 67 e3 cb bd
       0.033530507 0.07508527 0.024296246 -0.09955483
000010 53 d8 d4 3d 91 62 8e bd d7 cd 1e be 02 19 a6 bd
       0.10392823 -0.06952394 -0.15508209 -0.081102386
000020 75 08 a9 bc 8e b5 cc bd b6 8c af bd 11 f5 bd 3c
       -0.020633915 -0.09995566 -0.0857176 0.023188146
000030 14 bd 34 3d 31 7d 19 bd dc cb 0c be a3 1e 14 3e
       0.04412563 -0.037472907 -0.13749641 0.14464812
000040 73 07 0c 3e c0 e1 50 3c 3a 55 5a 3d d9 d0 3b 3d
       0.13674717 0.0127491355 0.053303935 0.04585347
000050 7c f9 0a 3d 44 6a e3 bd 0d b6 9a bd 57 c2 48 3d
       0.033929333 -0.11104253 -0.07554255 0.049013462
000060 ec d8 d7 3d 20 da f8 3d 79 01 22 be 18 c6 1b 3e
       0.105394214 0.12150979 -0.15820874 0.15212286
000070 7b a0 d4 3d 31 28 be 3d 47 d2 17 be 08 72 cf 3d
       0.10382172 0.0928501 -0.14826308 0.101291716
000080 50 ce 81 3d b8 c3 16 3e 7e f4 04 bd b4 0d d0 bd
       0.06338179 0.14723098 -0.03245973 -0.10158864
000090 c2 ab ae 3d 40 2d f6 bd 90 a0 1c 3d 74 86 ce 3d
       0.08528854 -0.120203495 0.03823906 0.10084239
0000a0 7d 10 00 be ce f8 3f 3d 3c 92 1b bd b5 d7 7b 3d
       -0.1250629 0.046868138 -0.037981257 0.06148501
0000b0 94 7b ab bd 94 5f 26 3d 09 b6 21 bc bc 47 e0 3d
       -0.0837318 0.040618494 -0.009870061 0.10951182
0000c0 fd c3 bf 3d c3 42 83 bd b1 4a 72 3c 4a 51 6d 3d
       0.09363554 -0.06409218 0.014788316 0.05793885
0000d0 47 40 7f 3d e4 d6 61 3d 9b c4 73 3c 04 41 6c bd
       0.06231716 0.055136576 0.014878417 -0.05767919
0000e0 aa 40 54 bd 36 f9 30 3d 21 2f 09 bb 63 8e 10 bd
       -0.05181948 0.043206416 -0.0020932632 -0.03529204
0000f0 29 49 34 3d 89 17 40 bd f8 be df bd f7 10 21 3d
       0.044015083 -0.046897445 -0.10925096 0.03932282
000100 06 50 ef 3d d3 0f f3 bd b1 68 83 3d 3f 68 05 3e
       0.11685185 -0.118682526 0.06416453 0.13028048
000110 2f 41 4b bd 6f 7d c2 3d 40 70 5c 3d c2 35 6b 3c
       -0.04962271 0.09496581 0.053817987 0.014356079
000120 8f 6b c2 bd 98 22 ab 3c 5a a1 a9 bd d5 68 fe bd
       -0.094931714 0.020890519 -0.082827285 -0.12422339
000130 3f 33 3d bd 00 49 04 3a b3 14 bf bc ef 8b c4 bd
       -0.04619145 0.0005046278 -0.0233253 -0.09597003
000140 1d c3 a6 3d 4c 1a 4c bc e0 b3 5f bd df c7 87 3d
       0.08142684 -0.012457442 -0.0546149 0.06629919
000150 dd 34 20 bd f8 f9 fb 3d 65 89 14 3c 0f d8 8c bd
       -0.039112914 0.12303537 0.0090659605 -0.068771474
000160 11 d1 e2 3d 2c ee e2 3c 29 dd 0a bc 0b e4 79 bd
       0.110750325 0.02770146 -0.00847558 -0.061008494
000170 b5 85 a3 3d d9 69 be 3d b7 30 8d bd 8a f3 12 3d
       0.07984487 0.092975326 -0.06894057 0.03587679
000180 ce 88 03 3d 10 8b 78 3d a0 7a 9d 3d 55 25 e8 3c
       0.03211289 0.060679495 0.076894045 0.028338114
000190 e6 ac 0a bd aa 52 92 3c 25 9d 09 bd 7f ec 95 3d
       -0.033856295 0.017861683 -0.03359713 0.07320499
0001a0 9e d9 13 bd 31 0c b3 bd 3b db fc 3d 4d b3 28 3d
       -0.036096208 -0.0874256 0.123465024 0.04118662
0001b0 c1 77 8e 3d 27 34 82 bd ce 35 04 3e cb 75 7a bd
       0.06956435 -0.063576035 0.1291115 -0.061147492
0001c0 f8 e8 df 3c 2f d3 3e bd db 20 8d 3d 2c ff 99 3d
       0.027332768 -0.04658812 0.06891032 0.07519373
0001d0 44 a8 0d bd 23 1c d1 bd 04 60 2b 3d 1d 38 81 bd
       -0.0345843 -0.10210445 0.041839615 -0.06309531
0001e0 70 ec 13 3e 1e 16 0c bd f6 4f ea 3d 9d b6 82 3d
       0.14445662 -0.03420078 0.114410326 0.06382487
0001f0 3e 21 55 3d c3 50 3a 3d 58 4d 7c 3d c5 fc 86 bb
       0.052033655 0.045487177 0.0615972 -0.004119488
000200 71 de 8a 3d 15 4a ca 3d 9b 87 d8 bc c3 d2 cd bd
       0.067807086 0.09877411 -0.02643185 -0.10049965
000210 78 b5 de 3d 34 df ce bc 00 c7 86 3d 65 67 e9 bc
       0.10874456 -0.025252916 0.06580925 -0.028491685
000220 2d 17 e5 3d 1f b5 c9 3c 36 5f 86 3d c3 0d 3b bd
       0.11186061 0.024622498 0.06561129 -0.04566742
000230 df 82 5a bd 4d 9d 15 3e dd 6c a3 bd b5 ef 14 be
       -0.053347465 0.14610787 -0.079797484 -0.14544566
000240 43 77 a8 bd 5d a8 a5 bd 1e a7 e3 bb 37 be 54 bd
       -0.08225872 -0.08088753 -0.006947412 -0.051939216
000250 b8 dd d2 bd 43 74 f2 bd 9d 04 8c bd 94 0d 89 3d
       -0.10296196 -0.118385814 -0.068368174 0.06692043
000260 01 5f 91 bd b6 7a e3 bc 63 6d ba 3c 1c d7 d4 bc
       -0.07098199 -0.027768474 0.022757238 -0.025981478
000270 e4 44 b0 3d f0 b5 2c 3d 5f b7 81 bd c1 09 07 be
       0.0860689 0.042165697 -0.063338034 -0.13187315
000280 c0 74 a0 3d 04 99 b2 bc 09 0f 66 bd 36 da 04 3e
       0.07834768 -0.02180148 -0.056166682 0.12973866
000290 03 00 17 be 0d b1 8e bd 28 bd de 3d 80 d6 65 3b
       -0.14746098 -0.069673635 0.108759224 0.003507048
0002a0 ae 2b 3b 3c e9 de c3 bd 4c 92 17 3e d4 21 9f bd
       0.011423988 -0.09564001 0.14801902 -0.07770124
0002b0 54 a3 00 3e 35 ff aa 3d 65 8a f9 bd b9 31 10 be
       0.12562305 0.08349458 -0.121846 -0.14081468
0002c0 7a b4 75 bd e9 b7 cb bd 56 f4 11 be 5f fc 84 bd
       -0.05998657 -0.099471875 -0.14253363 -0.064934485
0002d0 4b cf ef bd 66 9d ee 3d 31 f8 fa bc 3f ca 90 3d
       -0.1170946 0.11651115 -0.030635925 0.070698254
0002e0 5d c0 86 3d d0 cc 00 bd 11 ca f9 bd e1 33 a3 bd
       0.06579659 -0.031445324 -0.12196744 -0.079688795
0002f0 c4 c7 49 3d 93 6e b4 bd 31 5f f9 bd 80 63 9e bd
       0.049262777 -0.08810153 -0.121763594 -0.07733822

bias f4 [3]
000000 11 9f a8 3c fa 63 0b 3e a4 89 df bd
       0.020583661 0.13612357 -0.10914925
