nvidia_lstm_0.pth (torch, 840842 bytes, 9 tensors)

weight f4 [2611, 64]
0	0x3f2025d1	0.62557703
1	0xbe6126d9	-0.21987475
2	0x3da70795	0.08155743
3	0x3fd7f799	1.6872436
4	0xc00e40d2	-2.2227063
5	0xbf57734b	-0.841603
6	0xbee62206	-0.44947833
7	0xbdee8300	-0.1164608
8	0xbfc1c65d	-1.5138661
9	0x3c966d98	0.018362805
10	0xbece6dfe	-0.40318292
11	0xbf9620df	-1.1728781
12	0xbe7669f4	-0.24063855
13	0xbf9300fd	-1.1484677
14	0xbf81280c	-1.0090346
15	0xbf98f728	-1.1950426
16	0xbeacec00	-0.33773804
17	0x403e8684	2.9769602
18	0x3f62da1c	0.8861406
19	0x3fa95588	1.3229227
20	0x3f4858a8	0.7826028
21	0x3ebe7352	0.37197357
22	0x3e44af88	0.19207585
23	0xbf95e005	-1.170899
24	0x4001c546	2.0276656
25	0x3efce808	0.49395776
26	0xbf99168e	-1.1960008
27	0xbf6f63dc	-0.9351175
28	0xbe985255	-0.29750314
29	0xbffd0d68	-1.9769716
30	0xbf576793	-0.84142417
31	0x3e72da73	0.23716144
32	0x3f3e5bd4	0.7435887
33	0x3ff1f3e0	1.890255
34	0xbde721a5	-0.11285714
35	0x3e7a7b42	0.24461082
36	0x3f9e6c12	1.237673
37	0xbf8a2775	-1.0793291
38	0x4041f6d2	3.0306897
39	0x3f1e3d36	0.6181215
40	0xbfdf04a4	-1.7423291
41	0x3fbc5be2	1.471554
42	0x401025bd	2.2523034
43	0xbfa40ebe	-1.2816999
44	0xbf5c6e58	-0.8610587
45	0xbec4b055	-0.3841578
46	0x3d990262	0.074711576
47	0x3f3ad35d	0.72978765
48	0xbfa10175	-1.257857
49	0x3e9ec1ac	0.31007135
50	0x3ea5ad00	0.3235855
51	0xbe0202b1	-0.12696339
52	0xbf59517e	-0.8488997
53	0x3e3f08b9	0.18655671
54	0xc0142a03	-2.3150642
55	0x3f7c3f4e	0.98534095
56	0xbf13ba64	-0.57706285
57	0x3ce83921	0.028347554
58	0x3f352a27	0.70767444
59	0x40147438	2.3195934
60	0xbf4f766e	-0.81040084
61	0x3f28789f	0.65809053
62	0x3f323215	0.6960767
63	0xbeb05b2b	-0.34444556
64	0xbfb8aa69	-1.4427005
65	0xbf4f4c97	-0.8097624
66	0x3ef24105	0.4731523
67	0xbe8f4352	-0.2798105
68	0x3e7c89d5	0.24661954
69	0xbf229263	-0.6350462
70	0xbf0b3625	-0.54379493
71	0xbf90b127	-1.1304063
72	0xbf85b08b	-1.0444502
73	0x3fa7f427	1.3121384
74	0x401a44e8	2.4104557
75	0xbfc088a3	-1.5041698
76	0x3f74791f	0.95497316
77	0xbe36ec54	-0.1786359
78	0x3fc7d05d	1.5610462
79	0x3ef05692	0.46941048
80	0xbf420edb	-0.7580392
81	0xbf948913	-1.1604332
82	0xbddbc1e0	-0.10730338
83	0x3e22111d	0.1582684
84	0xbf850d5f	-1.0394706
85	0xbf39b2e8	-0.72538614
86	0x3e7eddf1	0.24889351
87	0x3f400170	0.75002193
88	0x3ea23d16	0.3168723
89	0x3f205d0d	0.62641984
90	0xbfb11c5d	-1.3836781
91	0x40048286	2.0704665
92	0x3d920f0a	0.07131775
93	0xbf34e60b	-0.7066352
94	0xbe512958	-0.20425928
95	0xbf590d4a	-0.847859
96	0x3f614fc1	0.8801232
97	0xbf377f6e	-0.7167882
98	0x3ffdd01a	1.9829133
99	0xbfc71679	-1.5553733
100	0x3ea12417	0.31472847
101	0x3f9ff93d	1.2497936
102	0x3fd9c0ec	1.7012
103	0x3e892782	0.26787955
104	0xbf3fc45d	-0.74909
105	0xbf4d0b18	-0.8009505
106	0x3ffd27e6	1.9777801
107	0x3eb35037	0.35022137
108	0xbf5909f7	-0.8478083
109	0xbf8cb8e4	-1.0993924
110	0xbf8bc27a	-1.0918725
111	0x3f5f95ed	0.87338144
112	0xbf347836	-0.7049593
113	0x3ef4b6e4	0.47795784
114	0xbe6a3f0e	-0.22875616
115	0xbf0618d2	-0.5238162
116	0xbdba0225	-0.0908244
117	0xbf523c8c	-0.8212364
118	0xbe620f3c	-0.22076124
119	0x3fb21c33	1.3914856
120	0xbef237a8	-0.47308087
121	0x3f47b046	0.78003347
122	0x3ebfb601	0.37443545
123	0x3e8fe646	0.28105372
124	0x3ebc03f4	0.36721766
125	0x3d8bf410	0.068336606
126	0xbf00c9c7	-0.5030789
127	0xbf647941	-0.8924752
128	0xbe35cec6	-0.17754659
129	0x3f145298	0.5793853
130	0xbf4cd6a2	-0.80015004
131	0x3f6e673b	0.9312627
132	0x3ead426b	0.33839735
133	0x3fc54f15	1.5414759
134	0x3f67ca1b	0.90542763
135	0xbe82ab1f	-0.2552118
136	0x401931cb	2.3936641
137	0x3e95051f	0.2910547
138	0xbf77734f	-0.9666032
139	0x3fe26eed	1.7690102
140	0xbd7a79ab	-0.061151188
141	0x3f17e957	0.59340423
142	0x3f304330	0.6885252
143	0xbe23b258	-0.15986001
144	0x3f197eb8	0.5995898
145	0x3f1b2bc6	0.6061367
146	0x3e7250a9	0.23663582
147	0xbf49be49	-0.7880598
148	0x3fbc7b06	1.4725044
149	0x3d1f9bb0	0.038966835
150	0xbf05002e	-0.519534
151	0x3efda0e7	0.4953682
152	0x3ea21e12	0.31663567
153	0xbdbcdb28	-0.09221488
154	0xbdf8cc50	-0.121483445
155	0xbfc59c21	-1.5438272
156	0xbdd00e01	-0.10158921
157	0xbe181e69	-0.1485535
158	0xbf8490c9	-1.0356685
159	0x3f2a55ba	0.6653706
160	0x40083f6a	2.1288705
161	0xbf10c9a4	-0.5655768
162	0xbf490b49	-0.78532845
163	0xbf308df6	-0.68966615
164	0x3f2afe74	0.66794515
165	0x40117b48	2.2731495
166	0xbeaab439	-0.33340624
167	0x3f86f229	1.0542651
168	0x3f9d5559	1.2291671
169	0x3fcf9cbb	1.6219705
170	0xbf82a572	-1.020674
171	0x400e5bd8	2.2243557
172	0x3f6a4ccb	0.91523427
173	0x3e1819cc	0.1485359
174	0x400491d5	2.071401
175	0x3edadfb6	0.42748803
176	0xbf6cb489	-0.92462975
177	0xbf903df7	-1.126891
178	0xbe8b42bc	-0.27199352
179	0x3fbd4373	1.4786209
180	0x3ef808a8	0.48444104
181	0x3f884fdf	1.0649375
182	0x3f30454b	0.6885573
183	0xbea64969	-0.32477883
184	0xbef26d20	-0.4734888
185	0xbe5ca9a9	-0.21549095
186	0xbf9cd6a9	-1.2253009
187	0x3e7691e5	0.24079092
188	0xbfbd01a4	-1.4766126
189	0x3e8fd15a	0.2808941
190	0x3da1006c	0.078614086
191	0x3f0ad16f	0.5422582
192	0xbf0f4c59	-0.5597587
193	0xbfc766c5	-1.5578238
194	0x3f927da5	1.1444594
195	0xbe34fb8d	-0.17674084
196	0x3f0bf590	0.54671574
197	0xbfd6db10	-1.6785603
198	0xbedb62dd	-0.42848864
199	0xbefc7654	-0.49309027
200	0xbe417009	-0.18890394
201	0x3f2e598f	0.68105406
202	0x3f03b4ff	0.51448053
203	0xbf85a12e	-1.0439813
204	0xbec798e0	-0.38983822
205	0xbf3c544e	-0.7356614
206	0x3f25fc59	0.64838177
207	0x3f210378	0.6289592
208	0xbf4624e7	-0.7740006
209	0xbf7ca86c	-0.9869449
210	0xbf83e15e	-1.0303152
211	0x3e78848c	0.24269313
212	0xbf3bfad5	-0.73429614
213	0x3f254fb6	0.64574754
214	0x3f087129	0.5329767
215	0x3e066b84	0.13126951
216	0xbfc84b6f	-1.564802
217	0x3fe3ac48	1.7786951
218	0xbfbc578e	-1.471422
219	0xbe3761e3	-0.17908435
220	0xbe52fe89	-0.2060491
221	0x3f91c04e	1.1386812
222	0xbfb0133c	-1.375587
223	0x3d847cc3	0.06469109
224	0x3f965c92	1.1747
225	0xbdde4b3f	-0.10854196
226	0xbee4afbf	-0.44665334
227	0xbe893418	-0.26797557
228	0x3faa3f41	1.3300554
229	0x3f2aaafd	0.6666716
230	0x3f886b81	1.0657808
231	0x3e08deb6	0.13366207
232	0xbfaf1870	-1.3679333
233	0xbe165ee3	-0.14684634
234	0xbf8f3bfb	-1.119018
235	0xbf56708f	-0.837655
236	0xbf1c7373	-0.6111366
237	0x3ebd9994	0.37031233
238	0x3f32841b	0.69732827
239	0xbf0989e3	-0.53726023
240	0x3f4960f5	0.7866357
241	0x3e776385	0.24159057
242	0xbe51e9c1	-0.20499326
243	0x3f893ea9	1.0722247
244	0x3e29e66b	0.16591804
245	0xbe30498c	-0.17215556
246	0x3f75ca7c	0.9601209
247	0xbf445be2	-0.767027
248	0x3fc34a02	1.525696
249	0xbf1f4275	-0.6221078
250	0xbe2c7d5f	-0.168447
251	0x3f656dff	0.89620966
252	0x3fbb74a1	1.4644967
253	0xbecb133e	-0.39663118
254	0x3f215893	0.6302578
255	0xbece1cda	-0.40256387

weight_ih f4 [256, 64]
0	0x3d93e43a	0.07221265
1	0x3d772919	0.06034193
2	0xbd78097b	-0.060555916
3	0x3ca44c53	0.020055925
4	0x3dc0b63e	0.0940976
5	0xbd895915	-0.06706444
6	0xbdc962e5	-0.09833316
7	0xbca2c91f	-0.019871293
8	0xbd48bee3	-0.04901017
9	0xbdc1aea0	-0.09457135
10	0x3d8373cd	0.064185716
11	0xbdb2193d	-0.0869622
12	0xbd71bc88	-0.059017688
13	0xbda1c666	-0.078991696
14	0x3cdc7408	0.026910797
15	0xbd1490f0	-0.036271036
16	0xbd44567c	-0.04793404
17	0xbd9a7907	-0.075426154
18	0x3bbd7de7	0.005782831
19	0xbcf43ca2	-0.029814068
20	0x3d854d74	0.06508914
21	0xbc135c49	-0.00899417
22	0xbda1aefd	-0.078947045
23	0x3da3e621	0.08002878
24	0xbdcf2db7	-0.10116141
25	0xbdad0b2b	-0.08449396
26	0x3dea7b6e	0.114493236
27	0xbddf4c23	-0.10903194
28	0x3da905a0	0.08253026
29	0xbc989253	-0.01862446
30	0xbd1a185c	-0.037620887
31	0xbc5d5354	-0.0135086365
32	0xbd1e1420	-0.03859341
33	0x3e009188	0.12555516
34	0xbcc4581d	-0.023967797
35	0xbc29d1d5	-0.010364969
36	0xbd3998c6	-0.04531171
37	0xbe04cb24	-0.12968117
38	0xbc8854bd	-0.016641969
39	0x3dab5053	0.0836493
40	0xbe090e5a	-0.13384381
41	0x3ca6ac9b	0.020345977
42	0xbd1805a9	-0.037114773
43	0xbd514257	-0.051088657
44	0xbdef8af0	-0.11696422
45	0x3de5477f	0.111952774
46	0xbcacefd9	-0.021110462
47	0xbdc9884b	-0.09840449
48	0xbdcd060f	-0.10010921
49	0x3dabce2d	0.08388934
50	0xbdb00a7e	-0.08595751
51	0xbbf5410f	-0.007484562
52	0xbdf6e6cf	-0.12055742
53	0xbcf758ff	-0.030193804
54	0xbdb170a2	-0.08664061
55	0x3baca4b6	0.0052686585
56	0xbd7b2bd8	-0.06132111
57	0xbda190ab	-0.07888921
58	0xbc4e53b0	-0.012593195
59	0xbdcc56bb	-0.0997748
60	0x3dba6eab	0.091031395
61	0x3c441905	0.011968856
62	0xbdbb7c16	-0.09154527
63	0xbcb553ca	-0.02213468
64	0x3ddfdd24	0.10930851
65	0xbe1ac551	-0.15114333
66	0x3cf0214b	0.02931275
67	0x3da66563	0.08124807
68	0xbc0711df	-0.008244007
69	0xbdc455e9	-0.095866986
70	0x3da801a0	0.08203435
71	0x3b8fb2bd	0.004385321
72	0x3e20386d	0.15646525
73	0x3d25b87c	0.04045914
74	0xbd8eef83	-0.06979277
75	0xbdd92f94	-0.10604778
76	0x3de00021	0.109375246
77	0xbdf0b026	-0.11752348
78	0xbd60df67	-0.054900553
79	0xbdc207e7	-0.094741635
80	0x3b2b6a4a	0.0026155883
81	0xbdac75a3	-0.08420875
82	0x3de95209	0.113926
83	0x3dd4f3a1	0.10398031
84	0x3cd250a1	0.025673212
85	0xbda77c06	-0.081779525
86	0x3de8353f	0.11338281
87	0x3da84e3f	0.08218049
88	0x3d0000b9	0.03125069
89	0xbdd758b7	-0.10514968
90	0xbe01b23a	-0.12665644
91	0xbd627d27	-0.055295136
92	0xbdc570f6	-0.09640686
93	0x3be9226d	0.0071146996
94	0x3d5e0ad4	0.054209545
95	0x3cd94a02	0.026524547
96	0x3dd24d22	0.10268618
97	0x3d2e07e9	0.042488012
98	0xbdac61e4	-0.08417109
99	0xbd40451b	-0.046940904
100	0x3b3f8491	0.0029223303
101	0xbd41cdb2	-0.047315307
102	0x3d509b31	0.050929252
103	0xbdadb8de	-0.08482526
104	0x3db1f151	0.086886056
105	0xbd8ce82d	-0.068802215
106	0xbd9bc226	-0.0760539
107	0x3d9e1027	0.077179246
108	0x3d99baa2	0.075063005
109	0x3d902b16	0.07039468
110	0x3d99ea8d	0.0751544
111	0xbdf8f267	-0.121556096
112	0xbc7866f2	-0.015161263
113	0xbdfda3cc	-0.123847574
114	0xbdce4a50	-0.10072768
115	0x3d7d95ce	0.061910443
116	0xbab80139	-0.001403845
117	0xbc277b74	-0.010222305
118	0x3dd366f9	0.10322375
119	0xbce554d9	-0.02799456
120	0xbe112947	-0.14175902
121	0x3cef58c1	0.029217126
122	0xbdd644ba	-0.10462327
123	0xbd46ce79	-0.04853675
124	0x3d918303	0.071050666
125	0xbc66d648	-0.014089175
126	0x3dc773b5	0.09738866
127	0xbde46a4a	-0.111530855
128	0xbd313d45	-0.04327132
129	0xbdaf63fd	-0.08563993
130	0x3d12a24b	0.035799306
131	0x3dde1a95	0.10844914
132	0x3d9e55c9	0.07731206
133	0x3d581756	0.05275663
134	0x3cd161af	0.025559274
135	0xbe27f9c8	-0.16403878
136	0x3da805d2	0.08204235
137	0x3c999dc2	0.018751983
138	0x3d85e8b8	0.06538528
139	0x3dbe332f	0.09287106
140	0x3e0697ff	0.1314392
141	0x3da2b0a6	0.07943849
142	0xbe04b350	-0.12959027
143	0xbde42ed4	-0.11141744
144	0xbc86e0eb	-0.016464671
145	0xbe10c6c9	-0.1413833
146	0x3c88d409	0.016702669
147	0x3d77644e	0.060398392
148	0xbde389c1	-0.11110259
149	0x3daef6af	0.08543145
150	0xbccb09af	-0.024784891
151	0x3d8e9f9b	0.06964036
152	0x3d573cef	0.052548345
153	0x3da3aa23	0.079914354
154	0xbd5486c5	-0.05188634
155	0x3e0683ee	0.13136265
156	0xbd682c75	-0.056683023
157	0x3becb7f5	0.007224078
158	0xbd73e240	-0.05954194
159	0xbdbd9547	-0.09256988
160	0x3dde3b82	0.10851194
161	0x3dbc0895	0.091813244
162	0xbd4f171d	-0.050559152
163	0xbc8b7be8	-0.017026857
164	0x3dd72b91	0.105063565
165	0xbdcbc0a1	-0.099488504
166	0xbd8e3932	-0.06944503
167	0xbd865aae	-0.065602645
168	0xbd316cf2	-0.04331679
169	0xbd03cb50	-0.032176316
170	0xbe320ca9	-0.17387642
171	0x3cfef85d	0.031124288
172	0x3dc75ea5	0.09734849
173	0x3d8da122	0.06915499
174	0x3e184bda	0.14872685
175	0x3db508bc	0.088395566
176	0x3df34e05	0.118801154
177	0xbcfd9ffa	-0.030960072
178	0xbca5ee10	-0.020255119
179	0x3e095614	0.13411742
180	0xbdf56bdf	-0.119834654
181	0x3dfa6453	0.122261666
182	0xbc4c8309	-0.012482413
183	0x3e1fd36c	0.15607995
184	0xbd9c32d9	-0.07626886
185	0x3deacda8	0.11465007
186	0x3e09c9bd	0.13455863
187	0x3bae7227	0.0053236666
188	0x3b0e6e08	0.0021733064
189	0xbd6ebe56	-0.058286987
190	0xbe01c365	-0.12672193
191	0x3cd233cd	0.025659466
192	0x3b99c1c8	0.00469229
193	0x3d3baf0a	0.045821227
194	0xbd8d8221	-0.06909586
195	0xbe2421b0	-0.16028476
196	0x3d550000	0.052001953
197	0x3afe22f3	0.0019389078
198	0x3ddf5143	0.10904171
199	0xbd60056d	-0.054692674
200	0x3c9eff7a	0.01940893
201	0xbe0aab56	-0.13541922
202	0x3bb842a6	0.0056231795
203	0xbcff6d84	-0.03118015
204	0x3da134d2	0.07871403
205	0x3d0d0b8f	0.03443485
206	0xbe41cf5f	-0.18926762
207	0xbcbe45d1	-0.02322665
208	0x3c0f7d69	0.008757927
209	0x3d8e67be	0.06953381
210	0x3e0d448e	0.13795683
211	0xbcc11954	-0.023571648
212	0x3ceb0fcf	0.028694062
213	0x3bcaba19	0.0061867354
214	0xbcf08c85	-0.02936388
215	0x3d9c21d5	0.076236404
216	0xbd9db48b	-0.077004515
217	0x3d1ed0c3	0.03877331
218	0xbda8835a	-0.08228178
219	0x3c8bc7cf	0.01706305
220	0x3e00cfee	0.12579319
221	0xba9fdb5b	-0.001219611
222	0x3d5d1d97	0.053983297
223	0xbdd60191	-0.104495175
224	0x3cc9a7ee	0.024616208
225	0x3c607171	0.013698922
226	0xbd6d7f34	-0.05798264
227	0xbd26070c	-0.040534064
228	0x3da235b1	0.07920397
229	0x3d0655b2	0.03279657
230	0x3d18bf8e	0.037292056
231	0xbcefac9e	-0.029257115
232	0x3d33c4a0	0.043888688
233	0xbdf45045	-0.11929373
234	0xbc334cbc	-0.010943588
235	0xbd4b9d2e	-0.049710445
236	0x3cf29a60	0.029614627
237	0xbce9a210	-0.02851966
238	0x3d37a39f	0.044833776
239	0xbe12015a	-0.14258328
240	0xbddcaf2a	-0.107755974
241	0xbdefec45	-0.11714987
242	0xbdf6eecd	-0.120572664
243	0x3df63fda	0.120238975
244	0x3e1136d0	0.14181066
245	0x3d6bdda3	0.057584416
246	0xbdfe6208	-0.12421042
247	0x3d4b12bc	0.049578413
248	0xbc6c1ba0	-0.014410883
249	0x3db0552a	0.08609994
250	0x3d8d018b	0.0688506
251	0x3d0680be	0.032837622
252	0x3d43bec9	0.04778937
253	0xbaf80ede	-0.0018925329
254	0x3d6c31c1	0.057664637
255	0x3c1f29d0	0.009714559

weight_hh f4 [256, 64]
0	0xbda9a144	-0.08282712
1	0xbdad1bd8	-0.084525764
2	0xbd72ae6c	-0.059248373
3	0xbdc37056	-0.09542911
4	0x3b9edcb3	0.0048480867
5	0x3ce37bfd	0.027769083
6	0x3d3a75e0	0.04552257
7	0x3c018cd4	0.007907111
8	0x3d07df05	0.033171672
9	0x3d666ee1	0.056258086
10	0x3d31f291	0.04344422
11	0x3d797bdd	0.06090914
12	0xbc6c62a3	-0.014427814
13	0xbdb53b2b	-0.08849176
14	0xbd4103d5	-0.047122795
15	0xbdc3abd9	-0.09554262
16	0xbdec4257	-0.11536091
17	0x3de79bdc	0.11309025
18	0x3d6f2070	0.058380544
19	0xbc41b255	-0.011822303
20	0x3da2fa0e	0.079578504
21	0xbd059d7a	-0.032620884
22	0x3cebd08b	0.028785964
23	0x3d7b1596	0.061299883
24	0xbdcf6ddd	-0.10128377
25	0xbc78cd5a	-0.015185678
26	0x3bf7a3b1	0.0075573553
27	0x3b5275ee	0.0032113749
28	0xbe0e4f41	-0.1389742
29	0x3de46652	0.111523286
30	0xbdd59cac	-0.104302734
31	0x3d576b7b	0.052592736
32	0xbdcef7c4	-0.10105851
33	0xbd9dc85a	-0.0770423
34	0x3ca07b77	0.019590123
35	0x3c9a16fa	0.018809784
36	0xbdafaca1	-0.08577848
37	0xbdffa6ff	-0.12483024
38	0xbe133350	-0.14375043
39	0xbd83e6fe	-0.06440543
40	0x3d8c42ef	0.06848704
41	0xbd841a22	-0.06450297
42	0x3c754ef6	0.014972439
43	0xbd23f911	-0.04003245
44	0xbde6bc07	-0.11266332
45	0x3d562955	0.05228551
46	0x3d8bab3a	0.06819768
47	0x3dc34788	0.09535128
48	0x3d3e9f63	0.04653872
49	0x3c69e8bd	0.014276681
50	0xbdc0450a	-0.09388168
51	0x3dbd4ae2	0.092427984
52	0x3dcdb607	0.100444846
53	0x3d98e6db	0.07465907
54	0xbd7c8906	-0.061654113
55	0xbd8d6cae	-0.06905495
56	0xbdd2624d	-0.10272656
57	0x3d921da7	0.07134562
58	0xbdd31c83	-0.103081726
59	0x3d8251ee	0.06363283
60	0x3d403bf6	0.046932183
61	0x3e05be0a	0.13060775
62	0xbc6f7c7e	-0.014617084
63	0x3d4081da	0.046998836
64	0xbddb6e45	-0.107143916
65	0xbbc52bcc	-0.006017184
66	0x3b7d2f34	0.0038632872
67	0x3d1a6e34	0.037702754
68	0xbd2b9ff3	-0.041900586
69	0x3da3d26e	0.07999121
70	0xbdc6e7e7	-0.097122006
71	0xbd356e34	-0.04429455
72	0x3ddf5bc8	0.10906178
73	0xbd43822b	-0.04773156
74	0xbb391d82	-0.0028246348
75	0xbe044146	-0.12915525
76	0xbd905b69	-0.07048685
77	0x3d8f2baf	0.06990754
78	0x3dee51f0	0.11636722
79	0xbdf00b5a	-0.11720915
80	0xbd26ecb2	-0.040753074
81	0xbdeebad4	-0.116567284
82	0xbcee636e	-0.029100146
83	0xbdc52a4e	-0.096272096
84	0xbdfa67f1	-0.122268565
85	0xbcd589d3	-0.026066696
86	0xbb80b280	-0.003927529
87	0xbca0163e	-0.019541856
88	0x3c1af7a4	0.009458456
89	0x3bebf6bb	0.0072010434
90	0x3e0e3321	0.13886692
91	0xbdaceb85	-0.08443359
92	0xbdc78982	-0.097430244
93	0xbd6cf937	-0.057854857
94	0xbde50717	-0.11182993
95	0x3d011d8e	0.031522326
96	0x3c9227d3	0.017841255
97	0x3bd67c5f	0.006545588
98	0xbdd7b12e	-0.10531841
99	0xbd5eea4f	-0.054422673
100	0x3c31a990	0.0108436495
101	0xbd66ceb9	-0.05634949
102	0xbdd5b192	-0.104342595
103	0xbbe49ae4	-0.006976472
104	0xbd1ddc02	-0.038539894
105	0x3dafc403	0.08582308
106	0xbcd2e38e	-0.025743272
107	0x3d97c48c	0.07410535
108	0xbd857ef3	-0.06518354
109	0xbde2446f	-0.11048209
110	0xbda0ef0b	-0.07858094
111	0x3d35819c	0.04431306
112	0xbcab0add	-0.020879203
113	0xbca7d0e8	-0.020485356
114	0xbd628e39	-0.055311415
115	0xbd51f460	-0.051258445
116	0x3d2fbd81	0.042905334
117	0xbd63a70e	-0.055579238
118	0x3df7dc7a	0.121025994
119	0x3e1f1f5f	0.15539311
120	0xbdcd8d4f	-0.10036718
121	0xbd91f858	-0.07127446
122	0x3d8f30ef	0.06991755
123	0xbd8dec32	-0.06929816
124	0xbdcf15e0	-0.10111594
125	0xbd8177ed	-0.06321702
126	0x3d33a652	0.043859787
127	0xbd048686	-0.032354854
128	0x3db34dc9	0.08755071
129	0xbdb0e9db	-0.086383544
130	0xbc51d389	-0.012806782
131	0x3dcdf5d9	0.10056657
132	0x3c1630b8	0.009166889
133	0x3e10bdc0	0.14134884
134	0xbe0512bb	-0.12995426
135	0x3df30634	0.118664175
136	0x3ce7cd4d	0.028296137
137	0xbb9b5366	-0.0047401665
138	0x3df5a93e	0.11995171
139	0xbe00a872	-0.12564257
140	0xbe17e3d3	-0.14833002
141	0xbc066e92	-0.008205073
142	0xbd5422cd	-0.051791
143	0xbb4ca628	-0.0031226967
144	0xbe184d3c	-0.14873213
145	0x3d26029c	0.040529832
146	0xbcd25851	-0.025676878
147	0xbdf36d9d	-0.118861414
148	0x3b11b9b6	0.0022235936
149	0xbdd4ef99	-0.10397262
150	0x3c96ee8f	0.0184243
151	0xbc448924	-0.0119955875
152	0xbd9b07dd	-0.07569859
153	0xbda19915	-0.07890526
154	0xbdcac59a	-0.09900971
155	0xbccd2309	-0.02504112
156	0xbd35b514	-0.044362143
157	0x3da413a0	0.08011556
158	0xbdd9591b	-0.10612699
159	0xbd62c37e	-0.055362217
160	0x3e1af9a5	0.15134294
161	0x3dbdcaf2	0.09267224
162	0xbd2159f9	-0.039392445
163	0xbd81ca94	-0.06337467
164	0x3d8f8916	0.07008569
165	0x3dc8b6de	0.09800504
166	0x3d40aeaa	0.047041573
167	0xbd5d051e	-0.05395996
168	0xbd45dea2	-0.048308022
169	0x3db86057	0.0900275
170	0xbca6e1d8	-0.020371363
171	0xbde99a94	-0.114064366
172	0x3daaec2e	0.08345829
173	0xbdc6d26b	-0.09708103
174	0xbd86022c	-0.06543383
175	0xbd4e7b42	-0.050410517
176	0xbcc1e0e1	-0.0236668
177	0x3de3aacf	0.111165635
178	0x3db1943a	0.0867085
179	0xbd3f779b	-0.046744924
180	0xbdacee9b	-0.08443948
181	0xbdb0db94	-0.08635631
182	0x3d9b488b	0.07582196
183	0x3a06250e	0.0005117216
184	0x3db6b61e	0.08921455
185	0x3d4f2832	0.050575443
186	0x3cea6b77	0.028615696
187	0x3e057512	0.1303294
188	0x3cc06504	0.023485668
189	0x3d17e729	0.037085686
190	0x3c35cc06	0.011096006
191	0xbd91c397	-0.07117384
192	0xbe36a2e2	-0.17835572
193	0xbd4372f7	-0.04771706
194	0x3dc58df0	0.09646213
195	0xbe11b5a8	-0.14229453
196	0x3d54d11c	0.051957235
197	0x3cbb7101	0.022881033
198	0x3e0976c7	0.13424216
199	0x3e19d6b0	0.15023303
200	0xbc71be4e	-0.014754845
201	0x3d9fab70	0.07796371
202	0x3c82ae41	0.015952231
203	0x3d4fbd7f	0.050717827
204	0xbcaa6a36	-0.020802598
205	0xbdfd47b2	-0.123671904
206	0xbe303e15	-0.17211182
207	0x3e0129d4	0.12613612
208	0xbdd1debb	-0.102475606
209	0x3e2cd8e5	0.16879614
210	0xbd85bd50	-0.06530249
211	0x3c9ca236	0.019120317
212	0xbd28279b	-0.041053396
213	0xbdcb7999	-0.09935302
214	0x3dbb7559	0.09153242
215	0x3ddce6b5	0.107861914
216	0xbdaa4cf8	-0.08315462
217	0xbd9f3a2e	-0.07774769
218	0xbe17b6df	-0.14815854
219	0xbd00bf3e	-0.031432383
220	0xbd395552	-0.045247383
221	0x3dff0f64	0.124541074
222	0xbc926ca0	-0.017874062
223	0xbd01a705	-0.031653423
224	0x3dc41473	0.09574213
225	0xbe02c23f	-0.12769412
226	0x3d6682d8	0.056277126
227	0x3d66bb0c	0.056330726
228	0xbd48977f	-0.048972603
229	0x3de1becd	0.110227205
230	0xbcda4b20	-0.02664715
231	0xbde9bf05	-0.11413387
232	0xbd99e151	-0.07513679
233	0xbdb04858	-0.086075485
234	0xbd92a381	-0.07160092
235	0xbdf3262c	-0.11872515
236	0xbcad4263	-0.02114982
237	0xbda78531	-0.08179701
238	0x3da01a41	0.078175075
239	0x3cbcc6ba	0.023043979
240	0xbda23db4	-0.07921925
241	0xbdb6d4af	-0.08927285
242	0x3cfa7704	0.03057433
243	0x3e015fc2	0.12634185
244	0xbde7c683	-0.1131716
245	0x3d2eafd8	0.042648166
246	0x3db06daa	0.08614667
247	0x3caae4da	0.020861078
248	0x3d999c16	0.07500474
249	0xbdfa3e8b	-0.122189604
250	0xbe0192f2	-0.12653711
251	0xbd6ebb01	-0.05828381
252	0x3db56634	0.08857384
253	0xbdcd32a6	-0.10019426
254	0xbd89cd76	-0.06728642
255	0x3cd5c9ae	0.026097145

bias_ih f4 [256]
0	0x3d349e21	0.044096116
1	0xbde891c2	-0.11355926
2	0x3df0bebb	0.11755129
3	0xbcb16368	-0.021653846
4	0x3de0bce2	0.109735265
5	0xbc4fa72c	-0.012674134
6	0x3df0e8ea	0.11763175
7	0xbd1e40c9	-0.038636003
8	0x3e0e36e7	0.13888131
9	0x3dea1d57	0.114313774
10	0x3e036b94	0.12834007
11	0x3c42becb	0.011886309
12	0x3cff1478	0.03113769
13	0x3d4ced0a	0.050030746
14	0xbd058b04	-0.03260328
15	0xbdaa83c3	-0.08325913
16	0xbc8a9301	-0.0169158
17	0xba98d343	-0.0011659641
18	0x3df8e86a	0.121537045
19	0x3de868c2	0.11348106
20	0xbc480b49	-0.012209722
21	0xbd19bc96	-0.037533365
22	0x3d90a532	0.070627585
23	0x3d901022	0.07034327
24	0xbdad0736	-0.08448641
25	0x3c268284	0.010162953
26	0x3cfcb8f5	0.030849913
27	0x3e017fd2	0.12646416
28	0x3df8d30d	0.1214963
29	0xbda5cf46	-0.08096175
30	0x3d8ae545	0.06782011
31	0xbc158561	-0.009126038
32	0x3d61496b	0.055001657
33	0x3c824c78	0.015905604
34	0x3d99baab	0.07506307
35	0x3cb19f5d	0.021682436
36	0x3e0f1ea1	0.13976528
37	0xbd8b3567	-0.06797295
38	0xbd82d71a	-0.063886836
39	0xbd81e659	-0.063427635
40	0x3cb0a2ac	0.021561943
41	0x3db9afbc	0.09066722
42	0x3c888a68	0.01666756
43	0xbccac94f	-0.024754195
44	0xbdca3abb	-0.09874483
45	0xbdc45f29	-0.09588463
46	0x3ceb3331	0.028710933
47	0x3e0283ee	0.1274564
48	0x3c92b66f	0.017909257
49	0x3d45db79	0.04830501
50	0x3dfd6515	0.123727955
51	0x3c88dae1	0.016705932
52	0x3d0f2ca8	0.034954697
53	0xbdb46ba0	-0.0880959
54	0x3d6d6160	0.057954192
55	0xbd29eeb6	-0.041487418
56	0xbdbac93d	-0.091204144
57	0x3ddee14e	0.10882817
58	0xbdbd839a	-0.09253617
59	0x3d405e15	0.046964724
60	0x3d193ba3	0.03741039
61	0xbca94c12	-0.020666156
62	0xbd9d8202	-0.07690813
63	0xbc4df9ea	-0.012571791
64	0x3e15bb26	0.14622173
65	0xbddd2915	-0.107988514
66	0x3d962e06	0.07332997
67	0x3ca77e4d	0.020445967
68	0xbc8c55b6	-0.017130714
69	0x3d851c51	0.064995416
70	0xbd112e3a	-0.035444476
71	0xbda232d2	-0.079198495
72	0x3db8e881	0.090287216
73	0x3d4bdd6d	0.049771715
74	0xbdb52cbb	-0.08846422
75	0x3ca1c525	0.019747326
76	0xbe092844	-0.13394266
77	0xbd93883d	-0.0720372
78	0xbbadc205	-0.00530267
79	0xbd721bd2	-0.059108563
80	0x3cb84bff	0.022497175
81	0x3c972b37	0.018453224
82	0xbd979bb2	-0.074027434
83	0xbdb028a0	-0.086014986
84	0x3d8d9c9a	0.06914635
85	0x3c9cc57c	0.019137137
86	0x3dcea5c3	0.1009021
87	0xbdbb1fdf	-0.09136938
88	0x3d8233bc	0.06357524
89	0x3e148620	0.1450429
90	0x3e0fd3a6	0.14045581
91	0xbd9f0c8e	-0.077660665
92	0xbcd5b750	-0.026088387
93	0x3dc5b113	0.09652915
94	0xbd934417	-0.071907215
95	0x3d991260	0.07474208
96	0xbd860cd2	-0.06545414
97	0xbd6c2202	-0.05764962
98	0x3c7ad2bd	0.015309033
99	0xbdbc39ce	-0.09190713
100	0x3da3ab66	0.07991676
101	0x3d5dc399	0.054141615
102	0x3df9c08c	0.121949285
103	0xbcf2f20a	-0.029656429
104	0xbd47fc2a	-0.048824467
105	0xbdc748b5	-0.09730665
106	0x3b5fa1be	0.0034123505
107	0x3bfbbccf	0.00768242
108	0x3e0ede75	0.13952048
109	0xbd2451bf	-0.04011702
110	0x3dd0b398	0.10190505
111	0x3dd76ac9	0.105184145
112	0x3d7c4263	0.06158675
113	0xbda2b77f	-0.07945155
114	0xbd565314	-0.052325323
115	0x3cc5395e	0.024075206
116	0x3d25b506	0.04045584
117	0xba2ae739	-0.000651944
118	0xbd90b40c	-0.07065591
119	0xbda34085	-0.079712905
120	0x3df9041e	0.121589884
121	0xbdbe165c	-0.092816085
122	0x3d490c0c	0.049083754
123	0xbdb3736d	-0.0876225
124	0xbe040961	-0.12894203
125	0xbd938c6d	-0.072045185
126	0x3ca17a7b	0.019711724
127	0xbdb77876	-0.08958523
128	0xbd51c02e	-0.051208667
129	0xbd8072b4	-0.06271878
130	0x3db723e3	0.08942392
131	0xbccbbbc8	-0.024869815
132	0x3cac2ccf	0.02101746
133	0xbd90a3fc	-0.070625275
134	0x3d36d7fa	0.044639565
135	0xbc9fb844	-0.019497044
136	0x3b7c057c	0.0038455417
137	0x3ddfa303	0.10919764
138	0xbc453814	-0.012037296
139	0xbd90408e	-0.07043563
140	0x3da2e286	0.07953362
141	0xbd459538	-0.04823801
142	0xbcda08d7	-0.026615543
143	0x3d4c5ba9	0.0498921
144	0xbd913d72	-0.07091798
145	0x3d3379c5	0.0438173
146	0x3d7a2dc0	0.061078787
147	0x3d4a767f	0.049429413
148	0x3dc83a2a	0.09776719
149	0xbdd0a9e7	-0.10188656
150	0xbda7a80b	-0.081863485
151	0x3d9254e4	0.07145098
152	0x3d38dd3d	0.045132864
153	0xbc305ee4	-0.010764811
154	0x3cc9d0d4	0.02463571
155	0x3d915c88	0.07097727
156	0xbd7421a4	-0.059602395
157	0xbcfc2033	-0.030777073
158	0xbda2f662	-0.0795715
159	0xbc66885e	-0.014070598
160	0xbcf4bffc	-0.029876702
161	0xbbb87f27	-0.005630392
162	0xbddd754c	-0.10813388
163	0xbd8a8a83	-0.067647
164	0x3ccd81c2	0.025086287
165	0x3dd7faa0	0.1054585
166	0xbdd11ae3	-0.10210206
167	0xbd9292e9	-0.07156927
168	0xbd0671bd	-0.032823313
169	0xbe059cee	-0.13048145
170	0xbe009bbf	-0.12559412
171	0xbdc830fe	-0.097749695
172	0x3d96f75e	0.073714
173	0xbda90919	-0.08253688
174	0xbe1e9547	-0.15486632
175	0xbd92f7f1	-0.07176197
176	0x3c03b37d	0.008038399
177	0x3d13528b	0.03596739
178	0x3e1397ca	0.14413372
179	0x3dcf5003	0.10122683
180	0xbcef6e85	-0.029227505
181	0xbd354724	-0.044257298
182	0xbd122e2c	-0.035688564
183	0xbc92ce0b	-0.017920515
184	0xbc6f5c78	-0.014609449
185	0xbbc5849f	-0.0060277726
186	0xbdecaca5	-0.11556367
187	0x3e0b4c7f	0.136034
188	0x3d8ee9cc	0.06978187
189	0x3ccedd6c	0.025252067
190	0x3d806663	0.06269529
191	0xbe015880	-0.12631416
192	0x3e13256c	0.14369744
193	0x3dbf2df2	0.09334935
194	0x3d7b75f0	0.06139177
195	0x3e2d0b00	0.16898727
196	0xbd714e79	-0.058912728
197	0xbd8dc0c6	-0.06921534
198	0x3dbd9891	0.09257615
199	0xbaca3064	-0.0015425798
200	0x3e27466c	0.16335458
201	0xbd99c432	-0.075081244
202	0x3dbe7a7a	0.09300704
203	0xbd588609	-0.0528622
204	0xbceb5575	-0.028727273
205	0x3d118db8	0.035535544
206	0xbd1c9546	-0.038228296
207	0x3cb0b4bd	0.021570558
208	0xbc1069f0	-0.00881432
209	0xbd5918e8	-0.053002268
210	0x3df67f48	0.12035996
211	0x3ba67966	0.00508039
212	0x3d4f3a4b	0.050592702
213	0xbd8c8347	-0.06860977
214	0xbb8465d4	-0.004040459
215	0x3cdd425c	0.027009182
216	0xbccad4f0	-0.02475974
217	0xbdbb9400	-0.09159088
218	0xbcf6ee2f	-0.030142872
219	0x3d6edae7	0.05831423
220	0x3b474499	0.0030405878
221	0x3ddff21f	0.10934853
222	0x3c32179c	0.010869887
223	0x3e1d8458	0.15382516
224	0x3e1fc8c6	0.15603933
225	0xbd9296c6	-0.07157664
226	0xba989400	-0.0011640787
227	0x3dbe437c	0.092902154
228	0x3d60b86a	0.05486337
229	0xbcece486	-0.028917562
230	0xbde4bb89	-0.11168582
231	0x3d9b277d	0.07575891
232	0x3def9ddf	0.117000334
233	0x3da8eeb3	0.08248653
234	0x3d93cc6f	0.07216727
235	0xbda46940	-0.08027887
236	0x3d884f1b	0.06655713
237	0xbd597973	-0.05309434
238	0x3d5b2048	0.053497583
239	0xbcbacb23	-0.022801941
240	0x3c8c1155	0.017098108
241	0xbc1a0aa9	-0.009401956
242	0x3dbe95bb	0.093059026
243	0x3c7b38c2	0.015333356
244	0x3c85504b	0.016273638
245	0x3d98d6e6	0.074628636
246	0x3db27579	0.087138124
247	0x3d7fca34	0.062448695
248	0xbddab857	-0.10679691
249	0x3da551f4	0.08072272
250	0x3dd8da63	0.10588529
251	0xbcbc1db1	-0.022963377
252	0x3dbf37ab	0.0933679
253	0xbd560f26	-0.05226054
254	0xbdb05fa1	-0.0861199
255	0xbdbc4210	-0.09192288

bias_hh f4 [256]
0	0xbcb44dfb	-0.02200984
1	0x3d3dbebc	0.046324477
2	0x3d88cc59	0.06679601
3	0x3de826ad	0.11335502
4	0x3dd81b20	0.10552049
5	0x3cb1bf2f	0.021697609
6	0x3db54370	0.08850753
7	0x3e0b0bea	0.13578764
8	0x3d8b2c99	0.06795616
9	0xbdbd7fe7	-0.09252911
10	0xbd8615b8	-0.06547111
11	0xbd3acc3b	-0.045604926
12	0x3d341d43	0.04397322
13	0x3e0bd8f0	0.13656974
14	0x3a652e4a	0.00087425543
15	0xbdc1312f	-0.09433209
16	0xbbcb30c0	-0.00620088
17	0x3b891825	0.0041837865
18	0xbd9302a6	-0.071782395
19	0xbd21efde	-0.039535396
20	0x3cda7024	0.026664801
21	0xbc323c29	-0.010878601
22	0x3df3c9d7	0.11903732
23	0x3e193677	0.14962183
24	0x3e1782cd	0.1479599
25	0xbc0ba6d6	-0.0085236635
26	0x3e14221e	0.1446614
27	0xbd835276	-0.064122126
28	0xbd2ca68d	-0.042151023
29	0x3daa6f52	0.08322014
30	0xbc118414	-0.008881588
31	0x3cd25ec8	0.02567996
32	0x3b84cec0	0.004052967
33	0x3dd45bed	0.10369096
34	0xbdc43adb	-0.09581538
35	0x3ddba7bc	0.10725352
36	0x3da14a21	0.07875467
37	0x3cee5924	0.02909524
38	0x3de46566	0.11152153
39	0x3e06d799	0.13168181
40	0x3d6600a9	0.056152973
41	0x3cdf24fe	0.027239319
42	0x3e0c54f7	0.13704287
43	0xbcbf0f7f	-0.023322819
44	0xbd9ae25f	-0.07562708
45	0xbd7bbb61	-0.061457995
46	0x3cefe8e9	0.029285865
47	0xbda8a7da	-0.0823514
48	0x3d915dbe	0.07097958
49	0x3db4e092	0.08831896
50	0xbda027ab	-0.07820066
51	0x3d99cb70	0.07509506
52	0xbc3460db	-0.01100942
53	0xbdacf4b0	-0.08445108
54	0xbce20472	-0.02759001
55	0xbd8b7912	-0.06810202
56	0xbd3e334c	-0.04643564
57	0x3bde10ac	0.00677689
58	0x3c45441a	0.012040162
59	0x3d5b767b	0.05357979
60	0x3de93019	0.11386127
61	0x3cc583ae	0.024110641
62	0xbdbadede	-0.0912454
63	0xbdeac919	-0.114641376
64	0xbd6001a7	-0.054689076
65	0x3d66faad	0.056391407
66	0xbddf481c	-0.10902426
67	0x3dd9f52a	0.106424645
68	0xbb889331	-0.004167937
69	0xbbcb82de	-0.006210669
70	0xbdaaa017	-0.08331316
71	0x3de8655e	0.11347459
72	0x3ccb35a6	0.024805855
73	0xbc223670	-0.009900674
74	0x3dfc7fed	0.123290874
75	0xbcfd6e53	-0.030936396
76	0xbe196a7e	-0.1498203
77	0x3e09806f	0.134279
78	0x3bed8175	0.0072480985
79	0x3dc51da3	0.096247934
80	0x3e12603b	0.14294522
81	0x3de9b49e	0.11411403
82	0x3d8ef11e	0.06979583
83	0x3b626c55	0.0034549434
84	0x3d98b6cc	0.07456741
85	0xbd2c06ab	-0.041998547
86	0xbc8ccc68	-0.017187312
87	0x3d8654bd	0.06559131
88	0x3d0aad7b	0.03385685
89	0x3d259513	0.04042537
90	0xbd93d5aa	-0.072184876
91	0x3dc2db36	0.095144674
92	0x3e211534	0.15730745
93	0x3d3e44e4	0.046452418
94	0xbd909255	-0.070591606
95	0xbc5bec65	-0.01342306
96	0x3dc59644	0.096478015
97	0x3da6900e	0.08132945
98	0xbd895614	-0.06705871
99	0xbda1c76e	-0.07899366
100	0x3e011a7a	0.12607756
101	0x3b0a77b2	0.0021128473
102	0x3b6fff3e	0.0036620642
103	0xbda63237	-0.081150465
104	0x3ce0e32c	0.027452074
105	0x3dd0c933	0.10194626
106	0x3e17cfc0	0.14825344
107	0xbd7bd6ac	-0.061484024
108	0x3d802d66	0.06258659
109	0xbd0eade1	-0.034833793
110	0xbd287490	-0.041126788
111	0xbcbd0de7	-0.023077918
112	0xbdeb7da9	-0.11498577
113	0xbd72b310	-0.0592528
114	0x3e1cde59	0.15319194
115	0xbd99101e	-0.07473777
116	0x3d15a156	0.036530815
117	0x3ca744be	0.020418521
118	0xbccd2241	-0.025040748
119	0x3d4e4ce6	0.050366305
120	0x3defb8b6	0.11705153
121	0xbd63c909	-0.055611644
122	0x3d07ab6a	0.033122458
123	0x3dbcff59	0.09228391
124	0xbdaf688c	-0.085648626
125	0xbe13b2c2	-0.1442366
126	0x3de8dcad	0.113702156
127	0x3e01d2fa	0.12678137
128	0xbce86757	-0.028369589
129	0x3c53d72f	0.012929722
130	0xbd1eaee1	-0.038740996
131	0xbe1fc9e8	-0.15604365
132	0xbdcfef3e	-0.10153054
133	0xbdefecea	-0.1171511
134	0xbc589f77	-0.013221613
135	0x3e1e25eb	0.15444152
136	0x3e1094b3	0.14119224
137	0x3aeef3ee	0.0018230656
138	0x3b9ab118	0.0047208183
139	0xbcb9f034	-0.022697546
140	0x3b1dcb35	0.002407742
141	0xbda28f19	-0.0793745
142	0xbbecdd0a	-0.0072284983
143	0x3c802b1e	0.01564556
144	0x3d1acd17	0.037793245
145	0xbd27ea27	-0.04099479
146	0x3de2f89d	0.110825755
147	0x3d841b83	0.0645056
148	0x3dd97138	0.10617298
149	0x3d746069	0.059662256
150	0xbc945720	-0.01810795
151	0xbdfb6cc4	-0.12276605
152	0xbdb3d63c	-0.08781096
153	0xbdc884f5	-0.097909845
154	0xbde3fb71	-0.11131943
155	0x3df3045a	0.11866064
156	0xbdc385cf	-0.09547006
157	0x3dc121f0	0.09430301
158	0x3d9829fc	0.07429883
159	0x3d6fef9d	0.058578122
160	0x3d0ce0c0	0.034394026
161	0xbcdb90ea	-0.026802499
162	0xbd104a97	-0.035227384
163	0x3db6f86b	0.08934101
164	0xbc557ab9	-0.013029748
165	0x3d8455b7	0.06461661
166	0xbe21a910	-0.15787148
167	0xbdd48721	-0.10377336
168	0xbde23e90	-0.11047089
169	0xbc95d627	-0.018290592
170	0x3dc53a0c	0.09630212
171	0x3d3a4965	0.04548015
172	0x3d4418e2	0.047875293
173	0xbde21fe7	-0.11041241
174	0xbbf7c972	-0.007561856
175	0xbe0f7943	-0.14011101
176	0x3c81e742	0.015857343
177	0x3e1684b9	0.14699067
178	0x3e0edf15	0.13952287
179	0xbe0376a9	-0.12838234
180	0x3ccc23a2	0.024919335
181	0x3e10f0ae	0.14154312
182	0x3c3ee382	0.011650922
183	0x3dd6760b	0.10471734
184	0x3b9cf847	0.004790339
185	0xbe015fff	-0.12634276
186	0x3d9453ad	0.072425224
187	0x3e0b8e75	0.13628562
188	0x3ccb8b8b	0.024846813
189	0x3dd2c22d	0.10290942
190	0xbe18fcc1	-0.14940168
191	0xbe098197	-0.13428341
192	0xbd64369c	-0.055716142
193	0x3ddd9723	0.10819843
194	0x3ddb875e	0.107191786
195	0x3baf983c	0.005358724
196	0xbd8d93c9	-0.069129534
197	0x3d25e652	0.040502854
198	0xbc83403b	-0.016021838
199	0xbc363caa	-0.011122862
200	0x3df84cd3	0.12124028
201	0x3ba79fac	0.00511547
202	0x3e094a73	0.13407306
203	0xbd302c15	-0.04301079
204	0x3dd299ef	0.10283267
205	0x3d41c730	0.0473091
206	0x3dfa3d24	0.12218693
207	0xbd438ddb	-0.047742706
208	0x3de37a49	0.111073084
209	0xbd12e2bd	-0.035860766
210	0x3da3e24e	0.080021486
211	0x3d5a8f1c	0.053359136
212	0xbd809ba7	-0.06279688
213	0x3da5fa65	0.081043996
214	0x3dd038c9	0.10167081
215	0x3e145f15	0.14489396
216	0x3dee82f0	0.11646068
217	0x3cd4b93e	0.025967237
218	0xbc85a7b1	-0.016315313
219	0xbddda15f	-0.10821795
220	0xbb9b5a68	-0.004741002
221	0x3d5b508d	0.053543616
222	0xbd3c74ee	-0.04600995
223	0x3cfcf59a	0.03087883
224	0xbd17fb48	-0.037104875
225	0xbc4bd2f2	-0.01244043
226	0x3dec9f34	0.11553803
227	0x3e0985bc	0.13429922
228	0xbcac50f4	-0.021034695
229	0xbc0f9a0b	-0.008764754
230	0xbdcff6f5	-0.10154525
231	0xbc5ff285	-0.013668661
232	0x3da76460	0.08173442
233	0x3cd3d6d8	0.025859281
234	0x3dee8507	0.11646467
235	0x3cbc42de	0.022981104
236	0x3dafa053	0.08575501
237	0x3dcea2c6	0.1008964
238	0xbd45082e	-0.048103504
239	0x3c10578c	0.008809935
240	0xbda360ef	-0.07977473
241	0x3e05be31	0.13060834
242	0x3ca0ad4c	0.019613884
243	0xbdd906fc	-0.10597035
244	0xbb87b1d3	-0.0041410713
245	0xbd71ec44	-0.05906321
246	0x3d957f86	0.07299714
247	0x3d2fcf38	0.04292223
248	0x3ddafaf1	0.106923945
249	0x3c366167	0.011131621
250	0x3da57a37	0.08079951
251	0x3cad52b3	0.021157598
252	0x3d61bb6d	0.055110384
253	0x3da13115	0.0787069
254	0xbdc9aecd	-0.09847794
255	0x3dc73618	0.097271144

weight f4 [64, 128]
0	0xbd9309be	-0.071795925
1	0x3d5da2cc	0.054110333
2	0x3d7358b9	0.059410784
3	0xbe160030	-0.14648509
4	0x3c82cbe0	0.015966356
5	0x3a9ee68d	0.0012123153
6	0xbdb0873d	-0.08619545
7	0x3d3ecf11	0.046584193
8	0x3d80d603	0.062908195
9	0xbd93a539	-0.07209248
10	0xbdbb1d42	-0.0913644
11	0xbe0baf3d	-0.13641067
12	0x3bf474f9	0.0074602333
13	0xbd8f5e77	-0.070004396
14	0xbd6349d0	-0.055490315
15	0x3d9cc4da	0.07654734
16	0xbdfaf2a5	-0.12253312
17	0xbd8ab7d7	-0.06773346
18	0x3cf26ec0	0.029593825
19	0x3b87e64e	0.0041473275
20	0x3d3da28d	0.0462976
21	0xbc89c18d	-0.016815925
22	0xbdc8b8b2	-0.09800853
23	0xbd56e43f	-0.052463766
24	0x3d6bbc98	0.057552904
25	0x3d384c47	0.04499462
26	0x3ca0b270	0.019616336
27	0x3ca49d2a	0.020094473
28	0x3da045cf	0.07825815
29	0xbd1c9b65	-0.038234133
30	0xbd5c21be	-0.053743117
31	0x3c89982b	0.016796192
32	0xbda75d2e	-0.081720695
33	0xbd41d12a	-0.047318615
34	0x3d89b98f	0.067248456
35	0x3dafe33c	0.085882634
36	0x3bb8ab07	0.0056356224
37	0x3df1eefa	0.11813159
38	0xbdd7e74d	-0.10542164
39	0xbc80df34	-0.015731432
40	0xbd114d94	-0.035474375
41	0xbcbeb904	-0.023281582
42	0xbe0bc216	-0.13648257
43	0xbb155cd3	-0.0022790923
44	0xbd7951a6	-0.06086888
45	0x3d52f969	0.051507387
46	0xbd8b4c13	-0.068016194
47	0x3cd96f51	0.026542338
48	0xbbaa8f93	-0.0052051037
49	0xbd1e52f3	-0.038653325
50	0x3cd32d29	0.02577837
51	0xbca533ab	-0.020166239
52	0x3c26e912	0.010187404
53	0x3d0632c5	0.03276326
54	0xbdc31fa4	-0.09527519
55	0x3c9369a3	0.017994707
56	0x3b857031	0.004072212
57	0xbd86fdbb	-0.06591364
58	0xbabb4a70	-0.0014289152
59	0xbb1dfb52	-0.0024106097
60	0x3deabbd2	0.11461605
61	0x3daa2795	0.08308331
62	0xbd9f87f3	-0.07789602
63	0xbdb25624	-0.08707836
64	0xbd858d63	-0.06521108
65	0xbc954a5b	-0.018223932
66	0x3d012cc8	0.031536847
67	0xbdce8a5b	-0.10084983
68	0x3d36faa9	0.044672642
69	0x3cbbde16	0.022933047
70	0x3d3c9c30	0.04604739
71	0x3a4af8a6	0.000774274
72	0x3cf12c55	0.029440084
73	0xbd8ddb21	-0.06926561
74	0xbdc71fec	-0.097228855
75	0xbdf95265	-0.12173919
76	0x3dc40b72	0.095724955
77	0xbde4cd7f	-0.11172008
78	0xbd3a4ac4	-0.04548146
79	0xbca7b778	-0.020473227
80	0xbdf13a72	-0.11778726
81	0x3c64de8e	0.013969077
82	0x3bf1c9da	0.007378799
83	0xbc89663f	-0.016772388
84	0xbc2baae7	-0.010477758
85	0xbc0bc742	-0.0085313935
86	0xbd02cedd	-0.03193556
87	0xbde115f1	-0.10990513
88	0xbc9d7c6a	-0.019224364
89	0x3ba144f4	0.00492155
90	0xbcb9078c	-0.022586606
91	0x3c82a15c	0.015946083
92	0x3d790d1e	0.060803525
93	0x3d8bdec6	0.068296
94	0xbd8285a1	-0.06373144
95	0xbd2996cf	-0.041403588
96	0xbd03776b	-0.032096308
97	0xbd8610b6	-0.06546156
98	0x3ce73831	0.028225036
99	0xbd362d00	-0.04447651
100	0xbda55bfb	-0.080741845
101	0x3cbd5adb	0.023114612
102	0xbd10b45c	-0.035328254
103	0xbd4d8ecf	-0.05018502
104	0xbd8d726c	-0.0690659
105	0x3c841e64	0.016127773
106	0xbd8ae2d7	-0.067815475
107	0xbbbc5d58	-0.005748432
108	0xbd25005c	-0.040283546
109	0xbbd9f62d	-0.006651661
110	0xbd9efe27	-0.077633195
111	0xbcd64c8b	-0.026159545
112	0x3c1db042	0.009624543
113	0x3cc669b6	0.024220329
114	0x3c20f9f2	0.009825217
115	0xbda05049	-0.07827813
116	0x3daa1610	0.08304989
117	0x3d507f68	0.050902754
118	0x3d03280d	0.032020617
119	0x3da40c63	0.08010175
120	0xbd43a944	-0.047768846
121	0x3c7a97a4	0.015294943
122	0x3d45e9cb	0.048318665
123	0x3d00e9bd	0.03147291
124	0xbd2c207f	-0.04202318
125	0x3c897dad	0.01678356
126	0xbce026cd	-0.027362252
127	0xbdcc2cda	-0.09969492
128	0x3dab360a	0.083599165
129	0x3dde13eb	0.10843643
130	0x3da397d8	0.07987946
131	0xbd5a08c9	-0.053231034
132	0xbd850734	-0.064955145
133	0x3db78a85	0.089619674
134	0xbd34dc19	-0.044155214
135	0xbdcb5243	-0.099277996
136	0xbd9c04e5	-0.07618121
137	0x3d7966d3	0.060889076
138	0x3d8c2373	0.06842699
139	0xbcd471a0	-0.025933087
140	0xbd95e720	-0.07319474
141	0x3dcda87d	0.10041902
142	0x3b95001c	0.004547132
143	0xbd80c137	-0.06286853
144	0x3d5eedd4	0.05442603
145	0xbc0976c4	-0.008390132
146	0xbddf18ee	-0.10893427
147	0xbd541393	-0.05177648
148	0xbd2e2244	-0.042513147
149	0x3d99ea5d	0.075154044
150	0x3dae4be3	0.08510568
151	0xbd95c89b	-0.07313653
152	0x3bf71fee	0.007541648
153	0x3d7411ba	0.059587218
154	0xbd9a9087	-0.07547098
155	0xbd26ed92	-0.04075391
156	0xbd8e1d66	-0.06939201
157	0xbcebdad4	-0.028790869
158	0x3d991110	0.074739575
159	0x3d638034	0.055542186
160	0x3d5188c9	0.05115584
161	0x3d894482	0.0670252
162	0x3d3b34db	0.045704704
163	0xbc33109b	-0.010929252
164	0x3d46339d	0.048389066
165	0xbd82271b	-0.06355115
166	0xbd46af87	-0.04850724
167	0xbd1b0809	-0.03784946
168	0x3d935088	0.071930945
169	0x3ddb1e2e	0.10699116
170	0xbd6daa88	-0.05802396
171	0xbd8fb94a	-0.07017763
172	0x3c31c912	0.010851162
173	0x3c951b92	0.018201623
174	0x3d4897aa	0.048972763
175	0x3dc44649	0.09583718
176	0xbd81e2b9	-0.06342072
177	0xbbd516e0	-0.006502971
178	0xbcf3f5b5	-0.029780248
179	0xbd1df6b4	-0.038565353
180	0x3c849aaa	0.01618703
181	0xbda0f7c0	-0.078597546
182	0xbcc35e36	-0.023848634
183	0xbdb3c944	-0.08778623
184	0x3d836943	0.064165615
185	0x3c45804f	0.012054517
186	0x3d038afe	0.032114975
187	0x3c8df245	0.017327437
188	0xbd93fc55	-0.07225863
189	0xbd0fb1a6	-0.035081528
190	0x3deaecf0	0.114709735
191	0x3c7f39d3	0.015577751
192	0x3d9f2e05	0.077724494
193	0x3d1c3736	0.03813859
194	0xbd739975	-0.05947252
195	0xbcc19f2d	-0.023635471
196	0x3c352ce4	0.011058066
197	0x3d20ac90	0.03922707
198	0x3d83a42c	0.06427798
199	0x3a7cd4d0	0.00096447486
200	0xbd752965	-0.05985393
201	0xbd135529	-0.035969887
202	0x3d88fd18	0.06688899
203	0x3dda34bd	0.1065459
204	0xbd01f1ce	-0.031724744
205	0x3d70a56e	0.058751516
206	0x3dcf0d1e	0.10109924
207	0xbc3f194f	-0.011663749
208	0xbd0e8034	-0.034790233
209	0x3d757d7e	0.05993413
210	0x3ca1df0c	0.019759677
211	0xbdaf2466	-0.08551864
212	0x391cf182	0.00014967288
213	0xbd8e3f6e	-0.06945692
214	0xbc0859bb	-0.008322175
215	0xbc936bbb	-0.017995706
216	0x3c7ac62b	0.015306036
217	0xbd910220	-0.070804834
218	0xbd56fca2	-0.052487023
219	0xbcc9899b	-0.024601748
220	0xbd846614	-0.06464782
221	0xbdca3690	-0.09873688
222	0x3c9ce460	0.019151866
223	0xbcc76615	-0.024340669
224	0x3b93689e	0.0044985553
225	0x3d137417	0.035999384
226	0x3da3e96f	0.08003508
227	0x3d8b17c0	0.06791639
228	0x3d612899	0.054970358
229	0xbdae5d22	-0.085138574
230	0x3dc0c886	0.09413247
231	0x3dbf480d	0.093399145
232	0x3d1d3eac	0.038389847
233	0x3d7721d2	0.060334988
234	0x3d91b674	0.07114878
235	0x3da09908	0.078416884
236	0xbc4233a5	-0.011853133
237	0x3d872da3	0.066005014
238	0x3ce6acad	0.02815851
239	0xbc0e268d	-0.008676183
240	0x3d923b4f	0.071402185
241	0xbd69db9a	-0.057094194
242	0xbd8a6e7b	-0.06759354
243	0x3d4478f6	0.04796692
244	0x3c40a588	0.011758216
245	0xbdbb9521	-0.091593035
246	0xbd5ca77e	-0.05387067
247	0xbbdb60f5	-0.006694908
248	0xbd3f664d	-0.04672842
249	0x3d97f905	0.074205436
250	0x3db645ca	0.0890003
251	0xbd65fb17	-0.05614766
252	0xbd682e37	-0.0566847
253	0x3d0fd06b	0.035110872
254	0x3c472897	0.0121556735
255	0x3bd9efa4	0.006650882

bias f4 [64]
0	0x3c6f215c	0.014595356
1	0xbd082c25	-0.033245225
2	0x3d5631af	0.052293476
3	0x3d2012e5	0.03908052
4	0xbd99406f	-0.07482993
5	0xbdaf731c	-0.08566877
6	0xbd03dbf6	-0.032192193
7	0x3dc76887	0.09736734
8	0xbc32e54f	-0.010918929
9	0xbc02bae1	-0.007979126
10	0x3d98ec5c	0.07466957
11	0xbaef3a85	-0.0018251693
12	0x3d833122	0.06405856
13	0x3d090511	0.033452097
14	0xbcab8ef0	-0.020942181
15	0x3cb2d9b4	0.021832325
16	0xbcd4f11a	-0.025993872
17	0x3cb51e1f	0.02210909
18	0x3d38e480	0.04513979
19	0xbcb54937	-0.022129638
20	0xbcb9a759	-0.022662805
21	0x3d1be930	0.03806418
22	0xbb9f9056	-0.004869501
23	0x3d81a6cc	0.06330642
24	0x3d0181b1	0.031617824
25	0x3d863755	0.065535225
26	0x3c1f02cc	0.009705257
27	0xbdd45540	-0.10367823
28	0x3a382411	0.0007024417
29	0x3dc0020f	0.09375393
30	0x3d47d429	0.048786316
31	0x3d4577e2	0.048210032
32	0xbb16787e	-0.0022960003
33	0xbd680b0f	-0.05665117
34	0x3d2c996a	0.042138495
35	0x3a2767fb	0.0006386039
36	0x3db9cfd1	0.09072841
37	0x3d5dbd28	0.05413547
38	0xbb2330fa	-0.0024901018
39	0x3d8f103e	0.0698552
40	0x3d0a3540	0.03374219
41	0xba46591a	-0.0007566378
42	0x3cb6e3b7	0.02232538
43	0xbd33a465	-0.04385795
44	0x3d5e833c	0.054324374
45	0x3dddb752	0.10825981
46	0xbdc8e9f9	-0.09810252
47	0x3d71199d	0.058862317
48	0xbdaec801	-0.085342415
49	0x3dde9aa1	0.10869337
50	0x3dcc47be	0.09974621
51	0xbd215f2c	-0.039397404
52	0xbc7e79ca	-0.015531966
53	0x3d97ed41	0.074182995
54	0x3d9b9be2	0.07598092
55	0x3dd6779a	0.10472031
56	0x3c3521cf	0.011055424
57	0xbb4ba5ad	-0.0031074092
58	0x3d970b32	0.07375182
59	0x3d513b04	0.051081672
60	0x3d07f217	0.03318986
61	0xbd1d759f	-0.03844225
62	0xbd189934	-0.03725548
63	0xbc931459	-0.017954038

weight f4 [3, 64]
0	0xbdab69c6	-0.08369784
1	0x3cd4e855	0.02598969
2	0xbe176ef9	-0.14788426
3	0x3bf3d6d4	0.007441381
4	0xbd137f2d	-0.036009956
5	0x3ba40d14	0.005006442
6	0x3db886ce	0.09010087
7	0xbe21b0aa	-0.15790048
8	0xbb5ddce5	-0.0033853587
9	0x3dd91bd9	0.10601015
10	0x3dc7454f	0.097300164
11	0xbd03189b	-0.032005887
12	0xbd11d011	-0.03559882
13	0x3cb5e17e	0.02220225
14	0xbe0f8091	-0.14013888
15	0xbc4d5774	-0.0125330575
16	0x3d8894cc	0.06669006
17	0x3d893e5a	0.06701346
18	0xbd8e6d7c	-0.06954476
19	0x3d3a9d3a	0.0455601
20	0x3a043838	0.00050437776
21	0x3d9f0a79	0.077656694
22	0xbaf90eb6	-0.0019001577
23	0x3c064004	0.008193973
24	0x3d519a15	0.051172335
25	0xbe23c6fd	-0.15993877
26	0xbd52905c	-0.051407203
27	0x3d76e1dd	0.060273994
28	0xbe137d33	-0.14403228
29	0xbced952b	-0.029001793
30	0x3d83e264	0.06439665
31	0xbdf101dc	-0.11767933
32	0xbdfa3fc8	-0.122191966
33	0x3ddef33f	0.10886239
34	0x3dba0feb	0.09085067
35	0x3d1d3bfa	0.038387276
36	0xbd00080d	-0.031257678
37	0xbc34cd50	-0.011035278
38	0xbd6fc510	-0.058537543
39	0x3d9df626	0.07712965
40	0xbc22a172	-0.009926187
41	0xbdfe5996	-0.12419431
42	0xbe0cd927	-0.13754712
43	0xbe0dd9ec	-0.13852662
44	0xbe12717d	-0.14301105
45	0xbdaa9863	-0.08329847
46	0x3dc8516e	0.097811565
47	0xbd0f241a	-0.03494654
48	0xbc8bca25	-0.017064163
49	0x3c06ff7c	0.008239623
50	0x3d2c19aa	0.042016663
51	0x3e07bfe7	0.13256799
52	0xbd08f2bc	-0.033434615
53	0x3de4413d	0.11145256
54	0x3c3dc8a0	0.011583477
55	0x3dd53d4e	0.104120836
56	0x3c5d0c4a	0.0134916995
57	0x3ca7f0ff	0.020500658
58	0x3d2cc9c4	0.042184606
59	0xbc48d53c	-0.01225787
60	0xbcfa27f8	-0.030536637
61	0xbd6688cd	-0.056282807
62	0xbcbd3ad0	-0.023099333
63	0xbda35bf6	-0.079765245
64	0x3e2459d7	0.16049896
65	0xbd3b4001	-0.045715336
66	0x3d5c5413	0.053791117
67	0xbdc4faae	-0.09618126
68	0xbc9e36bd	-0.01931321
69	0xbd5b5dfd	-0.05355643
70	0x3c81a5df	0.015826164
71	0x3d2b0487	0.041752364
72	0x3d5d9cc1	0.05410457
73	0xbd0d3777	-0.034476724
74	0xbcf1476e	-0.029453006
75	0x3dde0ec1	0.10842658
76	0x3d931cc2	0.071832195
77	0xbd366cef	-0.04453748
78	0x3cad043c	0.021120183
79	0x3dd000d1	0.10156406
80	0xbdf5ee23	-0.120083116
81	0xbd763ad4	-0.060114697
82	0xbd01232d	-0.031527687
83	0xbcf9410f	-0.03042653
84	0x3cab7ac6	0.020932566
85	0x3d28391e	0.041070096
86	0x3c94db8f	0.0181711
87	0x3e124e65	0.14287718
88	0xbd6f0049	-0.05834988
89	0xbd0de1c1	-0.034639124
90	0xbb9effa7	-0.0048522535
91	0xbe169a0d	-0.14707203
92	0x3df810f7	0.12112611
93	0x3cdf12e5	0.02723069
94	0x3d85b5c2	0.06528808
95	0xbde40508	-0.11133772
96	0xbdc5c188	-0.09656054
97	0xbcc3d7a4	-0.023906536
98	0xbe207ed7	-0.15673386
99	0x3dc9aab2	0.09847011
100	0x3cabbc2d	0.020963753
101	0xbdb2dd31	-0.08733595
102	0xbdd6ec77	-0.10494321
103	0xbc498af1	-0.012301193
104	0x3e0d5355	0.1380132
105	0xbdd02d63	-0.10164907
106	0x3b8f6893	0.00437648
107	0xbcccf3a8	-0.025018528
108	0xbcbc3241	-0.022973182
109	0x3e08b56d	0.13350458
110	0xbe0bbd9a	-0.13646546
111	0x3dfdcc85	0.12392525
112	0xbcc6814c	-0.024231575
113	0x3da2eb10	0.07954991
114	0x3ce52ccc	0.027975462
115	0xbd00ad89	-0.031415496
116	0xbc7b0f2b	-0.015323441
117	0x3d8ae032	0.06781043
118	0x3d85e34c	0.06537494
119	0x3dd755a5	0.10514382
120	0xbdacc3d5	-0.084357895
121	0x3c41036d	0.011780602
122	0x3e000af6	0.12504181
123	0x3e030e52	0.12798432
124	0xbd6486f1	-0.055792753
125	0xbd683dc2	-0.05669952
126	0xbd85f5e5	-0.06541041
127	0xbb78f045	-0.0037985009
128	0x3d959fa2	0.07305838
129	0x3df0b5fb	0.1175346
130	0x3ce25dd5	0.027632633
131	0xbe1360b7	-0.14392363
132	0x3d0a0b3b	0.033702116
133	0x3d91e309	0.07123382
134	0xbd730662	-0.05933226
135	0x3da2e2e6	0.07953434
136	0x3de48d1e	0.111597285
137	0x3ada4122	0.0016651491
138	0xbdbc5762	-0.091963544
139	0xbdf1ad26	-0.118006036
140	0x3d87790f	0.06614887
141	0xbdc63ffd	-0.096801735
142	0x3ca97a4a	0.020688195
143	0x3ccef4c2	0.025263194
144	0x3bd662da	0.0065425457
145	0x3e08aee1	0.13347961
146	0x3de7ccb6	0.113183424
147	0x3daf7891	0.08567918
148	0x3db8ecef	0.090295665
149	0xbd93a7b6	-0.07209723
150	0xbe0cd3ee	-0.1375272
151	0x3d80e821	0.06294275
152	0xbdb913d0	-0.09036982
153	0xbe01147a	-0.12605467
154	0x3d501c35	0.05080815
155	0x3d044d32	0.03230018
156	0xbd838e27	-0.06423598
157	0xbdbf72cc	-0.09348068
158	0xbdb0cc7b	-0.086327516
159	0x3dc18315	0.0944883
160	0x3de57e52	0.11205734
161	0x3dfc2cd0	0.12313235
162	0x3c85009c	0.016235642
163	0x3c1525f3	0.009103286
164	0xbe1c422c	-0.15259618
165	0xbde2f31d	-0.110815264
166	0x3bf826f2	0.007573002
167	0xbda8fc6b	-0.0825127
168	0xbe038e2a	-0.128472
169	0x3d8d37f7	0.0689544
170	0x3cb996a3	0.022654837
171	0x3d1e5d84	0.038663402
172	0xbda4ea6a	-0.080525234
173	0xbdda9b75	-0.10674182
174	0x3c4f930e	0.012669338
175	0xbdc4bc2d	-0.09606204
176	0x3dbec990	0.09315789
177	0x3c6840e6	0.014175629
178	0xbd788848	-0.060676843
179	0x3d46c84c	0.04853086
180	0x3daeab97	0.08528822
181	0xbe1d113c	-0.15338606
182	0xbe1c2393	-0.15247945
183	0xbe00b8d1	-0.12570502
184	0x3de68665	0.112561025
185	0xbe0f7275	-0.14008506
186	0x3dd5ddde	0.104427084
187	0x3d8f91e5	0.07010249
188	0x3d12a572	0.035802312
189	0x3dbb3c39	0.09142346
190	0x3e0b4752	0.13601425
191	0x3d1340f2	0.03595061

bias f4 [3]
0	0xbdf720ec	-0.12066826
1	0x3ddf71c5	0.10910372
2	0xbe13114b	-0.14362065
