nvidia_lstm_0.pth (torch, 840906 bytes, 9 tensors)

weight f4 [2611, 64]
000000 12 cd 27 3e 4b be b3 3f 99 2b 11 3f 8d 56 ed bc
       0.16386822 1.4042448 0.5670715 -0.028971935
000010 36 0c eb bf e6 76 b8 bf 63 ab 15 bf a2 90 5c be
       -1.8363101 -1.4411285 -0.5846464 -0.21539548
000020 54 5c 49 3e 16 f4 9b 3e d6 cb a9 bf f3 e3 7d bf
       0.19664127 0.3045966 -1.3265331 -0.9917595
000030 02 aa 51 3f 2a a0 5b 3f a5 f1 d3 bf 3d 08 f8 bf
       0.81900036 0.85791266 -1.6558119 -1.9377514
000040 89 1f 29 bf 4a 5e c6 be f6 3f 0c c0 98 41 33 3f
       -0.66063744 -0.38743812 -2.1914039 0.70021963
000050 d9 5b b6 bf fd 6f 79 3f 76 48 53 3f e2 0c 4b 3f
       -1.424678 0.97436506 0.8253244 0.7931653
000060 a6 dc 91 3f 54 d0 a9 bf fb 4d d4 3e fc 21 89 3f
       1.1395462 -1.3266702 0.41465744 1.0713496
000070 6f d0 07 bf 07 c1 c4 bd 4e 77 1d bf b7 4c 84 3f
       -0.5305242 -0.096071295 -0.6151017 1.0335912
000080 39 36 8c 3f 7f e7 4b 3f 30 82 c0 3e 5a 9b db 3f
       1.0954047 0.7965011 0.37599325 1.7156785
000090 1f 2b 85 3f a3 7c 2e 3f 03 21 5b be f0 6d cc 3f
       1.0403785 0.6815893 -0.21399312 1.597105
0000a0 9b 7b b8 bf 4f 3b 90 3f 14 4a e7 bf 51 6d c4 bf
       -1.4412721 1.12681 -1.8069482 -1.5345861
0000b0 e6 80 ec 3f 9c 40 0d bf a5 fe 6d 3e a6 cd 45 3f
       1.8476837 -0.5517671 0.2324167 0.7726692
0000c0 b8 c7 69 bf 76 d2 c7 bf 79 b8 b1 3e 2c aa 7c bf
       -0.9132037 -1.5611103 0.34711054 -0.9869716
0000d0 15 44 7f 3e 18 ca 78 3f ad 80 1e 3e 95 2e be 3f
       0.24928315 0.9718337 0.15478773 1.4857966
0000e0 25 06 32 be af e3 54 bf 1a 19 ec 3e c2 8e 06 3e
       -0.17385156 -0.8315992 0.461129 0.13140395
0000f0 1f 68 ee 3f 42 89 b2 bf 99 20 1e 3e f2 b9 67 bf
       1.8625525 -1.3948138 0.15442123 -0.90518105
000100 52 e4 e1 3d 8c c7 92 3d 64 01 14 3f 37 e7 37 3f
       0.11029877 0.07166967 0.5781462 0.7183718
000110 49 6c 79 3f c6 1c b8 bf a3 47 c1 3d 24 e5 86 bf
       0.97430855 -1.4383781 0.09437492 -1.0538678
000120 91 80 8d 3f 8c 82 85 3f 2f ee 1e 3e f4 36 27 3f
       1.105486 1.0430465 0.15520547 0.65318227
000130 22 62 90 3f e6 98 04 3d ce 0c 92 3e a6 b9 6d 3e
       1.1279948 0.032372378 0.28525394 0.2321535
000140 bd e8 4a bf 67 2e c8 3e 1a 39 85 3f 19 9b dc bf
       -0.7926138 0.39097902 1.0408051 -1.7234832
000150 16 be c1 3e 13 2a e1 bf 45 2d 1f 3e 20 0d 91 3f
       0.37840337 -1.7590965 0.15544613 1.133213
000160 8d 56 83 bf b7 4f d6 bf 1d 14 10 bf 87 fa 7f 3e
       -1.0260788 -1.6743077 -0.5628069 0.24997912
000170 c5 fd a8 be 9d 30 b7 be ac 6e 92 bf de 8b 7f 3f
       -0.3300611 -0.35779276 -1.1440024 0.99822795
000180 1b 65 eb 3c 9a 1b 53 bf 50 71 f7 3d f0 24 78 bf
       0.028734734 -0.8246399 0.120821595 -0.9693136
000190 ad 63 b8 3f 5a 40 4b bc 57 9c fc 3e 15 5c a2 bf
       1.4405419 -0.012405479 0.49338028 -1.2684351
0001a0 04 1f 45 bf 08 54 af 3e 5b 74 03 bf 8c 68 0a bf
       -0.7700045 0.34243798 -0.5134942 -0.54065776
0001b0 9c 2a 05 bf 35 64 9d be 6b 05 68 3f 80 73 68 be
       -0.5201814 -0.30740514 0.9063327 -0.2270031
0001c0 ec 56 fd bf 41 32 0e c0 8b 4f 16 3f 7e 88 0f 3f
       -1.9792151 -2.2218173 0.5871512 0.56067646
0001d0 e9 01 27 3d f8 3e 10 3e bb 83 30 bf 5c 49 bb 3f
       0.040773306 0.1408652 -0.68951005 1.4631763
0001e0 1c 26 15 bf 0a 25 75 3e ed 0b 0a be e8 37 02 be
       -0.58261275 0.2393991 -0.13481112 -0.12716639
0001f0 34 42 8a 3e d4 eb a5 bf 51 39 33 3f a5 9c c2 be
       0.27003634 -1.2962594 0.7000933 -0.38010135
000200 a0 ca aa bf 21 f6 2c bf e7 59 15 be 09 77 1e 3f
       -1.3343086 -0.6756306 -0.14585076 0.61900383
000210 11 3a 93 be 01 7e d4 bc 13 60 f9 be d5 65 3c bf
       -0.2875524 -0.02593899 -0.4870611 -0.73592883
000220 51 2a e1 3f 4f 0e ac 3f 55 0c 62 be a2 39 9c bf
       1.7591039 1.3441867 -0.22075017 -1.2205088
000230 ca 8d a7 3e 8c ac e3 3f 7b 84 16 40 d5 14 fc bf
       0.32725364 1.7787032 2.351836 -1.9693857
000240 44 f7 96 bf 52 33 de bf c5 5c 77 be 4b f2 7d 3f
       -1.179421 -1.7359412 -0.24156483 0.99197835
000250 94 7a a4 3f 8b c0 5f 3f d9 38 56 bf bf b4 a0 bf
       1.2849908 0.8740317 -0.8368049 -1.2555159
000260 e0 21 9b 3f 57 34 3e bf be ad 14 3f 76 7f e2 be
       1.2119713 -0.74298614 0.5807761 -0.4423787
000270 c3 a2 9d 3f 54 2b 42 be b5 55 41 bf e9 c0 c3 3d
       1.2315296 -0.18961841 -0.75521404 0.09558279
000280 a5 48 84 bf 49 d6 21 3f fc 7b f9 be d1 b3 d6 3e
       -1.0334669 0.632176 -0.48727405 0.41934064
000290 98 39 37 bf 03 ad e2 3e 7d ed 37 bf 51 8c 3e 3f
       -0.71572256 0.44272622 -0.71846753 0.74432856
0002a0 f0 09 60 3e 34 50 75 3f 70 09 87 bf 51 01 e6 3e
       0.21878791 0.95825505 -1.0549755 0.4492288
0002b0 1a 91 5e 3f e5 37 f7 3f 6e 4a f8 3f 09 18 bb 3e
       0.8694016 1.9313933 1.9397714 0.36541775
0002c0 ba 83 4c bf 13 91 25 3f bc 95 9a be 0b 74 f5 3d
       -0.798885 0.6467449 -0.30192363 0.11985024
0002d0 af d6 b5 3f c0 25 5a 3f bd 63 5a 3f 4c 30 e8 bd
       1.4206141 0.8521385 0.8530844 -0.11337337
0002e0 62 92 17 3f d4 2d 06 3f 87 48 b9 be f6 fc 42 3e
       0.5920774 0.5241368 -0.36188146 0.1904181
0002f0 f3 f6 b6 be c4 a7 1b c0 0f 75 e5 be 57 a9 47 be
       -0.35735282 -2.4321146 -0.4481587 -0.19498192
000300 9e 24 01 c0 38 4b 98 3f 8b dc e5 be d5 f9 90 3e
       -2.01786 1.1897955 -0.44894823 0.28315607
000310 bd 14 46 bf 16 7f ab 3f b3 9a 2e 3e 39 b0 1a bf
       -0.77375394 1.3398159 0.170512 -0.60425144
000320 e0 e6 a9 3f 64 2e dd 3f e1 09 e6 be 69 88 95 3f
       1.3273582 1.7279782 -0.44929412 1.1682254
000330 93 b4 df 3f 47 a4 13 bf 00 e0 4b 3f 14 2a 90 3f
       1.7476982 -0.5767254 0.7963867 1.1262841
000340 5a 07 d7 3f 24 33 0f 40 7b 4d ce be f3 97 e5 be
       1.6799119 2.2374964 -0.40293488 -0.4484249
000350 e4 75 23 be 6b 55 cb bd f6 ae e4 3e b2 34 81 3f
       -0.1596294 -0.099284016 0.44664735 1.0094206
000360 18 f5 39 be 4b 49 df be 44 31 ac 3f 36 ca 26 3f
       -0.18159902 -0.43610606 1.3452535 0.651523
000370 20 24 f8 3f 5b 7b 90 bf e6 1b 89 3a 3a 97 15 bf
       1.9386024 -1.1287645 0.0010460585 -0.5843388
000380 3b 8a 40 3d 94 b1 60 bf bd f6 47 3f 22 d9 50 3f
       0.047006827 -0.8777096 0.7811087 0.8158132
000390 e6 7e 44 bf 05 49 e0 3f 7a 81 d2 bf 85 db 04 40
       -0.7675613 1.7522284 -1.6445763 2.0758984
0003a0 70 ed 5a 3f 19 df 7e 3d e5 a7 ea 3f 31 00 39 3f
       0.8551855 0.06222448 1.8332487 0.7226592
0003b0 7a 9e 1b bf 93 ba db be f0 2f 4a 3f 6c 64 1a bf
       -0.6078869 -0.42915782 0.78979397 -0.6030948
0003c0 93 83 9f 3e 70 14 be 3e 1b 1d 3f bf b0 0d 80 be
       0.3115507 0.37124968 -0.74653786 -0.25010443
0003d0 0b 11 50 bf 03 70 96 3f aa c7 09 3f 77 d6 3a be
       -0.81276006 1.1752933 0.5382029 -0.18245874
0003e0 58 a9 c5 bf 49 0b a4 3e d3 c3 f4 3e 74 87 93 bf
       -1.5442305 0.3203986 0.47805652 -1.1525712
0003f0 a6 73 a2 bf 05 bf eb bf ec de cb 3e 01 ee c8 be
       -1.2691543 -1.841767 0.39818513 -0.39244083

weight_ih f4 [256, 64]
000000 ec e3 81 bd 96 a2 90 bd 2e 8b 86 3d f9 5e d9 bd
       -0.06342301 -0.07062261 0.06569515 -0.10613818
000010 bf 81 77 bd 0d be 8e 3d ea 62 5e 3d 32 fb 90 3c
       -0.06042647 0.06969843 0.05429355 0.017697904
000020 f5 99 ed 3d 58 a5 73 bd 09 b7 b0 bc 8e 1a 0a 3c
       0.116016306 -0.059483856 -0.021571653 0.008429183
000030 34 8c f0 3d 38 ad df bd 39 b2 b4 3d b0 23 91 3d
       0.117454916 -0.10921711 0.08823056 0.07086885
000040 32 ed 7e 3c 86 1b 7d bd 0f bc 7e 3d a3 f8 17 3d
       0.015559481 -0.061793827 0.062191065 0.037102353
000050 6b c8 67 bd b8 0e e8 bc e7 f3 b1 bc 72 af e9 3d
       -0.056587618 -0.028327331 -0.021722747 0.11410417
000060 77 8b 0e be 97 f0 92 3d 36 13 d3 bd d9 42 27 bd
       -0.13920389 0.07174795 -0.103063986 -0.040835235
000070 2f aa 11 be 91 0c e2 3d 41 f0 84 bd 4e 45 5f 3d
       -0.14225076 0.11037553 -0.06491137 0.054509453
000080 13 1e 18 3d 63 1d 42 bc 5e 95 13 ba 9a f1 a7 bd
       0.037138056 -0.011847827 -0.00056298624 -0.08200379
000090 bc 8d 3f 3d 0a d1 19 be 07 83 6b bb 4c a7 74 bd
       0.046766028 -0.15021148 -0.0035936253 -0.05972986
0000a0 14 2c b5 3c 49 69 de 3c 98 d2 95 bd 23 6b ac 3d
       0.022115745 0.027149813 -0.07315558 0.08418872
0000b0 89 8d 6c 3d 8d 22 89 3d f8 3b 86 3d f2 f2 45 3d
       0.057752166 0.06696043 0.06554407 0.048327394
0000c0 0b df c2 bd dc 28 5d bd 41 56 e5 3d 0c e0 da 3c
       -0.09515198 -0.053994045 0.11198092 0.026718162
0000d0 7d 75 60 bd 40 18 6e 3c ca 32 02 3e 02 e2 14 bc
       -0.054799546 0.014532149 0.12714687 -0.009087088
0000e0 61 9c 20 3d 31 a4 7a bc cc db 99 3d 55 f1 2d bd
       0.039211635 -0.015297935 0.07512626 -0.04246648
0000f0 a8 97 1a bd 17 48 59 3d d4 14 bf bd 0b ef a0 3d
       -0.037742287 0.053047266 -0.093301445 0.07858094
000100 c4 95 6b bd 9b ad 0b 3e 21 8a c3 bc ee b8 c9 3d
       -0.057515875 0.13640444 -0.023869576 0.09849726
000110 c4 9e fb 3c 39 63 05 3e d9 6f 33 bc 15 66 c6 bd
       0.030715354 0.13026132 -0.0109519595 -0.09687439
000120 0b 43 9e bb 2e df 9e 3d cd f7 96 bd 15 ac a2 3d
       -0.0048297695 0.07757412 -0.07371483 0.07942978
000130 88 88 56 3c ed 61 5b bd 01 5f e6 bd 5c 30 81 bb
       0.013094075 -0.053560186 -0.11248589 -0.0039425325
000140 9a 78 1c 3d 5a ac 18 be 64 35 d4 3d 5b 37 a2 3d
       0.038200952 -0.14909497 0.10361746 0.079207145
000150 48 05 11 3e cc 45 51 3d 54 78 c5 3d 93 26 9c bd
       0.14162171 0.051091954 0.096420914 -0.07624545
000160 ff f4 be 3b 42 b3 fe bd b1 b3 f6 3d 7e 0e 03 be
       0.0058275457 -0.124365345 0.12045992 -0.12798497
000170 a3 4e f1 3d e9 b7 d8 3c 22 4b aa bd 74 69 d7 3d
       0.11782577 0.026454883 -0.08315112 0.105181605
000180 35 1d bc 3d ff 47 81 bd 9d 78 86 bd 82 37 d1 bd
       0.09185258 -0.0631256 -0.06565974 -0.102156654
000190 a4 7e d6 bd b4 39 ce bd 28 8a ef bd 13 28 9e 3d
       -0.104733735 -0.100696 -0.11696273 0.07722487
0001a0 f6 e2 5c 3d d4 65 0b bd 06 e7 1e be 44 22 b3 bd
       0.053927384 -0.034032658 -0.15517816 -0.0874677
0001b0 68 dc 84 3c c5 0e a0 bb d0 d4 83 3d 05 b1 11 3d
       0.01621838 -0.004884573 0.06437075 0.03556921
0001c0 1f 94 0c bd 63 f3 94 3d 76 69 bb 3d b3 e9 f7 bb
       -0.034320947 0.07272985 0.091509745 -0.007565701
0001d0 47 8d df bd 1d 35 28 3d 7e c2 bf bc 65 43 bd 3d
       -0.109156184 0.041066278 -0.02340817 0.0924137
0001e0 ad 71 06 be 9f f6 df 3c d5 00 0f bd 41 15 21 be
       -0.13129301 0.027339278 -0.034912903 -0.15730764
0001f0 bb d9 ae bd 58 bc 65 3d f2 da 3e 3d e6 1e 12 bc
       -0.085376225 0.05608782 0.04659552 -0.0089185
000200 82 ce d6 3d aa 68 3b 3d 51 45 1f 3c b1 bd 00 3c
       0.10488607 0.045754112 0.009721116 0.007857726
000210 37 df a3 bc d0 ec d4 3d 49 86 a1 3c b3 7a 55 bd
       -0.020003898 0.10396731 0.019717352 -0.05211897
000220 48 87 f6 bd 69 52 92 bc 55 85 eb 3d de 73 3e bd
       -0.120375216 -0.017861562 0.115000404 -0.04649722
000230 bb 7d c7 bc c1 e7 a9 bd a7 83 71 bd 4b a6 48 3d
       -0.024351945 -0.08296157 -0.058963444 0.048986714
000240 76 73 39 3d 24 77 33 3c e1 0b 63 3d 41 71 65 bd
       0.045276128 0.010953698 0.05543125 -0.05601621
000250 23 bc 2e bd 64 b6 53 3d 05 97 dc bd 7f 3a f8 3d
       -0.04265989 0.051687613 -0.10770992 0.12120532
000260 d2 45 d7 bd b6 8b 93 bd ae c3 24 3c 48 d3 bb bd
       -0.10511364 -0.07204382 0.010056419 -0.09171158
000270 9b 4b 48 3d c7 19 27 bd 5a 80 8d 3c 1b 59 33 3c
       0.048900228 -0.040796068 0.017273117 0.010946537
000280 b4 b9 bc bd 5f e3 33 3d 9b 68 c9 bd d0 8f be 3c
       -0.092151076 0.04391801 -0.09834405 0.023261935
000290 f8 7f 80 bc 7b 83 b9 bd b4 5d 1d 3d 36 4c 2c bd
       -0.01568602 -0.09058281 0.03841944 -0.042064868
0002a0 95 85 92 bd 91 22 30 bd 7b d4 09 3d 37 a8 19 bc
       -0.07154385 -0.043001715 0.033649903 -0.009378484
0002b0 6a 4b d0 3a ab 1e 6f 3d 10 2e f9 3d e3 86 de bd
       0.0015891616 0.058378857 0.12166989 -0.10865571
0002c0 28 d7 ca bd 21 77 1e be 8b c1 13 be a6 40 d1 bc
       -0.09904319 -0.15475132 -0.144293 -0.025543522
0002d0 7d 8d 47 bb 03 91 0c 3e 95 f7 9d bd bf 44 a8 3d
       -0.0030449324 0.13727193 -0.07713238 0.08216237
0002e0 9e 31 38 be 91 e7 b3 bc 35 64 c2 3d 2e 1e a5 3d
       -0.17987677 -0.021961005 0.09491769 0.08062397
0002f0 21 87 17 bd 06 e9 66 bd 18 b6 a9 bc 95 b8 00 be
       -0.036994103 -0.056374572 -0.020716712 -0.12570412
000300 73 ad 35 3c fa 3b f8 bd 56 37 a1 bd 64 f0 ba bc
       0.011088717 -0.121208146 -0.078718826 -0.022819705
000310 54 29 20 bc d1 a8 f0 3c 7e 48 ad bd 49 af 85 bd
       -0.009775478 0.029377373 -0.084610924 -0.065275736
000320 d4 24 c4 bd fc 73 cf 3c d0 70 13 3e 6a 8b 84 3d
       -0.09577337 0.02532386 0.14398503 0.064719036
000330 e2 01 14 3b bb 56 c7 bd ae dd e0 3d 77 99 c1 bd
       0.002258413 -0.097333394 0.10979782 -0.09453099
000340 01 38 a2 bb 16 97 c3 bd 2c ad 8a bd f6 41 99 bd
       -0.004950524 -0.09550302 -0.06771311 -0.07483284
000350 35 6a 99 3d b5 8d 82 3d 26 b5 d5 3d e1 10 1c 3c
       0.074909605 0.06374685 0.10434942 0.009525509
000360 6b 47 05 bd 25 35 c1 bd dc 12 2b bd 09 f9 02 bd
       -0.032538813 -0.09433965 -0.041766033 -0.03197578
000370 5d 52 f7 bd f4 83 cd bd 62 93 b5 3d a4 4f bf 3d
       -0.120762564 -0.10034934 0.08866002 0.09341362
000380 ae 17 1a bc 83 25 a1 3d fd 9b f4 3c ec 3c 10 bd
       -0.00940506 0.07868483 0.029859537 -0.03521435
000390 a1 77 ca 3c f0 74 3f bd 8f 2a 2c 3b 6f 72 34 3d
       0.024715247 -0.04674238 0.0026270484 0.044054445
0003a0 26 44 a6 3d 93 94 c6 3d 19 0c 97 3d 0c 6f c5 3d
       0.08118467 0.09696307 0.07375354 0.09640321
0003b0 f1 ce d8 bc e4 f1 c8 3c 55 1d dc bd 18 87 a7 3d
       -0.026465865 0.024529405 -0.10747782 0.08180064
0003c0 6d 69 93 bc d3 df 8a 3c c3 d2 b5 bd 43 11 e9 bd
       -0.017994607 0.01695243 -0.0887809 -0.113802455
0003d0 fa bc 02 3d 72 8c 0f 3c 6c b0 a2 bd 5d dc 0b 3e
       0.031918503 0.008761512 -0.07943806 0.1365828
0003e0 15 b4 ba 3d 9c ad 99 bd c1 e9 aa bd 1e 02 68 3d
       0.09116379 -0.075038165 -0.08345366 0.056642644
0003f0 13 77 63 3d 12 c7 a7 bd 33 50 c2 3d 29 f1 8e 3d
       0.05553348 -0.081922665 0.09487953 0.069795914

weight_hh f4 [256, 64]
000000 33 fa cb bd 49 60 dc 3d 14 e1 97 bd a5 d6 3e bd
       -0.09959831 0.107605524 -0.07415977 -0.04659142
000010 75 53 fe bc 6d b6 17 3e 80 61 c0 bd d6 6b 04 bd
       -0.031045655 0.14815684 -0.09393597 -0.032329403
000020 80 c3 31 3d 01 bc 27 3d 90 c0 ab bc 6c f6 f5 bd
       0.043399334 0.04095078 -0.020965844 -0.12009892
000030 63 ec 33 bb 43 9d 89 bd 58 ba 9c bd eb f0 f6 bb
       -0.002745413 -0.067194484 -0.0765273 -0.007536044
000040 f0 0c 0b 3e 7e 2d 2b be 2e 39 7f 3d 59 6f d1 ba
       0.13579154 -0.16716573 0.06231039 -0.0015978619
000050 41 e8 87 bd 09 7d 6c 3c 34 34 87 bd b2 1b 0f 3c
       -0.06636096 0.014434108 -0.06601754 0.00873463
000060 ac aa 94 bd fe 08 b4 3d 2c 1d 73 3d c2 12 06 3d
       -0.072591156 0.087907776 0.059353992 0.032732733
000070 d5 b4 41 3c 83 4c cd 3b 46 6c 07 3e 07 ec fe bc
       0.011822899 0.0062652244 0.13224897 -0.031118406
000080 31 96 1c be a3 f6 11 3d 94 db ef bd b0 ea 13 be
       -0.15291668 0.0356356 -0.11711803 -0.14444995
000090 4c 66 a6 3c 99 bb 7a 3d e2 40 12 bb 67 99 87 3d
       0.02031245 0.061214063 -0.0022316505 0.06621056
0000a0 6d e4 78 3d b6 cb a6 3c db 06 1f 3e 60 fc b4 bd
       0.06076472 0.020360809 0.15529959 -0.08837199
0000b0 d1 f2 8c bc 6d 64 48 bd b9 51 15 bd a5 78 ac bd
       -0.017205628 -0.0489239 -0.03645489 -0.084214486
0000c0 2c 78 df 3c 9e 4b 0a bd b7 5f 0b be a5 f6 f2 bd
       0.027278982 -0.03376352 -0.13610731 -0.1186345
0000d0 77 58 3a be 0d 25 f6 bd 37 b6 14 3e 9f 49 64 bd
       -0.18197809 -0.120187856 0.14522634 -0.055734273
0000e0 69 b6 16 be c0 a1 be 3d 48 32 29 be c7 34 b8 3b
       -0.14718021 0.09308195 -0.16523087 0.005621526
0000f0 b1 e8 7f 3c 14 7c 01 bd d1 45 26 be 39 1b 3a 3c
       0.015619443 -0.03161247 -0.1623757 0.011359029
000100 ca 7d bc bd 56 ac c1 3d b7 45 19 bb e8 26 91 3d
       -0.0920368 0.094566986 -0.00233875 0.07087499
000110 2a 70 74 3d e3 7b b2 3c aa 5b 31 3d a7 cd c8 3d
       0.05967728 0.02178759 0.04330031 0.0980485
000120 cb 31 ea 3d f0 38 78 3d f4 e3 d5 bd f3 3f ea bd
       0.114352785 0.060601175 -0.10443869 -0.114379786
000130 ec 32 ae bd be a8 86 bd b7 9f 04 3e c3 a3 98 3d
       -0.08505806 -0.06575154 0.12951551 0.0745311
000140 72 ac cf 3d 2b d3 64 bc 0d 22 f0 3d 96 df 6f bd
       0.10140313 -0.013966362 0.11725245 -0.058562838
000150 26 2e bc 3d 14 74 ce bd 02 56 21 3d 2f 82 8c 3d
       0.091884896 -0.10080734 0.039388664 0.06860768
000160 69 9d 8e 3c c7 e1 80 3d 7e e5 fb 3d 86 db 6c bd
       0.017409043 0.062930636 0.122996315 -0.05782654
000170 3f 09 db bc 9a 67 76 bd 45 67 7f bd af 12 3d 3d
       -0.026737807 -0.060157396 -0.062354345 0.046160396
000180 2e a8 2d bd 7c c3 b0 3d 1b 6d af 3b d1 85 00 be
       -0.042396717 0.08631036 0.0053535826 -0.12551047
000190 d6 6a c6 3c ef 4e d6 3d ac ec d3 bd 73 cf 10 3e
       0.024220865 0.10464274 -0.10347876 0.14141636
0001a0 42 02 54 3d 98 70 2a bd 04 3f 05 bd 41 a8 12 3c
       0.051759966 -0.041611284 -0.0325308 0.008951248
0001b0 bd 29 0b 3e cf 6f 87 3d 71 07 f3 bd 3a db 4c 3d
       0.1359014 0.06613123 -0.11866654 0.05001376
0001c0 f6 aa 2c bd 58 c8 29 be a0 e2 1b bc 59 f3 13 bd
       -0.04215523 -0.16580331 -0.009514481 -0.036120746
0001d0 63 2b 28 bd b5 34 bd 3c 44 41 b0 bd fa 06 0b bc
       -0.041057 0.023096422 -0.086061984 -0.00848555
0001e0 e5 4c a6 3c 73 52 38 3e a5 e2 33 3d 38 d8 fd 3d
       0.020300338 0.18000202 0.043917317 0.12394756
0001f0 af fd 88 bd 33 df 99 3d b2 a0 bb 3d 5d af 96 3d
       -0.06689011 0.07513275 0.091615096 0.07357667
000200 c2 d7 3f be aa 49 b9 3c 4c 42 82 3d 20 45 d4 3d
       -0.18734649 0.022618134 0.063603014 0.10364747
000210 28 19 d2 3d 0b 79 d5 3d dd 23 80 3d 3f 37 a6 3d
       0.102587044 0.10423478 0.062568404 0.08116006
000220 a9 b0 8b 3d 80 9f e6 3d 17 8f cf 3d 41 59 b3 3d
       0.068208046 0.11260891 0.10134714 0.08757258
000230 db 39 45 3d bb 47 c0 3d e2 97 74 ba 88 de 16 3d
       0.04815088 0.093886815 -0.00093304936 0.036833316
000240 84 cf 9f bd 33 e3 01 3e ee cd 05 bd 52 c6 ab 3c
       -0.07803252 0.12684326 -0.032667093 0.02096859
000250 30 76 04 be 0e c6 74 3c 00 d2 e3 3d f2 a3 d2 3d
       -0.1293571 0.014939798 0.11124039 0.10285176
000260 17 72 a4 bd f8 79 e3 bd 79 7b f1 3d 76 a0 ee bd
       -0.080295734 -0.11107248 0.11791129 -0.11651699
000270 c5 98 41 bd e2 48 5f 3d 4d 1b 15 3d cd 97 cc 3d
       -0.047264833 0.054512866 0.03640299 0.09989891
000280 40 76 6f bc df bf 80 3c 08 9e 81 bd 9f ad a7 bb
       -0.014615595 0.015716491 -0.0632897 -0.005117133
000290 4a 12 86 3c 64 b8 a7 bd e1 2f 66 3d 24 4a f7 3d
       0.016366143 -0.081894666 0.056198005 0.12074688
0002a0 c0 16 0e 3e 7f 3f 80 bd cf 1e b7 3d e0 7f eb 3d
       0.13875866 -0.06262111 0.08941423 0.114989996
0002b0 de b4 d5 3d da ac 0f 3e 89 94 0f 3c 0b dd f8 bb
       0.10434888 0.14030781 0.008763441 -0.0075947098
0002c0 6a 48 2c bc c6 f9 07 bc 05 52 dc 3c f1 69 b3 bd
       -0.010515312 -0.008299297 0.026894579 -0.08760441
0002d0 56 51 85 bb b8 87 0c 3d 33 20 24 3e 15 8f a4 3d
       -0.004068534 0.03430912 0.16027908 0.08035103
0002e0 2e 25 07 3a 57 00 8d bc 69 bc 71 3c 89 94 57 bd
       0.00051553815 -0.017212076 0.014754393 -0.05263189
0002f0 b8 84 0b 3d 97 eb 10 bc 15 fd 8b 3d 7e 43 1e 3d
       0.034062117 -0.0088452315 0.06835381 0.038638584
000300 79 e7 36 bc 8d ac c7 3d ff 38 a3 3d 70 f3 ae bd
       -0.011163586 0.09749708 0.079698555 -0.08542526
000310 e4 4b 32 bd a6 27 d8 bd f0 60 e0 3c 8d d9 00 3e
       -0.043529406 -0.10554437 0.027389973 0.12582989
000320 66 cc ef bd cb b1 a2 bd 43 27 aa bd 9a d9 e7 3d
       -0.11708908 -0.079440676 -0.0830827 0.11320801
000330 16 3e d2 bd 29 bd 43 3d 34 c7 55 3d 92 7b f8 3c
       -0.10265748 0.04778782 0.052191928 0.03033236
000340 b3 05 e2 3c 80 a6 83 3b bd c9 6a bd 6c f4 9d bc
       0.027590608 0.004017651 -0.0573213 -0.019281588
000350 7b 2a 47 3d 04 de 0f 3d 8e 0e 73 3d 6d 67 9d 3d
       0.048624497 0.03512384 0.059340052 0.076857425
000360 9a a2 f4 bd 79 95 01 3d 26 ce c9 3c 14 54 d7 3d
       -0.11945076 0.03163669 0.024634432 0.105140835
000370 be db 80 bd 28 3f b1 3d 34 6d 81 3c 20 c3 f3 bd
       -0.062919125 0.08654624 0.015799142 -0.119024515
000380 c8 9d a6 bd fe 07 87 bd a9 2f 10 bd 00 3e cd 3c
       -0.08135563 -0.06593321 -0.035201702 0.025053978
000390 de 4d d4 bd 3d f2 d3 3d c7 a7 44 bd b7 b5 b7 3c
       -0.103664145 0.10348938 -0.048011567 0.022425516
0003a0 a3 dd b0 bd ee 3a 2d bd d9 55 17 bd 86 37 dd bb
       -0.08636024 -0.042292528 -0.036947105 -0.0067510037
0003b0 d0 99 30 3c 30 a1 06 3d 34 d9 1f 3e aa ce 1b 3e
       0.010778859 0.032868564 0.156102 0.15215555
0003c0 4a b9 3e 3d 69 e8 23 bd 5b 32 f1 3d 59 44 56 3d
       0.046563424 -0.040016565 0.11777183 0.052311275
0003d0 6a 47 98 bd b4 07 ed bc 87 50 03 3e f1 f2 b6 3d
       -0.07435496 -0.028934337 0.12823687 0.08933056
0003e0 3f 92 96 bd fa ed 5d 3d 74 2a e1 3b a4 02 70 bc
       -0.07352113 0.05418203 0.006871516 -0.014649067
0003f0 56 0a 8f 3d cf f4 19 3c 3a 32 f6 3d d4 bd 4d bc
       0.06984393 0.009396746 0.12021299 -0.012557466

bias_ih f4 [256]
000000 f9 da 35 3e 35 97 62 bd 68 ad 1b bd c5 15 dd 3d
       0.17759313 -0.055319984 -0.03800717 0.10795168
000010 b2 2e 0a 3e 2c db a8 bd 81 56 b0 3d 7c 40 89 bd
       0.13494375 -0.08244929 0.08610249 -0.067017525
000020 9c 0f 21 3c a1 f5 23 3d 33 27 c0 bd 69 45 e0 bd
       0.009830382 0.04002917 -0.09382477 -0.10950739
000030 2c a2 20 bd dc 3a 33 bd 11 32 93 bd 4b 75 0f bd
       -0.03921716 -0.043757305 -0.07187284 -0.03502397
000040 41 71 7e bd 90 b8 96 3d ec 80 f6 bc fd 36 9c 3d
       -0.062119726 0.07359421 -0.030090772 0.07627676
000050 4f 16 62 bc d6 d2 4e 3d 47 18 85 3d a2 ec 0b 3d
       -0.013799264 0.050494038 0.06498771 0.034161218
000060 06 bb 43 3d 48 c5 ba bd ef 1d 76 bd 3d 04 6b 3d
       0.04778578 -0.0911966 -0.06008714 0.05737709
000070 9f 03 ab bd c0 5c 5b 3d d5 59 1f 3e 8b 50 13 3e
       -0.083503 0.05355525 0.15561612 0.14386193
000080 59 88 90 bd d6 ee 37 3d 91 58 01 3e c6 e4 93 3d
       -0.07057256 0.044905506 0.12631442 0.072213694
000090 4f 30 8c bd 81 4f 06 3e 3b b4 63 3d 56 89 ec 3d
       -0.06845152 0.13116266 0.055591803 0.11549632
0000a0 f2 e5 3e 3c 07 fb e0 3d fe 03 8c bc 32 05 0c 3e
       0.011651503 0.1098538 -0.017091747 0.13673857
0000b0 bc 25 58 3d f7 03 66 bd 7e 2f a3 bd ec 3e 86 bc
       0.05277036 -0.056156125 -0.07968043 -0.016387425
0000c0 81 1f 1e 3e c0 dd bc bd a6 6a 34 3e 50 dd f9 3c
       0.15441705 -0.09221983 0.17618808 0.030501038
0000d0 e8 c8 c2 bd 4d c3 24 3e a1 58 28 3e 01 9f 92 3d
       -0.09510976 0.16090126 0.16440059 0.07159234
0000e0 60 7e d0 3d 87 35 2d bd 6c 3f 3b bd c7 69 dc bd
       0.10180354 -0.042287376 -0.04571478 -0.10762363
0000f0 41 19 4e bd 3b 0c 8c 3d ce cb aa 3d 1d 6b 1e 3b
       -0.050317053 0.0683827 0.08339654 0.0024172731
000100 34 01 53 bd c2 b4 98 bd 29 6e 12 bd 67 76 fa bc
       -0.05151482 -0.07456352 -0.03574959 -0.030574037
000110 3f 2d d1 3d aa 77 c5 bd 52 c0 5d bd 60 7e 20 3c
       0.10213708 -0.09641965 -0.05413849 0.009795755
000120 ee 64 9f bd 18 44 a9 bd 6c 15 da 3c 34 7e 79 bc
       -0.07782923 -0.08264941 0.026621543 -0.015227843
000130 1c 0c bf bc f5 80 92 bd fe b5 6b bd ae 56 f8 3c
       -0.023321204 -0.07153503 -0.05754661 0.03031477
000140 26 09 85 3c 37 a8 6f 3d 63 06 8d 3d 6f 40 2e bc
       0.016239714 0.05851003 0.06885984 -0.010635479
000150 c5 fe 91 bd 5d 8c 6a bd e8 71 73 3d 88 d5 ff 3d
       -0.071286716 -0.057262767 0.0594348 0.124919
000160 af 68 d0 bd b3 54 dd 3d 6d 31 cf bc ad a8 b4 3d
       -0.10176217 0.10807171 -0.025292123 0.08821235
000170 4c d7 a6 bd 2a cc 0b 3d 87 54 ac 3d 6a ac 29 3d
       -0.08146533 0.034130253 0.0841456 0.041424192
000180 57 fb b8 bd 20 09 72 3c 6f 10 09 3d 10 b8 16 3d
       -0.09032314 0.014772683 0.033462938 0.03679663
000190 12 35 8f 3b 02 e0 a7 3d e4 20 5b bd 77 0a 18 3e
       0.00437034 0.08197023 -0.053498164 0.14847742
0001a0 55 27 9c bd ef df eb 3b d7 8b 07 3d 4c ee e1 3d
       -0.076246895 0.007198326 0.033092346 0.1103178
0001b0 82 93 3e bc 63 b5 1e 3e 7e b9 96 ba 08 ee 58 3d
       -0.011631848 0.15498881 -0.0011499373 0.05296138
0001c0 31 79 c0 bd 76 e7 57 3d 4f 54 1f 3e bd 4a 0b 3e
       -0.093981154 0.052710973 0.15559505 0.13602729
0001d0 21 f2 6e bd 99 3b 83 bd 96 d7 f9 3d 7a 5c b3 3c
       -0.05833638 -0.06407852 0.12199323 0.021894682
0001e0 cd bf 9f 3d 5c 05 00 3e 9d 29 91 bc 22 01 e1 bd
       0.07800255 0.12502044 -0.017720038 -0.10986544
0001f0 ee 07 22 3d 7f 43 69 bc b9 87 c3 bd ff 8d b6 bd
       0.039558344 -0.014237284 -0.095473714 -0.08913802
000200 48 f5 5b bd 91 2d 36 3d b2 39 c2 bd 1a 58 b1 bd
       -0.053700715 0.04447705 -0.09483661 -0.08659382
000210 e7 8f d8 3d 76 95 a8 3d ab 9c b8 3c 1a 66 56 3c
       0.10574322 0.082316324 0.022535643 0.013085866
000220 cd 19 5e bd 37 19 a1 bd 9e 70 16 3e 30 a2 f2 bd
       -0.054223824 -0.078661375 0.14691398 -0.11847341
000230 43 13 01 bd 35 fe d7 bd 5b 70 90 bc a2 c2 af 3c
       -0.03151251 -0.10546533 -0.0176317 0.021455113
000240 4b 9b d0 3d b1 ac 5b bd dc 6b 3b bc ef 90 2e 3d
       0.1018587 -0.05363149 -0.01143929 0.04261869
000250 a5 51 cd 3d 65 2a fc bd 18 70 b8 bd b4 be d1 3c
       0.10025338 -0.123127736 -0.09005755 0.02560363
000260 fe 63 80 3b 16 77 e1 3d 00 b6 30 ba 1d fc 07 be
       0.00391817 0.11009042 -0.00067409873 -0.13279767
000270 cd 8b e5 3d a6 ad 35 bc 8c 49 5c 3d 2c ed d6 bd
       0.112083055 -0.011088764 0.053781077 -0.10494456
000280 50 84 b7 3c 5a 0c b3 3d 57 74 eb bb 7d ad bc bd
       0.022401959 0.0874259 -0.0071854996 -0.09212778
000290 42 04 18 3d 08 ad c2 3d ab b0 ba 3d aa 60 10 3e
       0.037113436 0.09505659 0.09115728 0.14099374
0002a0 e0 4f ca bd 1a f1 47 bd 3f fb 1c 3d 16 c2 8c bd
       -0.09878516 -0.048813917 0.038325544 -0.068729565
0002b0 4a 66 2f 3b 5b 16 ad 3d b5 49 92 3d cb 04 f8 3c
       0.002676385 0.084515296 0.07142965 0.030275723
0002c0 4e 4a f4 bd 65 2e fe bd 57 99 91 3d 85 d2 f3 3c
       -0.11928235 -0.12411193 0.071093254 0.02976347
0002d0 99 6a 04 be 60 98 d3 3d 28 26 c3 3d 53 e2 84 3d
       -0.12931289 0.103317976 0.09528762 0.064884804
0002e0 4d 43 08 be 52 f5 61 bc b1 9e 90 3d 26 12 4d bc
       -0.13306923 -0.013791399 0.07061518 -0.012516534
0002f0 d1 ed ab 3d 15 18 0c 3e c9 20 00 be 89 0a 0f be
       0.08394969 0.13681062 -0.12512507 -0.13968863
000300 83 f6 2e 3e 15 f6 84 bc 3f 6b 44 bd c3 85 8e bc
       0.17086224 -0.016230622 -0.04795384 -0.017397767
000310 d4 14 ff 3d 9e f5 99 3d b6 fa 9f 3d b0 35 a2 3d
       0.124551445 0.07517551 0.07811491 0.07920396
000320 98 1c 5b bc 94 69 ab bd 82 2b 2e 3c b3 ad 2b 3e
       -0.0133735165 -0.08369747 0.01063049 0.1676548
000330 3c be 02 3d ab d6 fc 3d 78 22 ab 3d ab 3b 0c 3e
       0.031919703 0.12345632 0.08356184 0.13694637
000340 3b 37 35 bb ed eb d5 3b f8 12 e0 3d 20 1b 8c 3d
       -0.0027651328 0.0065283687 0.10941118 0.06841111
000350 a4 4b 06 bb 1e 1b 11 3c 03 f6 96 3d db f2 12 3e
       -0.0020491863 0.008856563 0.07371142 0.14350455
000360 7c 05 f5 bc 7e 0e ca bc 8e 26 99 3c a3 81 92 bd
       -0.029909842 -0.024665114 0.018695142 -0.071536325
000370 c3 c2 1f 3d cf 91 04 3d f0 25 74 3d d5 69 9d bd
       0.0390041 0.032365616 0.059606493 -0.076862015
000380 8c b6 90 bd c0 fc 64 3d 56 9f ce 3c 43 a2 ad 3c
       -0.07066068 0.055905104 0.025222462 0.021195536
000390 9f 8e 1c 3d 1b 08 b4 3d 27 81 fa bd d2 85 db bd
       0.03822195 0.087906085 -0.12231665 -0.107188836
0003a0 e5 2a d8 bd 5c 42 ed bc 78 1f 94 bd c8 4b 46 3e
       -0.105550565 -0.028962307 -0.07232565 0.19364846
0003b0 25 85 cc 3d 28 bb fe 3d ef f7 80 bd 6f 05 37 bd
       0.09986333 0.12438041 -0.062972896 -0.044682916
0003c0 cd 63 cd bc 62 7d 71 bd 10 12 29 bd 94 01 0c be
       -0.025072003 -0.058957465 -0.04127699 -0.13672477
0003d0 62 0b 19 3d 60 6e cb 3d b6 f7 1f 3d 2f 9f f4 3d
       0.03736437 0.09933162 0.039054595 0.11944424
0003e0 77 ff 57 bc 7f 42 79 bd b8 7c 2d 3d bb 3e d8 bd
       -0.013183466 -0.06085443 0.04235527 -0.1055884
0003f0 92 72 eb 3d 63 c8 c7 3c 1b 19 78 bd 48 68 a2 bd
       0.11496462 0.024387544 -0.060570817 -0.07930046

bias_hh f4 [256]
000000 e0 ba b1 3d 24 43 8c 3d a5 4f 08 3c c7 fe a0 bd
       0.08678222 0.068487436 0.00831977 -0.07861095
000010 d5 ff 96 3c ae c9 4d bc 1c d3 ca 3c 49 65 96 bc
       0.018432537 -0.012560291 0.024758868 -0.018358843
000020 c1 8f 66 bc bd da 59 3c 53 e5 7a 3b fe 7b d4 3b
       -0.01407236 0.01329678 0.003828366 0.0064845076
000030 9b 1e 99 3d 86 2c 09 3e 93 b0 b2 3d f9 f6 d9 bc
       0.07476541 0.1339589 0.08725085 -0.026607024
000040 0a db ac 3b 3e 1e 05 3e 55 b0 2a 3d 49 80 c5 3d
       0.005275135 0.12999818 0.04167207 0.09643609
000050 4d 3b bc bd ca 02 17 3e 8a 04 7e bd 21 1c 14 bd
       -0.09190998 0.14747158 -0.062016048 -0.03615964
000060 90 7c 7f bd 6f 2c 8b 3d 14 33 ac 3d 18 6c 94 bd
       -0.06237465 0.067955844 0.0840818 -0.0724718
000070 9d 26 95 bd b1 a5 dd 3c f5 8c 62 bd f6 a6 3b 3c
       -0.072827555 0.027056547 -0.05531021 0.011453381
000080 33 da 8e bd ff 95 e8 bc 9f eb 69 bd 2e f6 c7 3c
       -0.06975212 -0.028391836 -0.05710947 0.02440938
000090 45 7c 71 3d dd e9 cc 3d bc e8 9d bd 7c 3b e0 3d
       0.058956403 0.100055434 -0.07710406 0.10948846
0000a0 45 17 f3 bc 8b 8a ab 3c 3c 25 b9 3c 09 9b 14 3e
       -0.029674182 0.020940086 0.022600763 0.14512266
0000b0 2e bb 9c 3d 16 78 0c 3c 54 20 83 3b 20 bf c3 3d
       0.07652889 0.008573553 0.0040016565 0.095579386
0000c0 7e 79 0c 3e fa b3 84 bd e1 8f c1 3d 0d c9 92 3c
       0.1371822 -0.0647964 0.09451271 0.017918134
0000d0 18 36 ca 3d d7 ea 67 3d 91 b0 09 3e 7d 43 07 3e
       0.09873599 0.056620445 0.13446261 0.13209338
0000e0 f4 55 f4 3d c9 e8 46 bd 6d 06 85 3d 07 11 a4 3d
       0.11930457 -0.048561845 0.06495366 0.0801106
0000f0 97 2d 06 ba 4a 83 03 bd 22 88 8b 3b 10 aa f6 3d
       -0.0005118488 -0.03210763 0.0042581717 0.120441556
000100 1c a0 94 bd 44 87 30 3d 5e b6 31 bd 28 40 44 3b
       -0.07257101 0.04309775 -0.04338681 0.0029945467
000110 2f 3d f5 3b af c6 02 3d dc 13 ab bc e2 b1 d2 bd
       0.0074841003 0.03192776 -0.020883493 -0.10287835
000120 04 53 ab bd d4 9a 4e bb 87 61 07 3e 70 f4 bf 3c
       -0.08365443 -0.003152539 0.13220797 0.023431987
000130 94 ca 3e bd a6 1c 13 3e 98 0e be 3c ef cc 00 3e
       -0.046579912 0.14366397 0.023200318 0.12578176
000140 22 cb a9 3d 56 14 a0 bd 3b ae 02 be aa 7e 0f bd
       0.08290698 -0.07816379 -0.12761776 -0.035032906
000150 dc 8a 04 3e ae cc d1 bd c6 39 9a 3d 1e 08 0b 3e
       0.12943596 -0.10244118 0.07530551 0.13577315
000160 a3 8e 87 3d ad 06 16 bc b4 37 66 3d 1f 90 83 bd
       0.06619003 -0.009156865 0.056205466 -0.06423973
000170 44 66 89 3d 70 89 97 bd 5a 27 57 3d 11 5b ff 3d
       0.06708959 -0.07399261 0.052527763 0.124685414
000180 37 7a cf ba f1 ce b8 bd 97 88 32 3d 86 51 5e 3d
       -0.001582927 -0.09023846 0.043587293 0.054276966
000190 3f ad 09 3e d1 ca ab bc 3d 66 8e 3d 52 48 e5 3d
       0.13444994 -0.020970734 0.06953094 0.11195435
0001a0 45 f4 b6 bd f7 3a 9b bd 35 a2 28 3d 2f bf c0 3d
       -0.089333095 -0.07579606 0.041170318 0.094114654
0001b0 56 44 a4 bc ff e8 9f bd d4 58 cf 3d 39 55 e5 3d
       -0.020052116 -0.07808112 0.101243645 0.111978956
0001c0 a6 fe 51 bd d2 e7 5d 3d c4 2a b8 3d ab df a2 bd
       -0.051268242 0.05417616 0.08992532 -0.079528175
0001d0 1b 44 2b bd 43 f0 db 3d 6c d3 67 3d 74 89 02 bd
       -0.041812997 0.10739186 0.056598112 -0.031869367
0001e0 01 6f 9e 3d cc e7 1f bd c4 73 bf 3d 72 6f 97 3d
       0.07736016 -0.039039418 0.093482524 0.073943034
0001f0 cf a5 d0 3d 9b b1 7b bd fc 38 08 3e 17 81 a0 bd
       0.101878755 -0.061448675 0.13302988 -0.07837122
000200 e8 50 94 bd 56 9e 12 3e 9b 6b 26 3c b6 91 51 3d
       -0.07241994 0.14318213 0.010157491 0.05116435
000210 cc 9f 67 bb 39 4d 05 3e 4a 58 09 bd 9c f8 74 3d
       -0.003534305 0.1301774 -0.033531465 0.059807405
000220 a5 24 38 3b 90 da 09 3d 5c 5b 07 3e be 80 84 bc
       0.0028098014 0.033655703 0.13218445 -0.01617467
000230 48 34 81 3d 1e 5f 65 bd 53 4e 0c bd 03 41 b9 bd
       0.063088 -0.055998914 -0.034254383 -0.09045603
000240 41 b2 cf 3d 98 d9 3d bd a6 0e 8e 3d dd 74 3a bd
       0.10141421 -0.04635009 0.06936388 -0.045521606
000250 26 65 0c 3e 97 51 80 bd 64 e8 51 bc 65 ce a1 3d
       0.1371046 -0.06265562 -0.012811754 0.07900695
000260 bf cf fc 3b 88 66 8e 3d 15 e8 af 3d 2f 9b 16 be
       0.007715195 0.0695315 0.08589188 -0.14707635
000270 13 19 b8 3d 56 a1 46 bc 29 5b 1f 3c 57 77 74 bc
       0.089891575 -0.012123426 0.009726324 -0.014921031
000280 5a 9d e7 bd ac 93 9c 3c da dd 8e bd 3a 00 57 bc
       -0.11309309 0.019113384 -0.069759086 -0.013122613
000290 eb 47 73 3d b2 3f bf bd ef 46 c2 3d d6 d3 4e 3d
       0.05939476 -0.09338321 0.09486186 0.05049499
0002a0 5c e1 ed bb 26 d7 79 3d c1 43 0c 3c fd 7d b5 3d
       -0.007259531 0.060996197 0.008561076 0.08861921
0002b0 a0 85 d9 3d 50 8d 92 3d ee 25 f6 3c 6d e4 93 3d
       0.1062119 0.071558595 0.030047383 0.07221303
0002c0 9c c2 d3 3d 01 ea 46 3d fb fc 62 3d dc e4 01 be
       0.10339853 0.048563007 0.055417042 -0.12684959
0002d0 ee 2e fb bd e0 cb 8f bd 8b 59 fb 3d ad d2 e6 bd
       -0.122648105 -0.07021308 0.12272938 -0.11270652
0002e0 d4 4d b4 3b 4c 1c 29 bd ab da dc bd 14 d5 c8 bd
       0.005502442 -0.04128675 -0.10783895 -0.098062664
0002f0 e1 b9 0b 3b 4f 8a 36 bc 01 c7 d4 3d 94 0b 16 3d
       0.002132051 -0.011141374 0.103895195 0.036632136
000300 46 22 d0 3b 22 12 53 3d f0 98 8c bd f5 9a 55 bc
       0.006351742 0.051530965 -0.06865108 -0.013037433
000310 0d 01 18 3e 95 cb 8a 3d 8b b1 8f 3d c9 63 10 3c
       0.14844151 0.067771114 0.070162855 0.008812853
000320 7e 27 b6 bc 8f 71 13 bd 03 c9 52 bd 16 50 90 3d
       -0.022235628 -0.03599697 -0.05146123 0.07046525
000330 45 f6 c2 3d 7e 2f a5 3d a3 4a 1c bd 5a 1f 15 3e
       0.095196284 0.08065699 -0.038157117 0.14562741
000340 bd d0 ab 3c cc 5d ab bd a9 0f 68 3c ca eb 13 3e
       0.020973558 -0.083675 0.01416389 0.14445415
000350 1c fa c6 3c 7f ec 60 bd 40 d9 9f bd c9 29 74 bd
       0.024289183 -0.05491304 -0.07805109 -0.059610162
000360 cf 91 bd bd 14 09 6f 3d 7d 86 c1 3a 55 82 d5 3d
       -0.092563264 0.058358267 0.0014764812 0.104252495
000370 f6 62 d8 3d fa 48 2c 3e cc 08 8d 3d 49 cc 0d bc
       0.1056575 0.16824713 0.068864435 -0.008654662
000380 c2 68 c0 3d 79 15 06 bd c2 9b bf 3d cc e6 99 bd
       0.09394981 -0.03273532 0.0935588 -0.07514724
000390 a7 c3 ea 3d 75 24 d5 3d 1a 2c 67 bd be b7 f5 3d
       0.11463099 0.10407344 -0.056438543 0.11997937
0003a0 b5 b1 b4 3d 6e f0 a5 3d 08 f0 c3 bd 79 37 f4 bb
       0.088229574 0.08102499 -0.09567267 -0.007452902
0003b0 f2 12 82 3d f9 fd 44 3d ec 8d 84 3d e3 6f 59 bd
       0.0635127 0.04809377 0.06472382 -0.05308522
0003c0 9e 86 ae 3d a5 11 60 3d 5f 8e 16 3e da 43 ce bc
       0.0852177 0.054704327 0.14702748 -0.025178839
0003d0 24 92 f3 3c b9 21 03 3e ff f4 9b 3d 6b ed 7e 3d
       0.029732771 0.12805833 0.07615089 0.06223814
0003e0 0f 5a 53 bd cb d6 1d 3e c0 7b 0a 3e 7f 67 72 bc
       -0.05159956 0.15413968 0.1352377 -0.014795183
0003f0 aa d7 b9 bd 0e 47 22 bd 6a 73 9b 3d e6 89 1c 3e
       -0.09074338 -0.039618544 0.07590373 0.15286979

weight f4 [64, 128]
000000 39 6d 65 bd a2 e2 02 bd dd 7a 76 3d a1 2c bb bb
       -0.056012366 -0.031954415 0.060175765 -0.0057121073
000010 a3 d6 a3 3d 3e 67 a1 3d a6 9a 65 3d 59 86 b2 bd
       0.07999923 0.0788102 0.056055687 -0.08717031
000020 b1 7a 99 3d 8c 94 bd bd 18 ad 1b 3d a4 54 a9 bd
       0.07494105 -0.09256849 0.038006872 -0.08268097
000030 ef 4e 49 bd b7 f8 e4 bc 76 01 8b bc b8 2a 8a bd
       -0.049147543 -0.027950628 -0.01696847 -0.06746429
000040 d7 f1 d1 3d f9 62 b6 bc 00 d9 74 bd 92 e2 59 bd
       0.102512054 -0.02226399 -0.05977726 -0.05319459
000050 96 60 04 3c f5 c8 4c bd 09 a4 0f 3d fe 32 cc 3d
       0.0080796685 -0.049996335 0.035068545 0.099706635
000060 64 fb dd 3c 51 d6 c3 3d 61 ab c1 3c e6 58 bf bd
       0.027097411 0.09562362 0.02364129 -0.09343128
000070 d1 81 43 bd 07 05 ab 3c 8e e5 cf 3d 34 da 7b 3d
       -0.047731224 0.02087642 0.10151206 0.06148739
000080 7f 75 88 bd 97 18 86 3d e6 60 c0 bd a1 63 86 bd
       -0.066630356 0.06547659 -0.09393482 -0.065619715
000090 8d ce b6 3b fc 91 2c bc b1 54 70 bd e7 43 97 3d
       0.005578822 -0.010532852 -0.058674518 0.07385998
0000a0 2e d4 2b 3d 7c c5 6d 3c c4 ac 27 3d 74 3d c3 3c
       0.041950397 0.014512416 0.040936247 0.023833014
0000b0 8b e6 66 3d 12 a3 8c 3d b9 28 92 bd 2f bf 84 bc
       0.056372207 0.06867041 -0.071366735 -0.016204445
0000c0 b0 0c b7 bc 12 67 a4 3d 01 d0 04 3e e6 8e c0 bd
       -0.022344917 0.080274716 0.12969972 -0.09402256
0000d0 a7 13 17 3d 64 8d ca bd 46 ec 61 3d 67 6f 94 3d
       0.036883976 -0.09890249 0.05515697 0.07247811
0000e0 83 38 44 bd 4b 24 15 3d a1 7e c2 bd a6 f1 be bd
       -0.047905456 0.036411565 -0.09496809 -0.093234345
0000f0 23 e4 56 3d 5b d2 50 bd 6a 2d d8 3c 62 e2 85 3d
       0.052463662 -0.05098186 0.026388843 0.0653732
000100 dd 3f 86 3c 24 f5 29 3c 89 28 9e 3d 0b bc 89 bd
       0.016387874 0.0103733875 0.07722575 -0.067253195
000110 e7 57 b1 3d 96 e2 97 3d 70 0b 2c 3d a6 df 06 3d
       0.08659344 0.07416265 0.042003095 0.03292813
000120 a1 08 5b bd 11 51 17 3b 33 be cd 3d e7 be 8b bd
       -0.053475026 0.002308909 0.10046043 -0.06823521
000130 f7 db 9c 3c 54 fd 33 3d ba 7d 1b bc 4e 1a 5a bd
       0.019147856 0.043942764 -0.009490425 -0.053247742
000140 6b e2 16 bd 0f ca 88 bd 81 2b bd bd 48 d1 44 bd
       -0.036837023 -0.066791646 -0.09236813 -0.04805115
000150 c9 68 56 bb bc 67 5b bd e9 41 11 3d 51 6e 66 3d
       -0.0032716265 -0.053565726 0.035463247 0.05625755
000160 23 3d 74 bd 4b 4e df 3d 7b 06 68 bc 3a b9 f5 3c
       -0.059628617 0.10903605 -0.014161701 0.02999555
000170 67 6f 37 3d cf 20 37 3d b0 6c 8e 3d c3 87 91 bd
       0.044783976 0.044709023 0.06954324 -0.071059726
000180 3c 3e c4 3b ac 4c d4 3d fe fe c7 bd 15 27 20 3d
       0.005988864 0.103661865 -0.09765433 0.03909977
000190 b7 78 f5 bc a2 6b 8d bd 30 1a da 3d 83 f8 eb bc
       -0.029964788 -0.06905295 0.10649526 -0.028805023
0001a0 19 11 c3 bd 88 7c 67 3d ba 5c 98 3c 5e c0 d3 3d
       -0.095247455 0.056515247 0.018598903 0.103394255
0001b0 a3 cb b2 3d 26 d4 b1 3c cf 73 30 3d 8b 0b a0 3c
       0.08730247 0.021707606 0.043079194 0.019536754
0001c0 e2 b1 08 bd 21 42 81 bd 47 db 25 bd 1b 1d be 3c
       -0.033372767 -0.06311441 -0.040492322 0.023207238
0001d0 28 94 a7 bd be 87 c6 bd 3a f3 8a 3d 38 ac 20 bd
       -0.081825554 -0.096938595 0.06784673 -0.03922674
0001e0 7c 40 a3 bd d7 06 56 3d 2a 53 a0 bd 8f 9a 33 bd
       -0.07971284 0.052252617 -0.07828362 -0.04384857
0001f0 3a bd 0c 3d e0 8a 36 bc 10 a8 70 bd fb 92 f9 3c
       0.034360148 -0.011141509 -0.058754027 0.030465594
000200 7a dd b9 3d 62 e3 59 bd 8b 31 ab bd 7c b6 4c bd
       0.090754464 -0.053195365 -0.08359059 -0.04997872
000210 0a 1a 6f bd c5 60 9c bd a1 b0 bb bd 69 5a cd 3c
       -0.058374442 -0.07635645 -0.09164549 0.025067525
000220 09 e7 80 bd 02 ba ee bc 69 de ba bc f5 dd 94 bb
       -0.062940665 -0.02914143 -0.022811132 -0.004543061
000230 95 91 4d 3d e8 cf 92 3c eb c3 37 bd ec 2f d3 3d
       0.050187666 0.017921403 -0.044864576 0.10311875
000240 48 8f 6d bd fa 96 96 3c b7 66 b5 3c e0 33 93 3c
       -0.05799797 0.018382538 0.022143705 0.017969072
000250 ba 5c 4b bc 60 81 57 bd 7f 46 6f bd c9 fc 3f 3c
       -0.012412244 -0.052613616 -0.05841684 0.0117179835
000260 29 75 e0 3c bb a5 64 bd ad 3b 93 3d 66 f7 e9 3d
       0.027399616 -0.055822115 0.071891166 0.11424141
000270 2c 82 a8 bd fc 16 15 bc f0 46 be bc 1f 38 b2 3c
       -0.08227953 -0.009099718 -0.023227185 0.021755276
000280 20 9a 9d 3d 0f 33 2a 3d 2a 61 b8 bb 71 3a ce 3d
       0.07695413 0.0415526 -0.0056268172 0.100697406
000290 2d 06 4b 3d bc ea 70 3d dd a5 21 bc 56 a5 13 bd
       0.049566437 0.05881761 -0.009866205 -0.03604635
0002a0 1b fa f4 3c 16 33 09 bd 22 05 c7 bd 2d 0b de bd
       0.029904416 -0.033495985 -0.09717776 -0.10841975
0002b0 82 ec b1 3c 2a 15 07 bd 0b a5 92 3c 9b fc 4b 3d
       0.021719221 -0.032979168 0.017900964 0.04980145
0002c0 6e 7e ef bb be 69 73 bd 7e 48 08 bd 73 c5 6b 3d
       -0.0073087728 -0.059427015 -0.03327226 0.05756135
0002d0 b7 69 ba bc 8e e0 cb 3d aa 08 56 bb 86 94 eb 3c
       -0.022755487 0.0995494 -0.0032658973 0.028757345
0002e0 78 8a a0 3d d6 3c e0 3a 61 b4 67 3d cc 66 02 bc
       0.07838911 0.0017107974 0.056568507 -0.007959079
0002f0 82 93 5b bd d9 93 98 3c 3b a8 c7 3d 7f 6a 83 3d
       -0.05360747 0.018625187 0.09748884 0.06416797
000300 32 d8 40 bd 5a af af bd 3a 0e 76 bd ea d2 8d bd
       -0.04708118 -0.085783675 -0.06007216 -0.06924994
000310 aa 06 90 3c d6 3b 79 3d 65 b5 98 bd 75 6a 54 3d
       0.017581303 0.06084808 -0.07456473 0.051859338
000320 3f b5 19 bd 37 f5 92 3d fa 97 9a bd fe 0e d1 bb
       -0.037526365 0.07175677 -0.075485185 -0.006379961
000330 11 14 6d 3d 83 aa 53 bd f9 ec 97 bc 1a 7f 50 3c
       0.057880465 -0.051676285 -0.018545615 0.012725616
000340 c2 10 1a bc a3 75 0a 3d d8 ce 63 bc 0e d7 82 3d
       -0.009403409 0.033803593 -0.013904296 0.06388675
000350 54 b2 9a bd 0a f6 fe 3c 85 3b 63 3b 15 6a f1 b8
       -0.07553545 0.03112318 0.0034672928 -0.00011511535
000360 6d ce 11 bc af 5b ac bd 89 d2 3f 3d 70 73 dd 3d
       -0.008899313 -0.08415925 0.04683164 0.108130336
000370 6a 7c 3c bd 3a 5c 8b bc 81 d5 7d bd 88 40 67 bb
       -0.046017088 -0.01701175 -0.06197119 -0.0035286266
000380 04 78 f2 bb dd a3 92 bd 92 3f 88 3d 37 87 a9 3d
       -0.007399561 -0.07160161 0.0665275 0.08277743
000390 49 5c 0f 3c 5c 6a fd bc 7d 8e 34 3c ab f2 92 bd
       0.00875003 -0.030934505 0.0110203 -0.071751915
0003a0 80 97 6c bd c6 80 28 3d 81 a7 56 bd 74 da 16 3d
       -0.05776167 0.041138433 -0.052405838 0.036829427
0003b0 9c 9f d2 bd 01 ae af bd 95 05 5c bd 9b 78 bc bd
       -0.10284349 -0.085781105 -0.05371626 -0.09202691
0003c0 5a ed a3 3d cd bb 8c 3d a7 4d f8 bb 49 27 42 bd
       0.080042556 0.06871758 -0.0075776163 -0.047400746
0003d0 04 bb d3 3d 30 57 7d bd 0d f3 5b 3d 53 d1 68 bd
       0.10338405 -0.061850727 0.05369859 -0.056840252
0003e0 3c 50 52 3d bb 7b f9 bc c4 de 05 3d 62 31 aa bc
       0.05134605 -0.030454507 0.03268315 -0.0207755
0003f0 2a fd 32 3d 70 ff 3d 3d 95 b8 79 bd 48 2a 52 3d
       0.043698467 0.046386182 -0.060967047 0.051309854

bias f4 [64]
000000 ea 80 65 bc ea 3a b1 3b 03 be 46 3d 42 59 9f bd
       -0.014007786 0.0054086344 0.048521053 -0.077806965
000010 80 7a 4b bc 3f 2e d5 3d 7f c4 14 3c 9c 66 34 3d
       -0.012419343 0.10409211 0.009080051 0.04404317
000020 31 a0 01 3d 0c 11 de 3d a6 f1 ab bb 59 37 27 bd
       0.03164691 0.10843095 -0.0052473126 -0.040824268
000030 6d cc a3 bd 20 0e 96 3d 45 3e 9a 3d df 63 8b 3d
       -0.079979755 0.07326913 0.07531408 0.06806158
000040 de 87 89 3d dc 7f 79 3d 2e 67 b5 bc f2 b6 78 3d
       0.06715368 0.06091295 -0.022143926 0.060721345
000050 c0 6d 10 3d 98 c4 21 ba f8 16 ab bb 4d 4f f9 3b
       0.035260916 -0.00061709573 -0.005221244 0.0076083303
000060 2f 7c 08 3d a0 2b 71 bd bd ef 15 3d b0 99 84 3c
       0.033321556 -0.058879495 0.036605585 0.016186565
000070 80 11 34 3b 30 91 95 3d 4d 51 f5 bc b1 f3 eb bc
       0.002747625 0.07303083 -0.029945994 -0.028802725
000080 00 b6 af 3d c4 af 77 3d 55 2a 87 bd fc f0 46 3d
       0.085796356 0.060470358 -0.06599871 0.048569664
000090 7b 72 5b bd f5 a9 fd 3c ff d6 77 3d 8c eb a8 bc
       -0.053575974 0.03096483 0.06050777 -0.02062013
0000a0 43 f8 03 bd 98 af f9 bc 60 da 92 bd 3e 4e a0 3c
       -0.032219183 -0.030479237 -0.07170558 0.019568559
0000b0 48 d6 66 3c 97 ae a8 bd fd 38 dc bd 67 5e 99 bd
       0.014089175 -0.08236425 -0.10753057 -0.07488709
0000c0 ad ab 7d bd c6 fd d5 bd ac e8 d7 bd 28 b0 71 3d
       -0.0619313 -0.10448794 -0.105424255 0.059005886
0000d0 bc 46 93 3d 67 b4 c8 3d 2f 9d 64 bd f8 45 f3 3b
       0.07191226 0.09800034 -0.055813964 0.0074241124
0000e0 c1 bb 1f 3b e1 43 3e 3c e4 74 53 3d cf f1 d2 bd
       0.0024373385 0.011612863 0.051625147 -0.103000276
0000f0 6a 0a 7c 3d 8d 12 18 bd 18 9a 26 3d 76 ac f4 b9
       0.06153337 -0.037127066 0.0406743 -0.000466678

weight f4 [3, 64]
000000 08 81 03 b7 ae eb 03 3d fb db ca bd ad ce 34 3e
       -7.838251e-06 0.032207184 -0.09905239 0.17656966
000010 a6 1c e1 bd 20 b1 11 be 73 b4 ac 3d b7 e2 c9 3d
       -0.109917924 -0.14227724 0.084328555 0.098576955
000020 b7 d8 20 be a7 44 f8 bd f6 cf be 3d 19 f3 af bd
       -0.1570767 -0.121224694 0.09317009 -0.08591289
000030 5c 1d 00 3e d0 18 d8 bd 44 b7 95 3d cf 6e 9f bd
       0.125112 -0.105516076 0.07310346 -0.07784807
000040 7d 6e 15 bd e6 76 b8 bd f8 95 84 bd 8c b6 18 bd
       -0.036482323 -0.09007053 -0.06473917 -0.037283465
000050 4f f9 d7 bc 60 50 8e 3d e5 32 7c 3d 9a 9e 88 3b
       -0.026363997 0.06948924 0.061571974 0.0041692974
000060 54 48 b1 3d b8 16 f4 bc d1 dc 86 3d 0b fd b9 3d
       0.086563736 -0.02979599 0.06585086 0.09081467
000070 83 5c b3 3d f3 b5 ec bb 07 e4 08 3e b5 af 67 3c
       0.087578796 -0.0072238385 0.13368236 0.014141013
000080 00 e6 b9 bd be d5 24 bd ef bf 8f 3d ec c5 d7 bd
       -0.09077072 -0.040242903 0.0701903 -0.105357975
000090 2e 9c 8b 3d 57 04 b1 3d 6e 5f f0 bc 7f 32 7c 3c
       0.06816898 0.08643406 -0.02934238 0.015392899
0000a0 93 76 ed bd cb 30 ac bd d1 49 35 3c 15 6b 94 3d
       -0.11594882 -0.08407744 0.0110649625 0.07246987
0000b0 eb 9e d0 bd 4a fc e7 bd 8b c7 8c 3d e7 b3 ce 3d
       -0.10186561 -0.11327417 0.06873997 0.100929074
0000c0 d2 74 f9 3d 1c 32 01 bd 54 ba 97 3d fa 9e f0 bd
       0.12180485 -0.03154193 0.07408586 -0.117490724
0000d0 b7 0c 79 3d 9f d2 c4 3d b5 29 0e be 86 c1 11 3d
       0.06080314 0.09610485 -0.13883097 0.03558495
0000e0 3b 89 6e bd f2 da cd 3b c3 db cb bd bd b3 af 3d
       -0.058236342 0.006282204 -0.099540256 0.08579204
0000f0 42 25 b3 3c 9a 2e b0 3c b6 75 2c 3d 31 d0 09 3e
       0.021868352 0.021506596 0.042104445 0.13458325
000100 26 5f ad 3d 5c e8 77 bd d2 86 71 bd 1c b0 3a be
       0.08465414 -0.06052433 -0.058966465 -0.18231243
000110 d0 78 31 bd 2a 2f c6 3d d3 a3 b9 3c 78 2c 3a 3d
       -0.043328106 0.096769646 0.022661125 0.045452565
000120 59 91 c0 3c 3a db 2e 3d bf 5f 9d bd 8d 60 08 bd
       0.023506807 0.04268954 -0.07684278 -0.033295203
000130 23 68 32 3d 93 51 94 bd 01 a9 e0 3d 00 fd c0 3d
       0.043556344 -0.072421215 0.10969735 0.09423256
000140 93 fb b0 3d 4b 56 2f 3d 63 92 fe bd 92 b2 b6 bd
       0.08641734 0.042806905 -0.12430265 -0.08920778
000150 ff 72 d6 3d 55 cc 15 bd 27 04 ce bd 7d b6 94 bb
       0.104711525 -0.03657182 -0.10059386 -0.004538356
000160 54 38 7a bc 44 33 cb bd 3e 59 c4 3d c4 2c b5 bc
       -0.015272219 -0.099218875 0.09587334 -0.022116072
000170 c6 7e a7 3a 5b 79 ab 3d 31 96 be bc 71 c9 f2 bd
       0.001277887 0.08372756 -0.023264976 -0.11854828
000180 58 00 e4 bc b7 6d 1e 3e 41 2b e8 3d 98 17 0b bb
       -0.027832195 0.1547154 0.11336375 -0.002122378
000190 66 01 f0 bd f2 fb e8 3d b7 3c 46 bd 0e 73 f7 bd
       -0.11719017 0.1137618 -0.048397746 -0.12082492
0001a0 79 58 9c bd 06 0e a6 3d 14 ce 28 bd 15 9b 32 be
       -0.07634062 0.081081435 -0.041212156 -0.17441972
0001b0 c7 75 80 bc a7 ca 97 bd 8e b5 95 bd 03 5b 82 bc
       -0.01568116 -0.074117 -0.073100194 -0.015912538
0001c0 e5 bb e2 3d dc 7f b0 bd e4 c2 e2 bc 98 fd a7 bd
       0.11070994 -0.08618137 -0.027680822 -0.08202666
0001d0 d7 70 c1 3d b6 35 bd 3d 23 c2 ae 3c 8a 66 e9 bd
       0.094453506 0.0923876 0.021332806 -0.11396511
0001e0 b4 29 1d 3e 9a be 2e 3d 77 66 5f 3d 39 e1 4d 3c
       0.1534794 0.04266224 0.054541077 0.012565904
0001f0 ec 5d af bd e5 d3 90 3d 9e 75 ac bd 8e 36 ed bd
       -0.08562836 0.07071666 -0.08420871 -0.11582671
000200 ef ab 1b be d8 2f 06 3e c5 77 f3 bd fe 99 c9 bd
       -0.15202306 0.13104188 -0.118880786 -0.09843825
000210 08 34 89 3d 22 b7 48 bd 04 3c 88 bd d3 a5 6e bd
       0.06699377 -0.049002774 -0.06652072 -0.05826361
000220 47 c2 e2 bc 34 53 16 be c7 6a d7 3d a7 42 28 3c
       -0.02768053 -0.14680177 0.10518413 0.010269797
000230 0b 04 7d 3c 09 8f 05 3c b8 7e 5f bd e3 9c 22 3c
       0.015442858 0.008151778 -0.054564208 0.0099251
000240 fb 5d 25 bd e4 d5 26 3d 8d ed 2b 3d 9c 2a c3 bd
       -0.04037283 0.040731326 0.041974593 -0.095296115
000250 c4 95 47 bd 95 b8 fc bd d2 00 a7 bd cc d3 eb 3d
       -0.048726812 -0.12339894 -0.08154453 0.115150064
000260 9d 2e 04 3e 23 74 f5 3d e4 36 8b bc 7f 5c b5 bd
       0.12908407 0.11985042 -0.016993947 -0.08855533
000270 a2 e5 08 3e 26 4f 0f be 6b 28 26 3d fe 96 ae bc
       0.13368848 -0.13995036 0.04056589 -0.021312233
000280 8b 1b 9b bd 90 b4 7b 3d ab 4e 9b bd df fe dc 3d
       -0.07573613 0.061451495 -0.07583364 0.107908
000290 f0 af 92 3d ee cf 04 bd de 56 c3 bd 73 d0 1d 3d
       0.07162464 -0.03242486 -0.09538053 0.03852887
0002a0 be 97 b6 3d 1c cf 0c 3c f4 3a 06 3e 8f 4c c3 bc
       0.08915661 0.008594301 0.13108426 -0.023840217
0002b0 8f ea aa bd 28 f5 27 3d 12 4e 34 3d 88 9f fb bd
       -0.0834552 0.041005284 0.044019766 -0.122862875
0002c0 e0 39 03 bd 6d 21 a5 3d 32 7d c6 3d 9b 33 dd 3c
       -0.032037616 0.08063016 0.09691848 0.027002146
0002d0 d0 c4 1b 3c 6d 91 1d bd 6b 8d ab bd 2f 9a e5 3d
       0.009507373 -0.038468767 -0.08376583 0.11211049
0002e0 97 12 08 bd f2 9d 15 bd 73 60 d9 bd 6d b6 88 3d
       -0.033220854 -0.03652758 -0.10614099 0.0667542
0002f0 16 5f be bd d4 df de bd 5e e0 af 3d 60 aa 13 be
       -0.0929548 -0.108825356 0.085877165 -0.14420462

bias f4 [3]
000000 e5 c4 30 bd fb 77 a4 3c be 21 96 bd
       -0.043156523 0.020076742 -0.073306546
